src/models/model_checkpoints/ConvNetSimple/lambda=5_gamma=0.001.pth (torch_old, 84172 bytes, 19 tensors)

cnn_apt_1.weight f4 [100, 40, 3]
00000000: ff23 803c 10f0 7e39 2891 f83d 5fc8 483d
00000010: 4ef8 72bd a984 d6bc 9a73 7a3c d93a f5bd
00000020: de6e 313d d7ea 8bbd 9353 a8bd 1fcf b13d
00000030: 792f a8bc 2743 c9bd edb0 c93d 7cc6 61bd
00000040: 053c 80bd 3bfc 0c3e c4fe df3c 852e 49bd
00000050: 1cde d33d b3c7 b93b 3afb 17be 8b8d 823e
00000060: e2b2 28bd dd5a d0bd 234a 443d 9797 20be
00000070: 7ea9 2bbd d20e 043e cccc 35bd 1a05 8abd
00000080: d488 853d 7232 9aba 19d1 55bd b7eb eb3c
00000090: 88fe 043d 0a3c 8abd 7015 083d e40f 6e3d
000000a0: 32e5 efbd 072c 843d 8b08 c33d b77d 08be
000000b0: 8207 103e 0f6a 51bc 444c 4cbe 04d3 0c3e
000000c0: dbf8 173d 2aa0 38be 7ca1 e13d f9a3 c6bc
000000d0: 2392 e2bd 9770 d23d 4835 04bd 97da 2ebd
000000e0: 7cf4 013e cce7 59bd 8b45 b43c 78e1 9c3d
000000f0: d6ea a33c a496 c0bd 68d1 d13d 2bb5 b9bd
00000100: 0ec0 63bd 134f 143d 8761 dbbc 0c29 c6bd
00000110: 97b3 cc3d 7052 c33d f100 83bd 07be d93d
00000120: 0dc5 753d 4d2d d0bd 3975 c33c e3b6 80bb
00000130: 14cd 12be 9828 313e a8f7 d3bd 1a53 fcbd
00000140: 0ae7 a93c d5fd 0d3e d76b 5dbe 9ee4 003c
00000150: af61 98bd 9a03 1ebe ff6c 1a3e 3850 f5bd
00000160: 29ef 13be 2457 3e3d ca2a 58bd 53a6 2abd
00000170: abbd 603e 14d6 a03d beb6 b8bd 49eb 6f3e
00000180: 6121 403d 983a f5bd 18ca 273e 7811 923c
00000190: e712 22be be79 a43d 7ad0 133d f13b 78bc
000001a0: 64a2 4b3e 6660 d33c 779e 31bd e697 2e3e
000001b0: 85f9 b8bc 9742 0dbd 176e 5e3e f1aa 82bc
000001c0: 8d83 2bbd faff de3d f6b9 fe3c 5908 c9bd
000001d0: 52eb 523d 1321 aabc efb1 3dbe 544f c93d
000001e0: 46e0 ab3d 3059 0fbd 0eb3 553d d034 933d
000001f0: ba95 35bc e915 b93d 354a 6d3b a25f 39be
00000200: 929c 33bd f1a2 553d 4b09 d7bd 5417 96bd
00000210: 4f89 703d 4d0a 5a3d d316 ee3d 6469 f53d
00000220: 9f0b ecbd cbd1 e13c 4f14 d83a 372e 8bbd
00000230: 8c5b fbbb 2383 5e3e 5435 fa3b a9c2 503d
00000240: addb 4cbd e9ac e53c 9e5e ea3d ca90 6c3d
00000250: 64e1 20be d309 93bd dedf 173d 518f b8bd
00000260: 457e 0b3b 6763 4d3d 9898 e93b 0140 503d
00000270: 6664 973d a36c a4bd 29e9 953c aa8c 9c3c
00000280: 76f4 0cbe fd41 b93b d381 5f3c 75d1 c8bd
00000290: b9e3 a93d f3b6 bb3d 1bba c5bd 1eb6 843c
000002a0: b8cb b6bc 2fab 38be 17bf c53d 07a8 64bc
000002b0: 0377 4bbe 9e13 003e 0474 8dbc e46c 39be
000002c0: 7e2b fc3d 8e7f 7d3d 139c 97bd 9b0e 6abd
000002d0: 96a8 c33d 691d 893c 3e40 5ebd 5a8b aebc
000002e0: a2cf 58bd 8a41 77bd 72db b1bb 95cf b63b
000002f0: 001a bfbb e585 c73c 3d4e ddbd ef24 65bd
00000300: 6a2f babd 802e 98bc 6a46 cb3d 0d32 2f3e
00000310: 1e71 943b bec7 533d 2547 013e 4d24 c1bc
00000320: ec90 07bc 2a46 343d 33c4 a0bd 481a d1bc
00000330: 85d0 4b3d efe0 e3bd 5e3a 923c 83ac b03d
00000340: c9b2 46bd d6c8 033e 9093 3a3d 54c6 54be
00000350: b7db 513d 3112 b2ba 3f35 ecbd 3bc8 30bd
00000360: 1071 843d ba43 92bd d4b2 8d3d ea30 1abb
00000370: aea0 31be f61e 623c ae30 c33d c9e7 48bc
00000380: 1547 fc3c 7299 f33d 6d51 66bd d721 8bbd
00000390: ce03 833c bbb0 243c 073e 0d3d 3d3e f63d
000003a0: f296 9abc 8cc5 ab3c d540 2c3d efcb a0bd
000003b0: 12b8 693d f174 5b3d 0575 00be 6eaf ba3d
000003c0: 6225 bdbc 62b3 823d 4a3f a0bd 6e20 0abd
000003d0: ca92 8b3b 8a67 c9bd b5a1 d6bc 7b04 263d
000003e0: d30d 133d aca3 2dbd 0903 acbd a011 ab3c
000003f0: 9567 adbc a868 a13c 62d9 9c3d 6fa3 de3b
0.015642164 0.00024312758 0.12137061 0.049019214 -0.059318833 -0.026186304 0.015286351 -0.11974115
0.04331862 -0.068319015 -0.082190655 0.08682083 -0.02053045 -0.098272614 0.09848199 -0.05512093
-0.06261448 0.13768093 0.027343161 -0.04911663 0.103450984 0.005669558 -0.14841929 0.25498614
-0.04118622 -0.10173581 0.047922265 -0.15682827 -0.041909687 0.12896279 -0.044384763 -0.06739254
0.065202385 -0.0011764301 -0.052201364 0.028798921 0.032469302 -0.06749733 0.03322357 0.058120623
-0.117136374 0.0645371 0.09523114 -0.13329206 0.14065364 -0.012781634 -0.19950968 0.13752371
0.03710256 -0.18029848 0.11017129 -0.02424811 -0.110630296 0.10275381 -0.032277375 -0.042688932
0.1269092 -0.053199574 0.022005817 0.07660192 0.02000944 -0.094037324 0.10245019 -0.09067758
-0.05560308 0.036208224 -0.026779903 -0.09675798 0.099951915 0.09537208 -0.06396664 0.10631948
0.060002375 -0.101648904 0.023859607 -0.003928052 -0.14336044 0.17300642 -0.10349971 -0.12320538
0.02074005 0.1386636 -0.21623169 0.007867007 -0.07440507 -0.15431061 0.15080641 -0.11978191
-0.14446701 0.046469823 -0.05277518 -0.041662525 0.21947353 0.07853332 -0.0901923 0.23429598
0.046906833 -0.119740665 0.16385686 0.017830595 -0.15827523 0.08031033 0.03608749 -0.01515101
0.19886166 0.025802802 -0.043364014 0.17050132 -0.022579918 -0.034487333 0.21721683 -0.015950652
-0.041873503 0.108886674 0.031094532 -0.09816045 0.05149395 -0.020767724 -0.18524908 0.09829584
0.08392386 -0.034997165 0.052172713 0.071878076 -0.011083061 0.09037382 0.003620756 -0.18102887
-0.04385049 0.052157346 -0.10499819 -0.07328668 0.058724698 0.05323248 0.11625447 0.11982992
-0.11525654 0.027565857 0.0016485545 -0.06795924 -0.0076708253 0.21729712 0.0076357517 0.050966892
-0.050014187 0.028036552 0.11443828 0.05775527 -0.1571098 -0.07179608 0.03707873 -0.090117104
0.002128498 0.050143626 0.0071287863 0.05084229 0.07392196 -0.08028533 0.018299656 0.019110043
-0.1376513 0.0056536184 0.013641792 -0.09805576 0.08295388 0.09165754 -0.096546374 0.016200121
-0.022313938 -0.18034051 0.09655588 -0.013956076 -0.19869618 0.12507483 -0.017267235 -0.18107945
0.12312983 0.061889224 -0.07402816 -0.057142835 0.095536396 0.016737657 -0.054260485 -0.021306682
-0.05293239 -0.060365237 -0.0054277712 0.005578945 -0.005831957 0.024355838 -0.108059384 -0.055943426
-0.09091075 -0.01857686 0.0992554 0.17108937 0.004530086 0.05170416 0.12624796 -0.02357688
-0.008274298 0.044012226 -0.07849922 -0.025525227 0.049759407 -0.11126887 0.017850097 0.08626654
-0.048510347 0.12869582 0.045550883 -0.20778781 0.051234927 -0.0013585744 -0.115335934 -0.043159705
0.064668775 -0.07141824 0.069188744 -0.002352769 -0.1734645 0.013801327 0.09530769 -0.012262293
0.030795613 0.11894502 -0.056229997 -0.06793564 0.015993025 0.010051901 0.034482982 0.1202359
-0.018870804 0.020968221 0.042054016 -0.07851397 0.05706031 0.05357832 -0.1254464 0.09115492
-0.023089115 0.06381871 -0.078245714 -0.033722334 0.004259442 -0.09834202 -0.026200155 0.040531617
0.035901856 -0.042392418 -0.083990164 0.020882428 -0.021167556 0.019703224 0.0765865 0.006794385

cnn_apt_1.bias f4 [100]
00000000: 42a3 003e 0496 a83d 8687 193d 682b 803b
00000010: 9100 ea3d 49a0 093e f44c 37bd f906 9abc
00000020: 053c c03d 0b2d a73b d940 b5bd 76f7 a7bb
00000030: 6674 6ebd f223 0c3e 3513 b1bd 1d87 53bb
00000040: 9306 5ebd 1f6d 09be 9be4 0fbb 18be 66bd
00000050: 7b34 04bd a7ef a2bd b68b e0bc 9ea5 9d3d
00000060: f18d 82bd 4efe 1abe 9145 cabd aea9 9fbd
00000070: 175f 96bc 6bdd 39bd 2439 bebd 6635 d3bd
00000080: e530 fdbc 44ba 55bd c08b f6bc d6b6 87bd
00000090: b3fd af3d 1c28 42bd b8aa c7bc 9db5 113d
000000a0: 9825 cf3d 53d8 393d 6a98 23be df1e b4bb
000000b0: ac94 16bd b663 d53d 74c6 a3bd 3aab 0fbd
000000c0: ddfc 00bd 0172 afbd 0ace bebc 477c 9abb
000000d0: eb88 453d 81b4 8e3d b365 b7bd 64d2 eaba
000000e0: fdf3 cdbd 84e3 5cbc 8801 dcbc 4bdc 8ebd
000000f0: 08e3 2b3d 18cc 06be a21e 783c 46f7 86bc
00000100: feca 17bd 879f 4dbd f5b3 003d d4fa 1fbd
00000110: 3e00 a1bd 8143 a83c df62 813d d91f 48bc
00000120: 0056 743d 6802 a5bd a522 ad3c 0eda d0bd
00000130: 0c5e eebd 4d9e d3bd c89a a23a d130 ab3c
00000140: 91c9 a53d 62ec bbbd ab31 fe3d 85db 85bd
00000150: 7c3d 22be 62e6 79bd 961b c53d 29a3 17bb
00000160: ab9f 3abc 86a8 9d3d 1140 b0bd 4e1e 1f3d
00000170: ce4d 473e 7140 3fbd b09c 403d a156 b3bd
00000180: 7b19 96bd 21bd dd3d 0527 b3bc c26f d4bd
0.12562278 0.08231738 0.03748276 0.0039114244 0.11425889 0.1344005 -0.044751123 -0.018802153
0.09386448 0.005101805 -0.08850259 -0.005125935 -0.058216475 0.13685587 -0.086462416 -0.0032276579
-0.05420549 -0.13420533 -0.0021956328 -0.05633363 -0.03227661 -0.07955866 -0.02741037 0.076976046
-0.063747294 -0.15136072 -0.0987655 -0.07796036 -0.01835589 -0.045377176 -0.092882425 -0.10312919
-0.030907104 -0.05217959 -0.030095935 -0.0662667 0.08593311 -0.047401533 -0.024373397 0.03557359
0.10114592 0.04537232 -0.1597611 -0.005496844 -0.03676288 0.10419409 -0.07996836 -0.035075404
-0.03149115 -0.085666664 -0.023291606 -0.004714522 0.04822628 0.06968022 -0.089549445 -0.0017915484
-0.10056303 -0.013481978 -0.026856199 -0.06975611 0.04196456 -0.13163793 0.015144022 -0.016475331
-0.037058823 -0.050200965 0.03142162 -0.039057568 -0.07861374 0.02054 0.06317686 -0.012214624
0.05965233 -0.080570996 0.021134684 -0.10197841 -0.11639032 -0.10332928 0.0012405748 0.0208973
0.08095086 -0.09175946 0.12411817 -0.06536011 -0.15843767 -0.061010726 0.09624402 -0.0023138023
-0.011390607 0.07698159 -0.0860597 0.03884726 0.19463274 -0.046692315 0.04702443 -0.087567575
-0.07329079 0.10827089 -0.021869192 -0.103728786

cnn_apt_2.weight f4 [50, 100, 1]
00000000: 755b 4d3d 12fc d1bd 580b 0a3c c679 b33d
00000010: ef2f 3ebd aa86 b2bd 832b 4c3d c767 a53c
00000020: 74cc 9dbd 1463 99bd dd18 13bd 1365 a8bc
00000030: 53ea 90bd c3e5 d8bd b6da 643c ebf2 1d3d
00000040: 19cf 923d a0d8 963d 11fe b43c 6480 49bb
00000050: aa74 423d a5a9 ae3d 928a 623d fb26 a4bd
00000060: 97e2 663d e828 86bc 0f57 da3d 1642 04bd
00000070: 8540 bdbd 98ef a1bd b6d6 143c 383e ac3d
00000080: 981a 46bc d4c9 303d c9a8 64bd 41b3 c73d
00000090: 4ccb 343c e4fb a4bc d6bf 7c3d 4eb5 793d
000000a0: 0b50 b0bd 00dd b63c e891 e03c ac97 5e3d
000000b0: 2a9f d03d 380a 05be dfaa bfbb cf61 8e3d
000000c0: 24cb be3c ac51 25bd bf51 b7bd 097b b9bd
000000d0: e24e e63a c3e9 e83c 5979 62bd 39d7 86bd
000000e0: 2180 ab3d d53b 833c a621 1b3b d8c8 3fbd
000000f0: 5d5c 033d 1556 003d 6c21 a8bd e304 74bd
00000100: d9fe c8bd 1cab aa3d e175 fd3c 7ce2 22bd
00000110: d9e3 943d edd2 c03d 4cb4 463d 28ef e8bc
00000120: ee51 783d 717d 043e 0048 573d ac5a 823d
00000130: 6294 5bbc 4417 a63d 8c8e 0ebd 0188 ed3b
00000140: e966 373d 9682 ab3c e49a 1c3d 9cfa 61bc
00000150: 1e53 323c 9632 903d 1915 22bd 5f56 4e3c
00000160: d456 2cbd c386 b5bd 7e37 ab3d 5361 42bd
00000170: 8eaa 45bd a4bc ae3d 5b04 aabc 3209 c0bc
00000180: 23f7 babd c135 efbc 38a7 533d a2af c93c
00000190: bcb0 163c 9006 90bd 7e77 47bd e4ed 54bc
000001a0: fc20 8b3d a748 923d 2aa0 de3b c295 c83c
000001b0: 9bb2 ba3b f4dd 083c 7ada 8bbd 6d24 883d
000001c0: 2b36 23bd f828 8fbd e25f b9bb b331 56bd
000001d0: 8f9e 173d 6638 a0b9 98ef c8bd 44ac 673d
000001e0: 727e a43d 8164 81bd e4f2 853d 5d1c be3d
000001f0: 0a73 9bbc dd15 13bd af86 c0bd e46b a5bd
00000200: caf9 38bd 52de cabb 8ee0 653c b8c6 8bbc
00000210: 8555 b23d f4b4 b1bd 54bc 853d 1a46 093b
00000220: d5de f23c 39c3 193b 69f9 f63b ed9d aebd
00000230: 4b6c 8cbc 5b55 b4bd 4f49 dc3c 8e38 18bd
00000240: b00d 42bc 9ad1 72bd 3624 663d 2b5e c0bd
00000250: 73f0 423d 606d 9c3c 2d22 523d 4945 583d
00000260: 7ed1 acbc 2c8d 88bd 970a 2c3c cd31 a8bb
00000270: 94ba aabd a118 913d f517 b33c 9751 c13b
00000280: c598 143d 9a43 35bb f13e 273d bcdd 75bd
00000290: fa51 883d 9c23 653d d8ef 89bd 153d 16bd
000002a0: 9d02 c23d 5fca b73c 92db 5b3d 0bab b3bc
000002b0: 5b29 b33d bcdd 20bd 319b 9b3d bd9e 0ebd
000002c0: 9f93 8d3d f7cc 45bd 3f44 aebc 3f73 203d
000002d0: 26fb ad3c a46f 4dbc b2c1 813d 73cf a03d
000002e0: 51d1 56bd 9053 3ebd 1569 ec3c aacc f83d
000002f0: fe7b 603d 1ad7 e1bd 6395 a73c adbb acbd
00000300: c79d 6fbd 642f 9b3d 6915 bd3d 5fbb b1bc
00000310: 6380 383d 3eb1 33bd 4a92 b13d fbe1 76bd
00000320: a16c 50bd d70c eabc ae1b b83c 8491 a8bd
00000330: e578 ab3d 2e1a a2bd ce25 91bb ffb9 90bc
00000340: 58be babd 8c3c 163d d7a7 323d 775e 87bd
00000350: d4e6 563d a344 a83b 4b1a 573c 9c8a 233d
00000360: cffd b73d bc9b 40bd ba82 223d 7b67 61bd
00000370: 3022 213c 1ad2 be3d 0a1a a03d 52db 08bd
00000380: b5ff a83d a826 83bd 0b48 c03d 3a87 3bbd
00000390: c485 5d3b 0815 94bd 24fc a1bd ab2d 823d
000003a0: f6d8 91bc 69e2 acbd 8b5f d93d f9fd 523b
000003b0: 7407 763d 872a a3bd 8cdc 0fbd 8540 7dbd
000003c0: 245e 4bbd ad11 e13d a851 ea3c 2e88 a33d
000003d0: 6532 b7bd 888e 70bd 65da 90bc 5873 973d
000003e0: 9948 b9bd c71c 9dbd f574 c83d 20ae 113d
000003f0: b8a3 d53d 8c76 3a3d cc27 853d 2ff6 cc3d
0.05013605 -0.10253157 0.008425556 0.08763461 -0.04643243 -0.087170914 0.049846184 0.020191086
-0.07705012 -0.07489601 -0.035912383 -0.020556008 -0.07075944 -0.105906986 0.01396816 0.038561743
0.07168407 0.07365537 0.022093805 -0.0030746693 0.04747454 0.08528451 0.055307932 -0.080152474
0.056368437 -0.016376927 0.10661136 -0.032289587 -0.09240822 -0.07907027 0.009084394 0.08410305
-0.012091301 0.04316123 -0.05582503 0.09750987 0.011034798 -0.020139642 0.061706387 0.06096392
-0.08609017 0.022322178 0.027413324 0.054343864 0.10186608 -0.1299218 -0.005849227 0.06952249
0.023290224 -0.04036109 -0.08951139 -0.0905667 0.0017571116 0.028431779 -0.055291507 -0.06584019
0.08374048 0.016019741 0.002367118 -0.0468224 0.032070506 0.031332094 -0.082095 -0.059574973
-0.09814233 0.08333418 0.030939998 -0.039766774 0.07270021 0.09415231 0.04851179 -0.028434351
0.06062501 0.12938477 0.0525589 0.063649505 -0.013402076 0.08109906 -0.034803912 0.007248879
0.044775877 0.020936292 0.038233653 -0.01379266 0.0108840745 0.070408985 -0.0395709 0.012593835
-0.042074993 -0.088635944 0.08360194 -0.047456097 -0.048258357 0.08532074 -0.02075403 -0.023441885
-0.09129169 -0.029200437 0.051673144 0.024619881 0.00919741 -0.07032502 -0.04869794 -0.012996171
0.06793401 0.071427636 0.0067939954 0.024485473 0.005697561 0.008353699 -0.068287805 0.06647573
-0.03984658 -0.06990236 -0.005657182 -0.05229349 0.037016448 -0.00030559598 -0.09811324 0.05656077
0.0803193 -0.06317998 0.06540468 0.092827536 -0.018975753 -0.035909522 -0.09400689 -0.08077219
-0.045160092 -0.0061910534 0.014030589 -0.01706253 0.08707718 -0.08677092 0.06530061 0.0020946325
0.02964727 0.002346231 0.007537056 -0.08526216 -0.017141482 -0.08805343 0.026890425 -0.03716331
-0.011844084 -0.059281923 0.056186877 -0.09392961 0.04759259 0.019095123 0.051302124 0.05280045
-0.021095987 -0.066675514 0.010500572 -0.00513289 -0.08336368 0.07084776 0.02186201 0.005899619
0.036278505 -0.0027658702 0.04083151 -0.060025916 0.06656261 0.055942163 -0.067352 -0.036679346
0.09473155 0.022435365 0.053676195 -0.021932146 0.08748122 -0.039273962 0.0759796 -0.034819353
0.06912922 -0.048291173 -0.021272777 0.039172407 0.021237921 -0.012538824 0.063357726 0.07852068
-0.052445713 -0.04646641 0.0288587 0.121484116 0.05480575 -0.110273555 0.020456975 -0.08434234
-0.058500078 0.075773984 0.09232599 -0.02169579 0.045044314 -0.043870203 0.086704805 -0.060274106
-0.050884847 -0.028570576 0.022474136 -0.0823088 0.08372668 -0.0791515 -0.0044295555 -0.017666815
-0.091183364 0.036678836 0.043617096 -0.066098146 0.05246623 0.0051351353 0.013128827 0.03992711
0.08983957 -0.04702352 0.03967545 -0.055030327 0.009834811 0.093174174 0.078174666 -0.033412285
0.08251897 -0.064038575 0.09388741 -0.04578326 0.0033801654 -0.07230574 -0.0790942 0.06356367
-0.01780365 -0.08441622 0.106139265 0.0032194837 0.0600657 -0.07967096 -0.03512244 -0.06182911
-0.049650326 0.109896995 0.02860339 0.079849586 -0.08945159 -0.05872968 -0.017682264 0.07395047
-0.0904705 -0.076715045 0.09787933 0.03556645 0.104316175 0.04552321 0.06501731 0.10007893

cnn_apt_2.bias f4 [50]
00000000: b466 b53d d3c3 1ebd b4e2 5c3d da9f 883d
00000010: 826d b1bd 3c93 3cbd 411a 16bd 1c1f 71be
00000020: deb2 d9bd 5d5e 363d 43c2 4abb c6dc f13c
00000030: a880 da3d 69d8 653c c740 87bd e3ea 14bd
00000040: df76 edbc 31e4 923c 5e46 68bd 9e6a 853d
00000050: a790 4d3d 53be 9a3d 1ea3 763b df07 313d
00000060: 50ce adbc 6d00 5e3c 762b dfbd 70dc e4bc
00000070: 2c7c 4ebd 6943 8e3d 9845 94bd dc34 913e
00000080: 5365 9bbd 1c87 863c cf3e 05be f8e8 c4bd
00000090: c39f 153d f328 12bd 9d2a 8fbd 30e7 7f3e
000000a0: e901 c3bc 1b85 e5b9 3169 dfbc 97ce 63bc
000000b0: 2ce5 aa3d 3764 c13d af55 20be 9a75 62bd
000000c0: b836 163d 3e7f 2fbc
0.0885748 -0.03876097 0.05392714 0.06671114 -0.08663465 -0.04603885 -0.03664613 -0.23547024
-0.10629819 0.044523586 -0.0030938543 0.029524218 0.106690705 0.014028647 -0.06604152 -0.036356818
-0.028987346 0.017931076 -0.056707732 0.06514476 0.05018678 0.07555833 0.0037633847 0.043220397
-0.021216542 0.013549906 -0.108969614 -0.027937144 -0.05041139 0.06946451 -0.072398365 0.2836064
-0.075876854 0.016421847 -0.13012241 -0.09614748 0.036529314 -0.035683583 -0.0699055 0.24990535
-0.023804622 -0.00043777455 -0.027271839 -0.013904235 0.08344492 0.094429426 -0.15657686 -0.055287935
0.036673278 -0.010711489

cnn_pep_1.weight f4 [50, 8, 3]
00000000: 2a5d 53be 05eb 353e 43bf 383e d7f2 a43e
00000010: 332d 34be d050 c03d bdac bb3e 5111 2ebe
00000020: aebd 463d 968b 353d ddde 8fbd 6375 8dbd
00000030: 9783 163e 3ea1 313d f6a7 8cbd 4d5b 8a3e
00000040: 16eb 1d3d ef2b f8bd cc67 0c3e dc4c 35bd
00000050: f95e e2bd d637 1ebe 96c2 0fbd dcc8 3c3e
00000060: cd73 6cbe 4d6a 3f3e 8dd3 4dbe 2f60 fcbd
00000070: 8be7 a53e 94c0 c6bc 8aa2 60bd 0499 013f
00000080: f4c7 c9be fb98 07be e792 ccbd 1bdb 973a
00000090: cd8d 0fbe b521 eb3e 08dc 55be 6b68 6dbe
000000a0: f664 b93d 8bb1 24bc 30dc dabd 58c7 0e3e
000000b0: b046 89bd 0bfc 6abe 1a6d 6c3e f73c c4bd
000000c0: b56d 32be e545 373e 301d 6bbd d11d 063e
000000d0: 239f 07be 6a03 33bd 49ff 10be 7e8c 23bd
000000e0: d7d4 cf3d 982b 133e 7095 083e 1d12 5e3a
000000f0: c15a c0bc b1cc 8e3d 083c 073e 9734 97bd
00000100: 872a cf3d 9643 2bbd 86dd ffbd 0e69 29be
00000110: ad8a abbd 96c4 b43d 7ab3 cfbd 90e0 c03d
00000120: 136a 85bd 63ff 4cbe 8458 293e 6aa0 24bd
00000130: da24 4a3e 6ce6 56be 7030 1fbd 1f13 373e
00000140: 4bdc bdbd 2a81 f9bc d9ed 18be fa2c 2b3c
00000150: a4e5 bebd d490 a23d f870 1b3e 9de5 bc3c
00000160: b994 643d f15e abbd 57ff 8b3d d0b0 3a3d
00000170: 07a1 213e d691 87bd 415c 47bd be0e 2fbe
00000180: 3032 a13c 5180 ca3c b522 01be 341c 9d3d
00000190: ab38 623e fad7 b4bd 52d4 843d 30bd 073d
000001a0: 561c ae3d 69f9 27be 9e37 ee3e c2ae c5bd
000001b0: 9fac ed3d f14a a0bd 1096 513e 7470 03be
000001c0: c16a bfbd 2e12 df3d ac77 5a3d 0084 6c3e
000001d0: 83cd a03d cb92 46bd c902 103e be23 b03d
000001e0: 229c 4e3d 867a 2e3e bb8e 24be 1e72 073e
000001f0: 03e3 9f3d f1d9 d13d 16b8 acbd 843d f7bc
00000200: 4485 8b3d 5e45 e83d b5f9 133e f352 55bc
00000210: d15f ba3d a83c fabc 9f4f 563e 5d00 c2bd
00000220: 77f3 69bd 41cb 2e3c 485e 53be 9c9a 8bbd
00000230: 43d9 e6bc 9b2c f53d e9fc c13c efca 8a3e
00000240: f3b4 d33a 12c6 913e 1938 91be 3175 0e3e
00000250: 441d 83bd f161 023e c8de 5a3e 7a6d 8e3d
00000260: 22d7 4f3e c37b a23e 74c0 f73c 006b 663d
00000270: 19bd 003e 52d9 3f3d 9dd6 8b3b 2c58 af3e
00000280: 7919 7dbe d51e 8c3d b396 c83e 3698 b83d
00000290: 9b11 1dbd 0abc f73e 4e57 5cbd 81ef 633e
000002a0: 589a 79bd e220 0a3e f8db 86bd 61b9 46be
000002b0: d04c 5f3d 8891 1dbe 2eac 03be 8827 0ebe
000002c0: 00a3 37be a007 ffbd 90f4 3ebd 1f75 80bb
000002d0: 9e7d 21be c479 8fbc 9cf3 04be 9059 50be
000002e0: 6ee9 3bbe 147c 4d3d 2eac 16be 04dc 783e
000002f0: 3437 dcbd c4dd f2bd fb1f 493e 13bc f93d
00000300: 16c9 2d3e 6f77 603e 1cc9 c73d 2980 4fbe
00000310: 942f a73d 4f21 573d eb6e 583d e381 93bd
00000320: 2f2c e7bd 2fe7 d03d 2666 003d a7b2 b83c
00000330: 7d84 10bd a38c fc3c 4da4 f33d 4d8f 7f3c
00000340: 44f7 41be 1ded 293e 19ee 5c3c 7553 1fbe
00000350: dd80 2bbe af1c a0bd ed68 19bd 26c8 0ebe
00000360: bcdf b9bb 2763 a03e 214d 69be cfc7 8abd
00000370: bcc2 9cbd 4535 4d3d cdad 8fbc 5644 cfbd
00000380: 19ce 0ebe fcea 9b3e 2d75 5ebe d258 e33d
00000390: e6ff 773e 046b 0fbe 34f8 02be c1ab 543e
000003a0: ad7d 71be 72b5 273d e30f 933e d80a 0dbe
000003b0: 09d9 363e ee60 a93e bd71 c9bd e3d5 1c3e
000003c0: 77a6 933d 0c7c eebd 71f6 adbd 9a0a a53d
000003d0: d385 d93d e15a 95bc d477 aa3c e6b7 e9bd
000003e0: 3ed8 7c3d 81e1 b53d 463d df3d c700 4f3e
000003f0: 79b2 3e3e 3876 d5bd 9a03 4abe 81f8 09be
-0.20641008 0.17765434 0.1804171 0.32216522 -0.17595367 0.09390414 0.36655226 -0.16998793
0.048520736 0.044322573 -0.0702493 -0.06907155 0.14698635 0.043366663 -0.068679735 0.27022782
0.038554274 -0.12117755 0.1371147 -0.044262752 -0.11053271 -0.15450987 -0.03509768 0.18435997
-0.2309105 0.18692894 -0.20100231 -0.12323033 0.32403216 -0.02426175 -0.05484251 0.5062411
-0.39410365 -0.13241951 -0.09988957 0.0011585684 -0.14018936 0.45924154 -0.20884717 -0.23184364
0.0905246 -0.010052095 -0.10686529 0.13943231 -0.06702936 -0.2294771 0.23088494 -0.095819406
-0.17424662 0.17897756 -0.057400882 0.13097312 -0.132443 -0.043704428 -0.14159884 -0.039928906
0.10148018 0.14372098 0.13338256 0.0008471327 -0.023480775 0.069726355 0.13206494 -0.073830776
0.10115533 -0.0418125 -0.12493424 -0.16543981 -0.0837606 0.08826558 -0.10141654 0.09417832
-0.06514373 -0.20019297 0.16537672 -0.040192045 0.1974062 -0.20986336 -0.038864553 0.17878388
-0.09270533 -0.030457098 -0.14934482 0.010447735 -0.09321144 0.0793778 0.15179813 0.023058707
0.055805895 -0.08367718 0.068358116 0.045578778 0.15784083 -0.06619613 -0.048671965 -0.17095467
0.019677252 0.02471939 -0.12610896 0.07671395 0.2209193 -0.08830257 0.064858094 0.033139408
0.085014984 -0.16403736 0.46526808 -0.09652473 0.116051905 -0.07826794 0.204674 -0.12835866
-0.093465336 0.108921394 0.053336784 0.23097229 0.07851698 -0.048479836 0.14063562 0.08600567
0.05044187 0.17038926 -0.16070072 0.13227126 0.07806971 0.10246647 -0.08433549 -0.0301807
0.06812528 0.11341356 0.14450724 -0.013020265 0.09100307 -0.030546501 0.2092881 -0.094727255
-0.05711695 0.010668577 -0.20641434 -0.06816599 -0.02817977 0.119713984 0.023680167 0.2710795
0.001615195 0.28471428 -0.28363112 0.13911892 -0.06402066 0.12732674 0.21374047 0.06954475
0.2029691 0.31735048 0.030243136 0.056254387 0.12572135 0.046838112 0.0042675273 0.34246957
-0.24716748 0.06841818 0.39177474 0.09013407 -0.038346868 0.4838565 -0.053794198 0.22259332
-0.06093821 0.13489106 -0.065849245 -0.19406654 0.054516613 -0.15387547 -0.1285865 -0.13882267
-0.17933273 -0.12452626 -0.04661995 -0.003920212 -0.15770575 -0.017514117 -0.12983555 -0.20346665
-0.18350765 0.05016716 -0.14714119 0.2430268 -0.10752717 -0.11858705 0.19641106 0.121940754
0.1697124 0.2192056 0.097551554 -0.20263733 0.08163372 0.052522 0.052840155 -0.07202508
-0.11287724 0.10200345 0.031347416 0.022546126 -0.0352826 0.03082878 0.11896572 0.01559813
-0.1894198 0.16594358 0.013484501 -0.1555918 -0.16748376 -0.07817971 -0.03745358 -0.13943538
-0.005672423 0.31325647 -0.22783329 -0.06776392 -0.0765433 0.05009963 -0.01753893 -0.10120456
-0.13945808 0.30452716 -0.21724387 0.111009255 0.24218711 -0.14005667 -0.12789994 0.20768644
-0.23583098 0.040944524 0.28723058 -0.13773668 0.1785623 0.33081764 -0.09836147 0.15315966
0.07209485 -0.11644754 -0.084942706 0.08058663 0.10621228 -0.018231811 0.020809092 -0.11412029
0.061729662 0.08880902 0.10900359 0.2021514 0.1862277 -0.10422939 -0.19727936 -0.13473703

cnn_pep_1.bias f4 [50]
00000000: 3b33 12bd 77fc 613e 8cfb 0fbe ef97 bf3c
00000010: 8f4f bdbd 1061 8cbd 214b 19be 0a52 23be
00000020: 13f4 0fbe b53a 283d 496e c5bd fe07 34be
00000030: b628 853e d00e 203e c756 a6bc abe8 d4bd
00000040: 4171 01bd cc53 393e 0808 f43c 34f6 0e3e
00000050: 811f 9bbd 94eb 53be 0c1a 9abd 6246 42be
00000060: c2e2 39be 1893 8dbd f63a 44be 6ddc 1b3e
00000070: 8879 4e3d 0d4b 4ebe b4cd 933d 8708 c03c
00000080: 69fb c9bd 9b07 693e 5deb 4e3d 35c4 1ebd
00000090: f174 b73d 5fad 9a3e 2f6b d93d 7372 97bd
000000a0: 7601 17be 56fa 033e 0821 b13d 0777 bb3b
000000b0: 08fa 643d a65c 263e 999a 343c d0d3 373d
000000c0: c0b5 2a3e 78c7 163d
-0.03569339 0.22068964 -0.14060801 0.023387877 -0.0924369 -0.06854451 -0.14970066 -0.15949264
-0.1405795 0.041071612 -0.09640176 -0.17581174 0.26007622 0.1563065 -0.02030505 -0.103959404
-0.031602148 0.18098372 0.029788986 0.13961107 -0.07574368 -0.20695335 -0.07524499 -0.18972161
-0.18152907 -0.069128215 -0.19163117 0.15220805 0.05040887 -0.20145817 0.07216969 0.023441566
-0.09862406 0.22756808 0.05051743 -0.038761336 0.08957852 0.30210397 0.10616147 -0.07394876
-0.14746651 0.12888464 0.08648878 0.0057209763 0.05590251 0.1624628 0.011023187 0.044879735
0.16670895 0.036811322

cnn_pep_2.weight f4 [25, 50, 1]
00000000: 4fd6 9ebd 06e4 acbd 5d2e 21bd 6684 8dbd
00000010: 84b6 503c e057 a83d e764 04be 3218 bdbd
00000020: 5763 81bd 83cd 7fbd 4370 89bd 0576 ef3d
00000030: 1109 74bd 6844 19bb adca d23c 4fc0 40bd
00000040: f6af 0f3e 9d5a f73d c412 413e 7c41 373e
00000050: 2c6d afbd 7958 113c fec3 833d 3ade 86bd
00000060: 95bb 103d 7805 e0bc 696e f83d 2861 a23d
00000070: 9b99 0f3e 9b75 44be 89c7 963d da38 1cbe
00000080: 63fa 27bd 9944 893c 449f 533c 429f 82bd
00000090: 2721 2abe 325b 903d 1ab0 fa3d a766 c63c
000000a0: 1f18 fdbd 0f3b 023d 1334 0c3e fc1b c3bd
000000b0: 8105 da3d f715 a53b 2c1b 5ebd ee7c 07be
000000c0: c309 82bc 3b10 1f3d 735c 113e 639f 893e
000000d0: b41b 39bb 7e09 223e 97b0 013c d3b7 3cbe
000000e0: fb1b e73d 55f8 0a3e a96e b5bc 4eba fdbd
000000f0: 6536 883a e48a e6ba 42f4 503e 75c9 3fbe
00000100: a209 0c3e ffab 0b3e a872 5b3e 2d2d 68be
00000110: 4503 103e 391a 72be 4bac 9abd 6efd 34be
00000120: 1ed1 273d c446 0e3e 497d 09be e91a 023e
00000130: 1ef0 603b f2b7 7b3e bfd6 3a3a 3a43 31be
00000140: 9b06 51bd f0b3 db3d e414 05be dc9e 3abe
00000150: 5298 f43b 59e4 103e 2cb1 54be de0b 5a3e
00000160: 639e 403e 0310 d63d b16f e93d bef3 eebd
00000170: 3d0b 003e f67c 53be 0edc 983e 29f0 4e3e
00000180: ccdf b8bc c4af d4bd 367d 8abe 4b85 b23d
00000190: 0ac5 9cbd 2fc8 eebd 0e7c 35bd 4ad2 c13d
000001a0: b552 db3d e033 f83d 36c6 dcbd a210 00be
000001b0: 484b c43c ddb7 bbbd 3da3 8dbd 4652 9b3d
000001c0: ecae f4bd f5ea b1bd 0c32 aa3d cca4 bf3d
000001d0: dcbb 9abd c691 eebd 9a7b d6bd 5407 0b3e
000001e0: 081e 86bd 6a51 023e acc1 81bd 766b c93d
000001f0: cc4a 11bc d920 0fbe 0f2a 063e 5fe2 e63c
00000200: 4d7a 5a3d 9a3f d63c f3ec f9bd 2dfb 7d3d
00000210: 3403 8b3a c398 a6bd 8649 b13a e18a 01be
00000220: db37 3cbb 7213 b23d b99b f9bd 19c5 903d
00000230: e11a 60bd 3bda c3bc 7a60 db3d 88e6 c33d
00000240: a2d3 95bd a17b b7bc a821 01be 3065 a0bd
00000250: 6e7d c43d fcec e2bd 86db 83bd 04f5 98bd
00000260: 5bfe 93bd 77f2 a93c 3af8 a1bd a6ed 113e
00000270: 8c0b 803d 6ee4 9abd 18b9 2abd 7841 e1bd
00000280: 7ab0 f63c 8278 0fbe cccf 0cbd f0d7 2c3e
00000290: 07f6 70bd d06d 00be 1d53 74bc 8b03 e0bd
000002a0: 349a 013d 8ad8 2c3e a2dd db3d 10d5 3fbb
000002b0: 4bf1 ec3d 95b2 e6bd 48f7 eebd 33aa f1bd
000002c0: 4630 cabc f40f 6bbd 08c8 763b 0266 eebd
000002d0: ca5d 0cbe 0449 e4ba 8883 95bd 1731 a2bd
000002e0: c209 283e fe99 d33d 1012 a13d b01f 58be
000002f0: be8f 48be f1a5 bebc 01a0 c9bd da4e d33b
00000300: 97fe f93d b0b4 0ebc 7361 993d 4063 2e38
00000310: da46 cd3d b766 fd3d 1de1 4a3e 45f3 3d3d
00000320: 48dd 9f3d a93c 83bd 5cb4 53bd 707e d2bd
00000330: 40c0 bfbb 00b8 aebd a0b4 453c 80a1 833c
00000340: d6b9 e63d df8e 0cbe a004 2abc 9a14 b03d
00000350: 2fc4 bbbd 494a 0ebe 20be b8bd 7e8f d2bd
00000360: 5b0c fcbd 541b 13bd ae27 88bd 58b7 a6bd
00000370: 4814 ab3c a46a 07be f72e 033e 1a6a f7bd
00000380: 685a 353d f099 1fbd 3052 063d 8ff5 fbbd
00000390: 171a c6bd 9b06 c0bd a0f3 c2bb 90ae 0cbe
000003a0: 9aa2 f33d a66e 5bbd 7e95 dfbd 6005 3ebd
000003b0: e083 89bb d9c0 0c3e 54d3 c5bd 5b17 e0bd
000003c0: 10c3 d93c 0016 ebbb e0b2 17bd d0f9 1f3d
000003d0: b2d7 d5bd 4c1d 0ebd d5ee 0b3e e9c5 b9bd
000003e0: 08a5 9dbc 84c3 0a3d a74b 803c 2bd1 bbbd
000003f0: c48f bf3c 25d0 923d 8fed d9bd a428 d93b
-0.0775572 -0.084419295 -0.039350856 -0.069100186 0.012738828 0.08219886 -0.12929116 -0.092331305
-0.06317776 -0.06245185 -0.06710865 0.11692432 -0.05957896 -0.002338672 0.025731409 -0.0470584
0.14031968 0.1207783 0.18854815 0.17896074 -0.08565745 0.008871191 0.06433867 -0.06585355
0.035335142 -0.027346358 0.12130434 0.07928687 0.1402344 -0.19185488 0.07362277 -0.15256062
-0.04101027 0.016756343 0.01291639 -0.06378032 -0.16614209 0.07048644 0.1224062 0.02421887
-0.12358116 0.031794604 0.1369174 -0.09526822 0.10645581 0.005038019 -0.054225132 -0.1323125
-0.015873795 0.038833838 0.14195423 0.26879415 -0.0028245272 0.15823933 0.007915637 -0.18429498
0.11284634 0.13571294 -0.022147493 -0.123890504 0.0010392187 -0.0017589 0.20405677 -0.18729194
0.1367555 0.1363983 0.21430457 -0.22673483 0.14063747 -0.23642816 -0.075523935 -0.17674801
0.040970914 0.13894182 -0.13426699 0.12705578 0.0034322808 0.24581888 0.00071273366 -0.17310801
-0.05103169 0.1072768 -0.1299625 -0.18224663 0.007464447 0.14149608 -0.2077071 0.2129359
0.1881042 0.10452273 0.113982566 -0.11667584 0.12504287 -0.20653138 0.29855388 0.20208801
-0.022567652 -0.10385087 -0.27048653 0.0871683 -0.0765477 -0.11659276 -0.04430776 0.094639376
0.107091345 0.12119269 -0.10779993 -0.12506345 0.023961678 -0.091659285 -0.06915901 0.07584052
-0.11947426 -0.086873926 0.08310327 0.093576044 -0.075553626 -0.11648898 -0.10472794 0.13577014
-0.06548697 0.1272637 -0.06335768 0.0983495 -0.008867931 -0.13977374 0.13101982 0.028184114
0.05333929 0.026153374 -0.122033976 0.062007118 0.0010605813 -0.08134606 0.001352594 -0.12650634
-0.0028719816 0.08695115 -0.12187905 0.070688434 -0.054713134 -0.023907771 0.10711761 0.09565455
-0.073157564 -0.022397818 -0.12610495 -0.078318 0.09594236 -0.110803574 -0.06438355 -0.07468608
-0.07226249 0.020745499 -0.079086736 0.14250812 0.062522024 -0.07563101 -0.041680425 -0.10998815
0.030113447 -0.14010814 -0.034377858 0.16879249 -0.05882838 -0.1254189 -0.014912394 -0.10938176
0.0316412 0.16879478 0.107356325 -0.0029271282 0.115694605 -0.112645306 -0.11668259 -0.11800041
-0.024681222 -0.05738826 0.003765585 -0.1164055 -0.13707653 -0.001741678 -0.07300478 -0.079195194
0.16409972 0.10332106 0.07864773 -0.21105838 -0.19586083 -0.023272486 -0.098449714 0.006448609
0.12206762 -0.008710071 0.0748929 4.1577267e-05 0.100232795 0.12373107 0.19812436 0.046374578
0.07805878 -0.064080544 -0.051685676 -0.10278022 -0.0058517754 -0.08531189 0.01206699 0.01606822
0.11265914 -0.13726376 -0.010377079 0.085976794 -0.091682784 -0.13895525 -0.090206385 -0.10281275
-0.12307044 -0.035914734 -0.06648193 -0.08140439 0.020883694 -0.13224274 0.12810884 -0.12080784
0.04427567 -0.038965166 0.032793224 -0.12302696 -0.09672945 -0.0937626 -0.0059494525 -0.13738465
0.11896248 -0.05357232 -0.10917185 -0.046391845 -0.004196629 0.1374544 -0.09659448 -0.10941955
0.02658227 -0.0071742535 -0.037035823 0.0390566 -0.10441531 -0.03469591 0.13665326 -0.090709515
-0.019243732 0.033877864 0.015661074 -0.09170755 0.023383982 0.07168607 -0.10641014 0.006627159

cnn_pep_2.bias f4 [25]
00000000: e57c 243d ffa9 76bc 1c79 11be 5f92 61bc
00000010: f821 fb3c 4a6e 81bb 5069 9fbd ed5f abbd
00000020: 7eaa 2abd 35dd 18be ec51 4bbd 16ef a6bd
00000030: ed46 31bc 627d 4dbe 10ba 68bd 0cda 4fbd
00000040: 45da edbd 45ab 10be 80fd 963c 5f05 bc3d
00000050: 2bbe 5a3c 44e9 c13d 12e3 c6bb 0ba7 8dba
00000060: 3ffb 02be
0.04015817 -0.015055179 -0.14206356 -0.013767808 0.030655846 -0.003949915 -0.07783759 -0.08367906
-0.0416665 -0.14928134 -0.049638674 -0.08151071 -0.010820133 -0.20067361 -0.056818068 -0.050745055
-0.11613897 -0.14127834 0.018431425 0.09180712 0.013351004 0.0946832 -0.0060695494 -0.0010807229
-0.12791155

cnn_pep_3.weight f4 [10, 25, 1]
00000000: b8f5 08bd 5026 10bc eaf0 d4bd c085 8b3b
00000010: 1875 e33c ad8c 28be c0ba 9cbc bb19 193e
00000020: 5006 a23c f4bf 433d d360 d1bd 7eb3 813d
00000030: 1d7b 4abe 006d 08ba e797 b2bd 0061 58bd
00000040: 5b6c 4c3e 3a00 ccbd f1a5 3d3e bd64 0bbe
00000050: 49ad 4c3e 426c e53d ea7f 21be d01e 0a3c
00000060: 151c 30be 18e2 253d 1099 ea3c 9ff8 463e
00000070: bfd9 143e d08d da3c 5043 d0bd 0069 ed3c
00000080: 0bf2 083e 140f 013d de3c 1fbe 00ad f4ba
00000090: 80c5 bcbc d06c ae3c 9b15 3c3e 4057 cfbd
000000a0: 0a95 8fbd 2d86 cbbd e8f8 833c ac19 23bd
000000b0: 0638 8e3d 3fe4 2c3e 1bb1 21be 5292 0bbe
000000c0: 18f4 d0bc 825f b43d b0f2 fdbc 98d7 d13c
000000d0: 2ccb 6e3d 9a9a d2bd 7317 c7bd 16f1 c63d
000000e0: 246d 86bd 9810 e3bc 80c4 61bc 7353 393e
000000f0: d3de f9bd af12 33be 8c7a 60bd 6833 bebc
00000100: c66e a63d ecd3 5dbd 304b 21be 7adf f1bd
00000110: 8c67 42bd 286d a63c 1a2e 8e3d 4b1a 363e
00000120: 4398 363e 1b04 22be ec16 793d e0fb 5dbc
00000130: f8b1 16bd c0ab db3b 98a4 c7bc c0a9 a43b
00000140: 9db6 463e a248 1ebe c3b5 1bbe 1915 353e
00000150: 72c2 fa3d 310d 303e e567 4b3e 30b4 e33c
00000160: 6917 393e bdbc a2bd a55e 3d3e 1aa6 a93d
00000170: a094 41bd 60c1 64bc 43a5 12be d48c 363d
00000180: c024 c6bc 6938 413e 5d65 9abd 2057 17bc
00000190: 706e debc 74cf 00be 62c7 30be 6014 02be
000001a0: 6525 43be d78d f1bd abff 11be 6372 163e
000001b0: 18b0 3abe 031e d2bd 556a 0c3e 28a1 2ebe
000001c0: e83e 12bd 6463 543d 31f0 2c3e ac89 18bd
000001d0: 6a9d d5bd 89b0 133e b373 2dbe 8654 c93d
000001e0: 4906 0e3e d0d3 02bc e373 2cbe f818 423d
000001f0: 408f 213d fe5d b13d 55b7 0c3e 8214 813d
00000200: 628e ae3d 3898 11be 4151 403e 02e1 c03d
00000210: 3abb 3ebe 3711 fdbd 7223 b23d a7f2 b5bd
00000220: d017 423c 1938 2b3e 0f34 243e eab4 8c3d
00000230: f9ec 403e ed84 3b3e fd66 babd 33d2 b5bd
00000240: 18db 9d3c 8877 123d c0f8 ffbb 027b 2ebe
00000250: 0eb9 b03d 8bd4 18be d232 40be e98c 2b3e
00000260: e169 183e a77c b5bd 90bc 933c 621c a43d
00000270: 79a5 043e eb42 213e 1b15 013e be09 d43d
00000280: d877 413d 6849 823c 0240 27be 249d 723d
00000290: b630 e73d 3037 2bbe a8c9 5dbd 6de6 33be
000002a0: 8b10 1abe 2706 ccbd 3063 46bc 8a08 20be
000002b0: 134b dcbd 9097 cebd 02cf d83d b2cd 923d
000002c0: 613c 243e f6b9 e03d 428c 36be 82f4 c93d
000002d0: a01d 2dbe c78a efbd a8ee 51bd a08e 43bd
000002e0: 725b 943d 3096 843c fd2b 303e 2487 773d
000002f0: e4bb 04be 9167 113e 524f 9f3d 80f0 90bd
00000300: d2cd 913d f2b4 bf3d 617a 3c3e 97bf d6bd
00000310: b863 213d 2bfb 40be 8039 1b3c 80db 19be
00000320: 0c8e 1e3d 3d64 bdbd 529a f63d cd71 a9bd
00000330: 697c 203e f002 b9bc 908e 96bc 40d3 b2bb
00000340: b0d4 20be bb21 3c3e 6372 4c3e fe65 fc3d
00000350: f42b 573d f88b 2abd dd06 f1bd e248 c03d
00000360: 1dda 1bbe 9803 8cbc 67e3 163e ea80 f53d
00000370: 1adb b3bd f3b2 423e 3deb 30be b297 44be
00000380: ae70 a63d 2a81 48be 0269 d93d 776c efbd
00000390: 3104 113e a082 273d 1aeb 21be 358e 1ebe
000003a0: c02c 65bb 8aa9 cf3d 6051 f1bd 4a8d c93d
000003b0: 665b f33d 008a b9bb ccd1 67bd 2f61 39be
000003c0: c09e 2cbe 009d bebc 7290 8b3d 4889 01bd
000003d0: 6a6a e5bd e07d 073c 71e2 013e 6c2d 7e3d
000003e0: a9a1 123e 00ef 0dbe
-0.03343746 -0.008798197 -0.10397513 0.0042578876 0.027765796 -0.16459914 -0.019132018 0.14951222
0.0197784 0.047790483 -0.10223546 0.063330635 -0.19773526 -0.00052042305 -0.08720379 -0.05282688
0.1996321 -0.09960981 0.18520333 -0.13612647 0.19987978 0.11202289 -0.15771452 0.008430198
-0.17198212 0.040498823 0.028637439 0.19430779 0.14536189 0.02667895 -0.10169089 0.028980732
0.13373582 0.03150852 -0.15550563 -0.0018667281 -0.023043394 0.02129212 0.18367617 -0.101240635
-0.07010849 -0.099377014 0.016109899 -0.039819404 0.069442794 0.16883944 -0.15790217 -0.13630036
-0.025507018 0.08807279 -0.030999511 0.025615498 0.05829923 -0.10283394 -0.097212695 0.09713952
-0.06563786 -0.027717873 -0.013779759 0.1809824 -0.122007035 -0.17487596 -0.05480437 -0.023217872
0.08126597 -0.054157183 -0.15751338 -0.11810203 -0.04746203 0.020315722 0.06942387 0.17783467
0.1783152 -0.15821879 0.060812876 -0.013548821 -0.036790818 0.006703824 -0.024370477 0.0050251186
0.19405599 -0.15457395 -0.15206055 0.1768383 0.12244119 0.17192532 0.19863851 0.027795881
0.18075337 -0.07946155 0.18493135 0.082836345 -0.04726088 -0.01396212 -0.14320855 0.044567898
-0.024187446 0.18869175 -0.07538865 -0.009237081 -0.02715227 -0.12579137 -0.17263559 -0.12703085
-0.19057234 -0.11794632 -0.14257686 0.14692073 -0.18231237 -0.102596305 0.13712437 -0.17053664
-0.035704523 0.0518526 0.16888501 -0.03724067 -0.10430415 0.14422812 -0.16938667 0.09830575
0.13869585 -0.00798507 -0.16841082 0.047387093 0.039443254 0.08660506 0.1374181 0.0630274
0.08523251 -0.14218223 0.18780996 0.09417917 -0.18626109 -0.12356799 0.08698167 -0.08884173
0.011846498 0.16720618 0.16035484 0.06870444 0.18840398 0.18312426 -0.09101675 -0.08877983
0.019269511 0.035758525 -0.0078116357 -0.17039111 0.086290464 -0.14924829 -0.18769386 0.16752972
0.1488414 -0.08861666 0.01803425 0.08013226 0.12953748 0.15748183 0.12605707 0.10353421
0.047233433 0.015904143 -0.16333011 0.059231892 0.11288588 -0.16720271 -0.054147393 -0.17568369
-0.15045373 -0.09962111 -0.012108609 -0.15628257 -0.10756507 -0.10087502 0.105863586 0.071681395
0.16038658 0.10972969 -0.17826942 0.09861089 -0.16905832 -0.116963916 -0.05125299 -0.04774344
0.07244004 0.016184896 0.1720428 0.060431615 -0.129623 0.14199664 0.07778801 -0.07077122
0.07119335 0.093606845 0.18406059 -0.104857616 0.03940174 -0.18845813 0.009474158 -0.15025139
0.038709685 -0.092476346 0.12041153 -0.08273659 0.15672459 -0.022584409 -0.018378526 -0.005457312
-0.15706134 0.18372242 0.1996551 0.12324141 0.05253215 -0.04163739 -0.11768887 0.09388901
-0.15219922 -0.017091557 0.14735185 0.11987479 -0.08782025 0.19013576 -0.17277236 -0.19198492
0.08126961 -0.19580522 0.10615732 -0.1169061 0.14161755 0.040896058 -0.1581234 -0.15483935
-0.00349693 0.10139759 -0.11783099 0.09841402 0.11882667 -0.005662203 -0.056596562 -0.18103479
-0.16857433 -0.023268223 0.0681466 -0.031625062 -0.112019375 0.008269757 0.12684037 0.062055036
0.14319481 -0.13860703

cnn_pep_3.bias f4 [10]
00000000: 219b 0a3e d015 743c 3002 df3c f158 1a3e
00000010: 98a6 31bd da92 a8bd b1ff 033e f036 90bc
00000020: 4bf7 20be ad2a 363e
0.1353574 0.014897779 0.027222723 0.15072991 -0.043371767 -0.08231135 0.12890507 -0.017604321
-0.15719335 0.17789717

cnn_apt.0.weight f4 [100, 40, 3]
00000000: ff23 803c 10f0 7e39 2891 f83d 5fc8 483d
00000010: 4ef8 72bd a984 d6bc 9a73 7a3c d93a f5bd
00000020: de6e 313d d7ea 8bbd 9353 a8bd 1fcf b13d
00000030: 792f a8bc 2743 c9bd edb0 c93d 7cc6 61bd
00000040: 053c 80bd 3bfc 0c3e c4fe df3c 852e 49bd
00000050: 1cde d33d b3c7 b93b 3afb 17be 8b8d 823e
00000060: e2b2 28bd dd5a d0bd 234a 443d 9797 20be
00000070: 7ea9 2bbd d20e 043e cccc 35bd 1a05 8abd
00000080: d488 853d 7232 9aba 19d1 55bd b7eb eb3c
00000090: 88fe 043d 0a3c 8abd 7015 083d e40f 6e3d
000000a0: 32e5 efbd 072c 843d 8b08 c33d b77d 08be
000000b0: 8207 103e 0f6a 51bc 444c 4cbe 04d3 0c3e
000000c0: dbf8 173d 2aa0 38be 7ca1 e13d f9a3 c6bc
000000d0: 2392 e2bd 9770 d23d 4835 04bd 97da 2ebd
000000e0: 7cf4 013e cce7 59bd 8b45 b43c 78e1 9c3d
000000f0: d6ea a33c a496 c0bd 68d1 d13d 2bb5 b9bd
00000100: 0ec0 63bd 134f 143d 8761 dbbc 0c29 c6bd
00000110: 97b3 cc3d 7052 c33d f100 83bd 07be d93d
00000120: 0dc5 753d 4d2d d0bd 3975 c33c e3b6 80bb
00000130: 14cd 12be 9828 313e a8f7 d3bd 1a53 fcbd
00000140: 0ae7 a93c d5fd 0d3e d76b 5dbe 9ee4 003c
00000150: af61 98bd 9a03 1ebe ff6c 1a3e 3850 f5bd
00000160: 29ef 13be 2457 3e3d ca2a 58bd 53a6 2abd
00000170: abbd 603e 14d6 a03d beb6 b8bd 49eb 6f3e
00000180: 6121 403d 983a f5bd 18ca 273e 7811 923c
00000190: e712 22be be79 a43d 7ad0 133d f13b 78bc
000001a0: 64a2 4b3e 6660 d33c 779e 31bd e697 2e3e
000001b0: 85f9 b8bc 9742 0dbd 176e 5e3e f1aa 82bc
000001c0: 8d83 2bbd faff de3d f6b9 fe3c 5908 c9bd
000001d0: 52eb 523d 1321 aabc efb1 3dbe 544f c93d
000001e0: 46e0 ab3d 3059 0fbd 0eb3 553d d034 933d
000001f0: ba95 35bc e915 b93d 354a 6d3b a25f 39be
00000200: 929c 33bd f1a2 553d 4b09 d7bd 5417 96bd
00000210: 4f89 703d 4d0a 5a3d d316 ee3d 6469 f53d
00000220: 9f0b ecbd cbd1 e13c 4f14 d83a 372e 8bbd
00000230: 8c5b fbbb 2383 5e3e 5435 fa3b a9c2 503d
00000240: addb 4cbd e9ac e53c 9e5e ea3d ca90 6c3d
00000250: 64e1 20be d309 93bd dedf 173d 518f b8bd
00000260: 457e 0b3b 6763 4d3d 9898 e93b 0140 503d
00000270: 6664 973d a36c a4bd 29e9 953c aa8c 9c3c
00000280: 76f4 0cbe fd41 b93b d381 5f3c 75d1 c8bd
00000290: b9e3 a93d f3b6 bb3d 1bba c5bd 1eb6 843c
000002a0: b8cb b6bc 2fab 38be 17bf c53d 07a8 64bc
000002b0: 0377 4bbe 9e13 003e 0474 8dbc e46c 39be
000002c0: 7e2b fc3d 8e7f 7d3d 139c 97bd 9b0e 6abd
000002d0: 96a8 c33d 691d 893c 3e40 5ebd 5a8b aebc
000002e0: a2cf 58bd 8a41 77bd 72db b1bb 95cf b63b
000002f0: 001a bfbb e585 c73c 3d4e ddbd ef24 65bd
00000300: 6a2f babd 802e 98bc 6a46 cb3d 0d32 2f3e
00000310: 1e71 943b bec7 533d 2547 013e 4d24 c1bc
00000320: ec90 07bc 2a46 343d 33c4 a0bd 481a d1bc
00000330: 85d0 4b3d efe0 e3bd 5e3a 923c 83ac b03d
00000340: c9b2 46bd d6c8 033e 9093 3a3d 54c6 54be
00000350: b7db 513d 3112 b2ba 3f35 ecbd 3bc8 30bd
00000360: 1071 843d ba43 92bd d4b2 8d3d ea30 1abb
00000370: aea0 31be f61e 623c ae30 c33d c9e7 48bc
00000380: 1547 fc3c 7299 f33d 6d51 66bd d721 8bbd
00000390: ce03 833c bbb0 243c 073e 0d3d 3d3e f63d
000003a0: f296 9abc 8cc5 ab3c d540 2c3d efcb a0bd
000003b0: 12b8 693d f174 5b3d 0575 00be 6eaf ba3d
000003c0: 6225 bdbc 62b3 823d 4a3f a0bd 6e20 0abd
000003d0: ca92 8b3b 8a67 c9bd b5a1 d6bc 7b04 263d
000003e0: d30d 133d aca3 2dbd 0903 acbd a011 ab3c
000003f0: 9567 adbc a868 a13c 62d9 9c3d 6fa3 de3b
0.015642164 0.00024312758 0.12137061 0.049019214 -0.059318833 -0.026186304 0.015286351 -0.11974115
0.04331862 -0.068319015 -0.082190655 0.08682083 -0.02053045 -0.098272614 0.09848199 -0.05512093
-0.06261448 0.13768093 0.027343161 -0.04911663 0.103450984 0.005669558 -0.14841929 0.25498614
-0.04118622 -0.10173581 0.047922265 -0.15682827 -0.041909687 0.12896279 -0.044384763 -0.06739254
0.065202385 -0.0011764301 -0.052201364 0.028798921 0.032469302 -0.06749733 0.03322357 0.058120623
-0.117136374 0.0645371 0.09523114 -0.13329206 0.14065364 -0.012781634 -0.19950968 0.13752371
0.03710256 -0.18029848 0.11017129 -0.02424811 -0.110630296 0.10275381 -0.032277375 -0.042688932
0.1269092 -0.053199574 0.022005817 0.07660192 0.02000944 -0.094037324 0.10245019 -0.09067758
-0.05560308 0.036208224 -0.026779903 -0.09675798 0.099951915 0.09537208 -0.06396664 0.10631948
0.060002375 -0.101648904 0.023859607 -0.003928052 -0.14336044 0.17300642 -0.10349971 -0.12320538
0.02074005 0.1386636 -0.21623169 0.007867007 -0.07440507 -0.15431061 0.15080641 -0.11978191
-0.14446701 0.046469823 -0.05277518 -0.041662525 0.21947353 0.07853332 -0.0901923 0.23429598
0.046906833 -0.119740665 0.16385686 0.017830595 -0.15827523 0.08031033 0.03608749 -0.01515101
0.19886166 0.025802802 -0.043364014 0.17050132 -0.022579918 -0.034487333 0.21721683 -0.015950652
-0.041873503 0.108886674 0.031094532 -0.09816045 0.05149395 -0.020767724 -0.18524908 0.09829584
0.08392386 -0.034997165 0.052172713 0.071878076 -0.011083061 0.09037382 0.003620756 -0.18102887
-0.04385049 0.052157346 -0.10499819 -0.07328668 0.058724698 0.05323248 0.11625447 0.11982992
-0.11525654 0.027565857 0.0016485545 -0.06795924 -0.0076708253 0.21729712 0.0076357517 0.050966892
-0.050014187 0.028036552 0.11443828 0.05775527 -0.1571098 -0.07179608 0.03707873 -0.090117104
0.002128498 0.050143626 0.0071287863 0.05084229 0.07392196 -0.08028533 0.018299656 0.019110043
-0.1376513 0.0056536184 0.013641792 -0.09805576 0.08295388 0.09165754 -0.096546374 0.016200121
-0.022313938 -0.18034051 0.09655588 -0.013956076 -0.19869618 0.12507483 -0.017267235 -0.18107945
0.12312983 0.061889224 -0.07402816 -0.057142835 0.095536396 0.016737657 -0.054260485 -0.021306682
-0.05293239 -0.060365237 -0.0054277712 0.005578945 -0.005831957 0.024355838 -0.108059384 -0.055943426
-0.09091075 -0.01857686 0.0992554 0.17108937 0.004530086 0.05170416 0.12624796 -0.02357688
-0.008274298 0.044012226 -0.07849922 -0.025525227 0.049759407 -0.11126887 0.017850097 0.08626654
-0.048510347 0.12869582 0.045550883 -0.20778781 0.051234927 -0.0013585744 -0.115335934 -0.043159705
0.064668775 -0.07141824 0.069188744 -0.002352769 -0.1734645 0.013801327 0.09530769 -0.012262293
0.030795613 0.11894502 -0.056229997 -0.06793564 0.015993025 0.010051901 0.034482982 0.1202359
-0.018870804 0.020968221 0.042054016 -0.07851397 0.05706031 0.05357832 -0.1254464 0.09115492
-0.023089115 0.06381871 -0.078245714 -0.033722334 0.004259442 -0.09834202 -0.026200155 0.040531617
0.035901856 -0.042392418 -0.083990164 0.020882428 -0.021167556 0.019703224 0.0765865 0.006794385

cnn_apt.0.bias f4 [100]
00000000: 42a3 003e 0496 a83d 8687 193d 682b 803b
00000010: 9100 ea3d 49a0 093e f44c 37bd f906 9abc
00000020: 053c c03d 0b2d a73b d940 b5bd 76f7 a7bb
00000030: 6674 6ebd f223 0c3e 3513 b1bd 1d87 53bb
00000040: 9306 5ebd 1f6d 09be 9be4 0fbb 18be 66bd
00000050: 7b34 04bd a7ef a2bd b68b e0bc 9ea5 9d3d
00000060: f18d 82bd 4efe 1abe 9145 cabd aea9 9fbd
00000070: 175f 96bc 6bdd 39bd 2439 bebd 6635 d3bd
00000080: e530 fdbc 44ba 55bd c08b f6bc d6b6 87bd
00000090: b3fd af3d 1c28 42bd b8aa c7bc 9db5 113d
000000a0: 9825 cf3d 53d8 393d 6a98 23be df1e b4bb
000000b0: ac94 16bd b663 d53d 74c6 a3bd 3aab 0fbd
000000c0: ddfc 00bd 0172 afbd 0ace bebc 477c 9abb
000000d0: eb88 453d 81b4 8e3d b365 b7bd 64d2 eaba
000000e0: fdf3 cdbd 84e3 5cbc 8801 dcbc 4bdc 8ebd
000000f0: 08e3 2b3d 18cc 06be a21e 783c 46f7 86bc
00000100: feca 17bd 879f 4dbd f5b3 003d d4fa 1fbd
00000110: 3e00 a1bd 8143 a83c df62 813d d91f 48bc
00000120: 0056 743d 6802 a5bd a522 ad3c 0eda d0bd
00000130: 0c5e eebd 4d9e d3bd c89a a23a d130 ab3c
00000140: 91c9 a53d 62ec bbbd ab31 fe3d 85db 85bd
00000150: 7c3d 22be 62e6 79bd 961b c53d 29a3 17bb
00000160: ab9f 3abc 86a8 9d3d 1140 b0bd 4e1e 1f3d
00000170: ce4d 473e 7140 3fbd b09c 403d a156 b3bd
00000180: 7b19 96bd 21bd dd3d 0527 b3bc c26f d4bd
0.12562278 0.08231738 0.03748276 0.0039114244 0.11425889 0.1344005 -0.044751123 -0.018802153
0.09386448 0.005101805 -0.08850259 -0.005125935 -0.058216475 0.13685587 -0.086462416 -0.0032276579
-0.05420549 -0.13420533 -0.0021956328 -0.05633363 -0.03227661 -0.07955866 -0.02741037 0.076976046
-0.063747294 -0.15136072 -0.0987655 -0.07796036 -0.01835589 -0.045377176 -0.092882425 -0.10312919
-0.030907104 -0.05217959 -0.030095935 -0.0662667 0.08593311 -0.047401533 -0.024373397 0.03557359
0.10114592 0.04537232 -0.1597611 -0.005496844 -0.03676288 0.10419409 -0.07996836 -0.035075404
-0.03149115 -0.085666664 -0.023291606 -0.004714522 0.04822628 0.06968022 -0.089549445 -0.0017915484
-0.10056303 -0.013481978 -0.026856199 -0.06975611 0.04196456 -0.13163793 0.015144022 -0.016475331
-0.037058823 -0.050200965 0.03142162 -0.039057568 -0.07861374 0.02054 0.06317686 -0.012214624
0.05965233 -0.080570996 0.021134684 -0.10197841 -0.11639032 -0.10332928 0.0012405748 0.0208973
0.08095086 -0.09175946 0.12411817 -0.06536011 -0.15843767 -0.061010726 0.09624402 -0.0023138023
-0.011390607 0.07698159 -0.0860597 0.03884726 0.19463274 -0.046692315 0.04702443 -0.087567575
-0.07329079 0.10827089 -0.021869192 -0.103728786
