src/models/model_checkpoints/ConvNetSimple/lambda=10_gamma=1e-05.pth (torch_old, 84172 bytes, 19 tensors)

cnn_apt_1.weight f4 [100, 40, 3]
0	0x3db408a5	0.08790711
1	0x3d31f3bb	0.04344533
2	0x3dce2df4	0.100673586
3	0x3b46dba6	0.0030343323
4	0xbdb2957b	-0.087199174
5	0xbcf7e6be	-0.030261394
6	0x3a717d63	0.00092121045
7	0xbd0a2211	-0.033723895
8	0xbc3ab932	-0.011396693
9	0xbd111035	-0.035415847
10	0xbd1cb043	-0.038254034
11	0x3dae2664	0.08503416
12	0x3d833623	0.0640681
13	0xbda514b0	-0.080605865
14	0xbcaec825	-0.02133567
15	0x3ca1600b	0.019699117
16	0x3a301ee9	0.0006718473
17	0x3d707b60	0.05871141
18	0x3bdbf787	0.006712857
19	0xbbf32394	-0.0074200127
20	0xbae062b2	-0.0017119257
21	0x3c21ddb0	0.009879515
22	0xbdbb8b02	-0.09157373
23	0x3daec587	0.08533769
24	0xbd26a6ad	-0.0406863
25	0xbcb28125	-0.021790097
26	0xbc57d424	-0.013173137
27	0xbd8364dd	-0.064157225
28	0xbd06ff17	-0.032958116
29	0x3d5a8c6f	0.053356584
30	0xbcec2349	-0.028825419
31	0xbd4d462a	-0.05011574
32	0xbbe4d6d8	-0.006983619
33	0x3b8e2487	0.0043378505
34	0xbd6c2a18	-0.05765733
35	0x3b61ab53	0.0034434393
36	0x3da3a589	0.07990558
37	0xbdcf899f	-0.10133671
38	0xbce16df9	-0.02751826
39	0x3d90cb8c	0.070700735
40	0xbd30870a	-0.043097533
41	0x3ce15db9	0.02751051
42	0x3d45766d	0.048208643
43	0xbd8ed8a9	-0.069749184
44	0x3d97b6d1	0.07407916
45	0xbcd8c9c1	-0.026463391
46	0xbd94107f	-0.07229709
47	0x3da136e0	0.07871795
48	0x3d2157be	0.039390318
49	0xbde430b2	-0.111421004
50	0x3d7bf05d	0.061508525
51	0xbcc98ee3	-0.024604267
52	0xbd595dcb	-0.053067964
53	0x3d0a5fb9	0.033782694
54	0xb90248cb	-0.00012424884
55	0xbc91f14b	-0.017815253
56	0x3cad054b	0.021120688
57	0x3d91f568	0.07126886
58	0xbc975e30	-0.01847753
59	0xbcaf4892	-0.021396909
60	0x3db4308b	0.08798321
61	0xbd0072d1	-0.031359497
62	0x3da65448	0.08121544
63	0x3d9726c0	0.07380438
64	0xbd7811ed	-0.06056397
65	0x3c88a8f9	0.016682135
66	0xba3b9ce7	-0.0007156864
67	0xbd8e9d75	-0.06963626
68	0x3d93af08	0.07211119
69	0x3de888c6	0.113542125
70	0xbb1715c3	-0.0023053742
71	0x3dcdd738	0.10050815
72	0x3d48bbe7	0.049007323
73	0xbcf17afc	-0.029477589
74	0x3beaaa2d	0.0071614
75	0x3dc99f3c	0.09844825
76	0xbdc39e09	-0.09551627
77	0x3db0a955	0.086260475
78	0xbb809c2f	-0.0039248685
79	0xbd63cfb7	-0.055618014
80	0x3c492149	0.012276002
81	0x3da272dc	0.07932064
82	0xbe02f7f5	-0.127899
83	0xbd0bd41d	-0.034137834
84	0xbc06c1c3	-0.008224907
85	0xbdee9f19	-0.11651439
86	0x3d4e635a	0.050387718
87	0xbd613133	-0.05497856
88	0xbde28234	-0.110599905
89	0x39340968	0.00017169642
90	0xbcd2a1cf	-0.025711922
91	0xbd30abc3	-0.043132555
92	0x3dcb20b4	0.09918347
93	0x3bd5f35b	0.0065292544
94	0xbcd05980	-0.025433302
95	0x3d827b68	0.06371194
96	0x3d2f19d9	0.04274926
97	0xbd064361	-0.0327791
98	0x3d5e1b74	0.0542254
99	0x3d3d66a6	0.04624047
100	0xbdbbd07d	-0.09170625
101	0xbc1f033b	-0.00970536
102	0x3dbf020f	0.093265645
103	0xbd1f71ff	-0.038927075
104	0x3d94b9be	0.0726199
105	0xbd390d53	-0.045178723
106	0xbc86e6fb	-0.016467562
107	0x3d1b4163	0.037904155
108	0xbd3ef292	-0.04661805
109	0xbc1e76ea	-0.009671906
110	0x3d118151	0.035523716
111	0xbd6510fb	-0.055924397
112	0xbd70d686	-0.058798335
113	0x3dda576c	0.10661206
114	0x3c512cc5	0.012767022
115	0xbd9833d4	-0.074317604
116	0xbc996800	-0.018726349
117	0xbd057211	-0.032579485
118	0xbda6507f	-0.08120822
119	0x3d48d090	0.049027026
120	0xbce5ee0f	-0.028067617
121	0x3d5511d2	0.052018948
122	0x3d68ab88	0.05680421
123	0x3da92efe	0.08260916
124	0xbb1bca0e	-0.0023771557
125	0x3dc197af	0.094527595
126	0xbd711ee0	-0.058867335
127	0xbd8606b5	-0.06544248
128	0xbd3e4568	-0.04645291
129	0x3d598cb2	0.053112693
130	0xbdc086f6	-0.09400742
131	0xbd0f3dcf	-0.034971055
132	0x3d32fee5	0.043700118
133	0x3d8d3807	0.06895452
134	0x3da4e076	0.08050625
135	0x3d6682cd	0.056277085
136	0xbd9defa4	-0.077117234
137	0x3d257441	0.04039407
138	0xbc34c2ca	-0.011032769
139	0xbc337bea	-0.010954836
140	0xbb3e0ee7	-0.0029000582
141	0x3ddb774e	0.10716115
142	0x3d428e0c	0.047498748
143	0x3cb16907	0.021656526
144	0xbd9d3fa2	-0.076781526
145	0x3d86d32e	0.06583248
146	0x3d95f55d	0.0732219
147	0x3d2d7ac5	0.04235341
148	0xbdc85edc	-0.09783718
149	0xbd532541	-0.0515492
150	0x3d87d547	0.06632476
151	0xbdb766ba	-0.089551404
152	0x3d25edc0	0.04050994
153	0x3cea5b09	0.028607862
154	0x3d88503e	0.0665593
155	0x3d41de63	0.047331225
156	0x3d7570d5	0.059922058
157	0x3c36d995	0.011160274
158	0xbce546d9	-0.027987884
159	0xbd2f942e	-0.042865925
160	0xbdc12663	-0.0943115
161	0xba8054d1	-0.0009790902
162	0x3c11b480	0.008893132
163	0xbcfd846c	-0.030946933
164	0x3d059b4e	0.032618813
165	0x3da043a6	0.07825403
166	0xbba03c14	-0.0048899744
167	0xbce48248	-0.027894154
168	0xbd738a29	-0.05945793
169	0xbd7ed53a	-0.062215067
170	0x3d22249e	0.039585702
171	0xbd826bba	-0.063682035
172	0xbdcf23e7	-0.1011427
173	0x3c96a95d	0.018391306
174	0x3c5ada27	0.013357676
175	0xbda89b10	-0.08232701
176	0x3d13eec8	0.03611639
177	0x3d496d21	0.04917634
178	0xbda20de9	-0.079128094
179	0xbc1df14a	-0.009640047
180	0x3d9ecc9e	0.077538714
181	0x3d61bc96	0.05511149
182	0xbd5f07ed	-0.054450918
183	0xbcdf2fdb	-0.027244499
184	0xbd78c7ca	-0.06073741
185	0xbd1c04e9	-0.03809062
186	0xbd2cdb04	-0.042201057
187	0x3d733d6e	0.059384756
188	0x3b92b62c	0.004477283
189	0xbd4070e5	-0.046982665
190	0xbda20e88	-0.07912928
191	0xbd8770b8	-0.06613296
192	0xbd969257	-0.07352131
193	0xbbb9fc66	-0.00567584
194	0x3cf1cb33	0.029515838
195	0x3d940a27	0.07228499
196	0x3d6b34ff	0.057423588
197	0x3d9f8cc8	0.07790524
198	0x3db9453b	0.09046408
199	0xbd2b40d1	-0.04180986
200	0xbd633381	-0.05546904
201	0x3b781eab	0.0037860076
202	0xbcff2417	-0.031145139
203	0x3ba25337	0.0049537676
204	0x3bbe95c8	0.005816195
205	0xbd8053af	-0.062659614
206	0xbd62bec2	-0.055357702
207	0xbcc1dad7	-0.023663921
208	0x3bfd6af9	0.0077336994
209	0x3d7d0fd5	0.061782677
210	0xbd91b05b	-0.07113715
211	0xbdbdb753	-0.09263482
212	0x3c3463e6	0.011010146
213	0xbcadb273	-0.021203255
214	0xbd542401	-0.05179215
215	0xbda39423	-0.07987239
216	0x3d4d111f	0.050065156
217	0xbcab475f	-0.020908056
218	0x3daf6314	0.085638195
219	0xbd49d6bb	-0.04927705
220	0xbdb9102d	-0.090362884
221	0x3c51f31a	0.012814308
222	0x3d1c791b	0.038201433
223	0x3d23128e	0.039812617
224	0x3bbe2e04	0.0058038253
225	0x3db3e5da	0.08784075
226	0xbd669f68	-0.056304365
227	0xbd911512	-0.07084097
228	0xbcfa86ef	-0.03058192
229	0xbd028661	-0.031866435
230	0x3d1645ad	0.03668754
231	0x3dbd5249	0.0924421
232	0x3d8c7937	0.068590574
233	0xbccc8ce0	-0.024969518
234	0xbc4befce	-0.012447311
235	0xbcdbbc90	-0.026823312
236	0x3d5ab2d6	0.053393207
237	0xbc689863	-0.014196488
238	0xbd36272c	-0.04447095
239	0x3cbcc74e	0.023044255
240	0xbd6a0438	-0.05713293
241	0x3d702894	0.05863245
242	0xbda4e9c3	-0.08052399
243	0xbda15502	-0.07877542
244	0xbc875876	-0.016521674
245	0xbd8873f7	-0.066627435
246	0xbd18507c	-0.03718613
247	0x3d179ac9	0.03701285
248	0xbbacd6be	-0.0052746227
249	0xbc67cecc	-0.014148425
250	0xbdc484c1	-0.09595633
251	0xbd080f61	-0.03321779
252	0xbcf6f493	-0.030145919
253	0x3d4ab29d	0.049486745
254	0x3d1f88ab	0.038948696
255	0xbbc8f44c	-0.006132638

cnn_apt_1.bias f4 [100]
0	0x3e01b999	0.12668456
1	0x3d2115cc	0.039327428
2	0xbbdc7e3b	-0.006728915
3	0xbab30865	-0.0013659118
4	0x3daf0f8e	0.08547889
5	0x3dc0e41f	0.09418511
6	0xbd3b7897	-0.0457693
7	0xbce5ee49	-0.028067725
8	0x3d8da720	0.06916642
9	0x3b9c2dd4	0.0047662053
10	0x3d2d284e	0.042274766
11	0x3d8f7bcb	0.070060335
12	0x3d5b7751	0.053580586
13	0x3dc78658	0.09742421
14	0xbce2d5f2	-0.027689908
15	0xbcaf4135	-0.021393398
16	0xbc3a51a8	-0.011372007
17	0x3d325824	0.04354109
18	0x3d16b638	0.03679487
19	0xbd3ec339	-0.046572898
20	0xbd3b92f0	-0.045794427
21	0xbcdb4c19	-0.026769685
22	0x3b4d2fc1	0.003130898
23	0x3db29a38	0.08720821
24	0x3d1f33e9	0.038867865
25	0xbce6afc9	-0.028159993
26	0xbd4a303f	-0.049362417
27	0xbc797c20	-0.015227348
28	0xbcc7c69a	-0.024386693
29	0xbd643dbd	-0.05572294
30	0xbdbc4d46	-0.09194426
31	0xbd5928be	-0.05301737
32	0xbd996dd0	-0.07491648
33	0xbca36702	-0.019946579
34	0xbbac4963	-0.005257772
35	0xbc999ac5	-0.018750558
36	0x3db5203d	0.088440396
37	0xbd9c6259	-0.07635946
38	0x3d41a12a	0.04727284
39	0x3d34abcd	0.044109154
40	0x3db12ad1	0.08650745
41	0x3d6d1b58	0.057887405
42	0xbd605eae	-0.054777794
43	0x3d08d056	0.03340181
44	0xbd9c48ab	-0.07631048
45	0x3dcddf6c	0.1005238
46	0xbd97ab5d	-0.07405732
47	0xbcf44a3a	-0.02982055
48	0x3d3371d5	0.04380973
49	0xbc4742be	-0.012161909
50	0xbcee9c6b	-0.02912732
51	0x3bcc3376	0.0062317206
52	0x3d700771	0.058600847
53	0x3dadc871	0.08485497
54	0xbce2cda8	-0.027685955
55	0x3d57e97b	0.0527129
56	0xbd28c5d1	-0.041204277
57	0xbcf6be7a	-0.030120123
58	0xbd1010c7	-0.03517225
59	0xbd3e4c9d	-0.046459783
60	0x3d88f160	0.06686664
61	0xbd9b4345	-0.0758119
62	0x3c528c86	0.012850886
63	0x3cdfb60b	0.027308485
64	0xbcbd7056	-0.023124855
65	0x3caf9d61	0.021437349
66	0x3d19cf60	0.037551284
67	0xbd888ef4	-0.06667891
68	0xbd131f69	-0.035918627
69	0x3c81d078	0.015846476
70	0x3d87ad6e	0.06624876
71	0x3b247419	0.0025093614
72	0x3d26cef4	0.04072471
73	0xbcd92190	-0.026505262
74	0x3d5e4ead	0.05427425
75	0xbd4b1bcc	-0.049587056
76	0xbd31fa34	-0.043451503
77	0xbd6f7bb6	-0.05846759
78	0x3cad60c5	0.021164307
79	0x3d58a115	0.052887995
80	0x3cdfb134	0.027306177
81	0x3cee5c16	0.029096644
82	0x3d76c39f	0.060245153
83	0xbd6dd36f	-0.058062967
84	0xbdaf04a3	-0.08545806
85	0xbd48a944	-0.04898955
86	0x3e055fa8	0.13024771
87	0xba98b8ff	-0.0011651813
88	0xbcd7ce28	-0.02634342
89	0x3dbe48d4	0.092912346
90	0x3c68cb12	0.014208572
91	0x3d443d4d	0.047910023
92	0x3daa53f5	0.08316795
93	0x3c73f664	0.014890287
94	0x3d71158f	0.05885845
95	0xbd02a93e	-0.031899683
96	0xbd9cb88a	-0.076523855
97	0x3db9f91e	0.090807185
98	0xbad92b1f	-0.0016568637
99	0xbd6cf948	-0.05785492

cnn_apt_2.weight f4 [50, 100, 1]
0	0x3cf04c0e	0.02933314
1	0xbdc175b8	-0.09446281
2	0x3d06b83f	0.032890555
3	0x3da59834	0.08085671
4	0xbd085c5a	-0.0332912
5	0xbd76001c	-0.060058698
6	0x3d83b449	0.06430871
7	0x3c88bacf	0.01669064
8	0xbd2626b3	-0.04056425
9	0xbd82fdfb	-0.06396099
10	0xbcf980aa	-0.03045686
11	0xbd0233f8	-0.031787843
12	0xbda61037	-0.081085615
13	0xbdd93c2a	-0.106071785
14	0x3b57077e	0.0032810862
15	0x3cfd91f2	0.030953381
16	0x3d85160d	0.064983465
17	0x3dcd9f0e	0.10040103
18	0x3c7e5822	0.015523942
19	0xbbf716ce	-0.0075405603
20	0x3d100aac	0.035166427
21	0x3da2572a	0.079267815
22	0x3d274d95	0.040845472
23	0xbd6a0f8d	-0.057143737
24	0x3d61410f	0.054993685
25	0xbcb67591	-0.022272857
26	0x3dcce983	0.10005476
27	0xbd1e77c4	-0.038688436
28	0xbda86207	-0.08221822
29	0xbd5486c6	-0.051886342
30	0x3c4ee1fa	0.012627119
31	0x3db4573a	0.088057
32	0xbb177a40	-0.0023113638
33	0x3d123ac8	0.03570059
34	0xbd66f8ba	-0.056389548
35	0x3dd0f1a3	0.102023385
36	0x3a87a31d	0.0010348294
37	0xbd27632e	-0.04086607
38	0x3d940d09	0.07229049
39	0x3d2aa12a	0.041657604
40	0xbd72855c	-0.059209213
41	0x3bc1412d	0.005897662
42	0x3d5656a6	0.05232873
43	0x3d2a666e	0.04160159
44	0x3db20eeb	0.086942516
45	0xbdd035c5	-0.10166506
46	0xbd37c452	-0.04486496
47	0x3d87a78f	0.06623756
48	0x3c70d36f	0.014698847
49	0xbd7aed83	-0.061261665
50	0xbdb88617	-0.090099506
51	0xbdbf9e39	-0.093563505
52	0xbca58ee2	-0.020209733
53	0x3d25cabc	0.040476546
54	0xbd7e40ae	-0.062073402
55	0xbd863cf8	-0.065545976
56	0x3da43894	0.08018604
57	0x3bdbb574	0.0067049805
58	0xbc96535a	-0.018350292
59	0xbd0802b8	-0.033205718
60	0x3c634698	0.013871811
61	0x3cba8b8e	0.022771623
62	0xbda5f23f	-0.081028454
63	0xbd984b39	-0.074362226
64	0xbdc9f103	-0.098604225
65	0x3d819ba1	0.06328512
66	0xbc18c192	-0.0093234945
67	0xbcda7924	-0.026669092
68	0x3d802b3c	0.06258246
69	0x3dc6c4cc	0.09705505
70	0x3da323ac	0.07965788
71	0xbd014fd1	-0.03157026
72	0x3d37efc4	0.044906393
73	0x3def9340	0.116980076
74	0x3d23479c	0.039863214
75	0x3d560614	0.05225189
76	0xbc2911d6	-0.010319194
77	0x3d9d3d8a	0.07677753
78	0xbd56ba34	-0.05242367
79	0x3a8d08ba	0.0010760047
80	0x3d6e1aaa	0.058130898
81	0x3d03c81b	0.032173257
82	0x3d3ddc37	0.04635259
83	0xbc95df94	-0.018295087
84	0x3c64369e	0.013929037
85	0x3d686be2	0.05674351
86	0xbe0a0a52	-0.134805
87	0xbc9e4d4e	-0.019323971
88	0xbd2517f8	-0.04030606
89	0xbdadb452	-0.08481659
90	0x3dd071ec	0.10177979
91	0xbd66ed5b	-0.056378704
92	0xbc2e870c	-0.010652315
93	0x3daede8a	0.0853854
94	0xbc7f19ed	-0.015570146
95	0xbcdc1d39	-0.026869403
96	0xbdaca7eb	-0.08430465
97	0xbd669f4a	-0.056304254
98	0x3d3c7d10	0.046017706
99	0x3cbfd218	0.02341561
100	0x3b0c2d92	0.0021389467
101	0xbd99a224	-0.07501629
102	0xbd50d8ad	-0.050987888
103	0xbc9405f0	-0.018069237
104	0x3d7f577f	0.062339302
105	0x3d6a2721	0.057166222
106	0x3b3da49b	0.0028937224
107	0x3c9e106b	0.019294938
108	0xbaf0f074	-0.0018382207
109	0x3b0d10f6	0.0021525002
110	0xbd5854a3	-0.05281509
111	0x3d9fd5aa	0.07804425
112	0xbcff13c6	-0.031137358
113	0xbdaa9a0e	-0.08330165
114	0xbb82d152	-0.003992238
115	0xbd64e0d3	-0.05587847
116	0x3d4b67a2	0.04965938
117	0x3c916510	0.017748386
118	0xbdb20678	-0.0869264
119	0x3d75f919	0.06005201
120	0x3db248b6	0.08705275
121	0xbd6f0156	-0.058350883
122	0x3d7f6357	0.062350597
123	0x3dbbc234	0.09167901
124	0xbb9d2c22	-0.004796521
125	0xba82164e	-0.000992486
126	0xbd9a447d	-0.07532594
127	0xbda42a4a	-0.080158785
128	0xbd4d992e	-0.05019491
129	0xbc81e1bf	-0.015854714
130	0x3c61385a	0.013746345
131	0xbbf3f4f4	-0.007444972
132	0x3dafbb0f	0.085806005
133	0xbdb6e354	-0.08930078
134	0x3d8eea39	0.06978268
135	0x3c877a2f	0.016537754
136	0x3cdf5c7e	0.027265783
137	0xbb278797	-0.0025562996
138	0x3cb96be1	0.022634448
139	0xbd98d553	-0.07462563
140	0xbcbd7e48	-0.023131505
141	0xbd925f94	-0.07147136
142	0x3d2b3175	0.041795213
143	0xbd05d9b2	-0.032678314
144	0xbbd83a72	-0.006598764
145	0xbd8626be	-0.06550358
146	0x3d83f293	0.06442752
147	0xbdc16a53	-0.09444108
148	0x3d80386f	0.06260764
149	0x3d1e182d	0.038597275
150	0x3d4b31e2	0.04960812
151	0x3d56713f	0.052354094
152	0xbc970865	-0.01843662
153	0xbd8e4178	-0.06946081
154	0x3ccfb58a	0.02535512
155	0xbb85d866	-0.0040846346
156	0xbda2e65d	-0.079540946
157	0x3d94d84d	0.072678186
158	0x3ceeef96	0.029166978
159	0x3b6280e9	0.00345617
160	0x3d2e1c84	0.042507663
161	0x3c3f1e55	0.011664947
162	0x3d307e71	0.043089334
163	0xbd331e05	-0.0437298
164	0x3d8354eb	0.06412681
165	0x3d89addb	0.067226134
166	0xbd7a3358	-0.06108412
167	0xbd49fab3	-0.04931135
168	0x3dc28a2e	0.09499012
169	0x3cb7a72a	0.022418577
170	0x3d47025d	0.04858624
171	0xbcbfe1bd	-0.02342307
172	0x3dac74f4	0.084207445
173	0xbcc2781a	-0.02373891
174	0x3db4fca4	0.0883725
175	0xbc8d8c90	-0.01727894
176	0x3daaff1e	0.08349441
177	0xbd4d60ff	-0.05014133
178	0xbb8033f7	-0.0039124447
179	0x3cfc4a03	0.03079701
180	0x3ba3237f	0.0049785967
181	0x3c20e8d9	0.00982114
182	0x3d8b48a5	0.06800965
183	0x3da38945	0.079851665
184	0xbd1480a4	-0.036255494
185	0xbd1d42bb	-0.038393717
186	0x3c1d8f24	0.009616647
187	0x3dcb8467	0.09937363
188	0x3d622cd3	0.05521853
189	0xbdcf5a8f	-0.101246946
190	0x3d28ef31	0.041243736
191	0xbdb3bcc3	-0.08776238
192	0xbd86396c	-0.06553921
193	0x3da6ea9f	0.08150219
194	0x3db70db0	0.089381576
195	0xbca144da	-0.019686151
196	0x3d3c1b3b	0.045924406
197	0xbc975f48	-0.01847805
198	0x3db72e15	0.08944336
199	0xbd67e45d	-0.05661427
200	0xbd87044a	-0.06592615
201	0xbd053472	-0.03252072
202	0x3d1067aa	0.03525511
203	0xbdb37359	-0.08762235
204	0x3db7b96f	0.089709155
205	0xbda1c100	-0.0789814
206	0xbaef75b9	-0.0018269337
207	0xbc7a1de5	-0.0152659165
208	0xbdb85f1f	-0.09002518
209	0x3d2192af	0.03944653
210	0x3d2bd2e3	0.041949164
211	0xbd8fb6af	-0.07017266
212	0x3d60605a	0.054779388
213	0xbb801d27	-0.003909725
214	0x3c82f198	0.015984342
215	0x3d1ce1e6	0.03830137
216	0x3dae96f7	0.08524888
217	0xbd24d3fc	-0.040241227
218	0x3d2cd487	0.04219487
219	0xbd6a5531	-0.05721015
220	0x3bb9ffe8	0.0056762584
221	0x3dbf57fa	0.09342952
222	0x3d91cc41	0.071190365
223	0xbcd60f5f	-0.026130376
224	0x3dabdcc2	0.083917156
225	0xbd9ca14f	-0.07647955
226	0x3dc79ac3	0.09746315
227	0xbd58cfcb	-0.05293254
228	0x3bdc5ec0	0.0067251623
229	0xbd886ac7	-0.06660991
230	0xbda0e5b4	-0.078563124
231	0x3d8b554e	0.0680338
232	0xbc8564b0	-0.016283363
233	0xbdb50d02	-0.08840372
234	0x3dd97c79	0.106194444
235	0x3c13bedc	0.009017672
236	0x3d83b7b5	0.06431524
237	0xbdb6eb74	-0.08931628
238	0xbcff9da6	-0.031203102
239	0xbd84a0b1	-0.06475962
240	0xbd47770e	-0.048697524
241	0x3ddf6ec3	0.10909798
242	0x3d18ac13	0.037273478
243	0x3da42d55	0.08016459
244	0xbdc0bf33	-0.09411468
245	0xbd5fd26d	-0.054644037
246	0xbcf6ea75	-0.030141095
247	0x3d9605c0	0.073253155
248	0xbdbfa887	-0.09358316
249	0xbda4e9ce	-0.08052407
250	0x3dc6661f	0.09687447
251	0x3d0eeb91	0.034892622
252	0x3dcaf684	0.099103004
253	0x3d545ad3	0.05184443
254	0x3d8e1134	0.06936875
255	0x3dd2785c	0.10276863

cnn_apt_2.bias f4 [50]
0	0x3d9bb4e4	0.076028615
1	0xbd3d31d9	-0.046190117
2	0x3d409a85	0.04702236
3	0x3d478a71	0.048716012
4	0xbdb4e159	-0.08832044
5	0xbd4ad03d	-0.049514998
6	0x3c46bc99	0.012129926
7	0xbdc79600	-0.09745407
8	0xbdcdb272	-0.10043801
9	0x3d7ac8bb	0.061226588
10	0x3b1961c7	0.0023404227
11	0x3c1a3a43	0.009413305
12	0x3daacb7e	0.08339594
13	0xbd1ff2f7	-0.03905007
14	0xbd050365	-0.03247394
15	0x3c895838	0.016765699
16	0xbd6e1f3d	-0.05813526
17	0x3c1d1d44	0.009589497
18	0xbd5b261e	-0.05350315
19	0x3db1424e	0.08655225
20	0x3cbf7f97	0.02337627
21	0x3d226a41	0.039652113
22	0xbc41c14c	-0.011825871
23	0x3d9c40eb	0.076295696
24	0xbd2fd552	-0.042928047
25	0x3c4165b0	0.011804029
26	0xbdb0acc9	-0.08626706
27	0xbac2d37e	-0.0014864055
28	0xbd4e6219	-0.050386522
29	0x3d97d069	0.07412798
30	0xbdaa40a8	-0.083131135
31	0x3dade972	0.08491792
32	0xbda30233	-0.07959404
33	0xbcfc4700	-0.030795574
34	0xbdd08998	-0.10182494
35	0xbd7fa429	-0.062412415
36	0x393be89d	0.00017920365
37	0xbce97a2a	-0.028500635
38	0xbd812da1	-0.06307531
39	0x3d66a819	0.056312654
40	0xbc78d1d1	-0.015186743
41	0xbc8e2f10	-0.017356426
42	0xbca0d0b1	-0.019630762
43	0xbd37c5e5	-0.04486646
44	0x3d694b11	0.056956355
45	0x3db6e637	0.08930629
46	0xbda10b74	-0.07863513
47	0xbd8daa2a	-0.06917222
48	0x3c02c3ca	0.00798125
49	0xbc2ff800	-0.01074028

cnn_pep_1.weight f4 [50, 8, 3]
0	0xbd9421dd	-0.072330214
1	0x3e3494c9	0.17634882
2	0x3e288abb	0.16459171
3	0x3e5b8bda	0.21440068
4	0xbe31230d	-0.17298527
5	0x3e12e70e	0.14345953
6	0x3e0ac842	0.13552955
7	0xbe2283f2	-0.15870646
8	0x3e19ad8b	0.15007608
9	0xbd827afe	-0.06371115
10	0x3c94e496	0.018175405
11	0xbe155f63	-0.14587168
12	0x3dd9f4aa	0.10642369
13	0x3df3bfe9	0.11901838
14	0xbdcb2106	-0.09918408
15	0x3e4422ac	0.19153851
16	0x3d9ea9df	0.07747244
17	0xbde765b7	-0.112986974
18	0x3e36cdd7	0.17851959
19	0xbd1c03ac	-0.03808944
20	0xbe15153f	-0.14558886
21	0xbe45e90b	-0.1932718
22	0x3ced6816	0.028980296
23	0x3e340c78	0.17582881
24	0xbdd83ae4	-0.105581075
25	0x3d046185	0.032319564
26	0x3d4abe29	0.049497757
27	0x3c903d83	0.017607456
28	0x3e827677	0.25481007
29	0x3caf0104	0.021362789
30	0xbc281bd5	-0.010260542
31	0x3e8e6397	0.27810356
32	0xbe194325	-0.1496702
33	0xbde05c04	-0.109550506
34	0xbd86f437	-0.06589549
35	0xbe2b14a1	-0.16707088
36	0x3c56b896	0.013105532
37	0x3e9888aa	0.29791766
38	0x3d09e887	0.03366902
39	0xbd7cf3c1	-0.0617559
40	0x3d878a89	0.0661822
41	0x3d5b7655	0.053579647
42	0x3d8fd12d	0.07022319
43	0x3e59e9fe	0.21280667
44	0xbc769c68	-0.015051939
45	0xbdf3e185	-0.11908249
46	0x3e7d32fb	0.24726479
47	0x3cbb8ae2	0.022893373
48	0xbe3130a6	-0.17303714
49	0x3e45994a	0.19296756
50	0xbd6bd1d9	-0.057573173
51	0x3ddbbecd	0.10729752
52	0xbe079499	-0.1324028
53	0xbd3ec19d	-0.046571363
54	0xbe16b5a1	-0.14717723
55	0xbd3bd613	-0.045858454
56	0x3e21ed1d	0.15813108
57	0x3e01e389	0.12684454
58	0x3de519da	0.111865714
59	0x3c23e0da	0.010002339
60	0xbc2bc067	-0.010482884
61	0x3dc28899	0.0949871
62	0x3e086bba	0.13322344
63	0xbd939983	-0.072070144
64	0x3df9210d	0.12164507
65	0xbd1b6a7c	-0.03794335
66	0xbdf63a33	-0.12022819
67	0xbe2a41d0	-0.16626668
68	0xbdc4da78	-0.09611982
69	0x3d9a06e5	0.07520846
70	0xbdd9c1a6	-0.10632639
71	0x3d8d85b3	0.06910267
72	0xbd9bb84d	-0.07603512
73	0xbe4e48cf	-0.20144962
74	0x3e43d1fe	0.19123074
75	0x3d151009	0.036392245
76	0x3cffa536	0.031206708
77	0xbe4a8eac	-0.19780988
78	0xbd263a05	-0.040582675
79	0x3e22f2bd	0.1591291
80	0xbdb6420c	-0.08899316
81	0xbcd59219	-0.026070641
82	0xbe11c6aa	-0.1423594
83	0x3d33e11e	0.04391586
84	0xbdd96b48	-0.106161654
85	0x3cff4e9a	0.03116541
86	0x3e28613f	0.16443346
87	0x3d544832	0.051826663
88	0x3d4258b9	0.047447894
89	0xbde3471e	-0.11097549
90	0x3de29954	0.11064401
91	0x3da7c320	0.08191514
92	0x3e12fbc6	0.14353856
93	0xbd912105	-0.07086376
94	0x3d922890	0.07136643
95	0xbe2e0897	-0.16995464
96	0x3e169395	0.14704736
97	0x3cf303bb	0.029664865
98	0xbdfe24db	-0.124093734
99	0xbd74de67	-0.059782412
100	0x3e18309e	0.14862296
101	0xbdb60e36	-0.08889429
102	0xbc784c43	-0.015154901
103	0x3e04b48a	0.12959495
104	0xbb212469	-0.0024588353
105	0xbe24b3ed	-0.16084261
106	0x3ec313c9	0.38101032
107	0xbda6b45c	-0.081398696
108	0x3d473d9c	0.04864274
109	0xbdd24ae8	-0.102681935
110	0x3e0e042e	0.13868782
111	0xbdbd0a95	-0.09230534
112	0xbdc4ad9f	-0.09603428
113	0x3df4038e	0.119147405
114	0x3d27cbbb	0.040965777
115	0x3df5165e	0.11967157
116	0x3dbc3f3c	0.091917485
117	0x3cc8f9d7	0.024533195
118	0x3e59c1eb	0.2126538
119	0xbc416600	-0.011804104
120	0xbbf7749f	-0.007551744
121	0x3e2a840e	0.16651937
122	0xbe1d56f1	-0.15365197
123	0x3e2482c7	0.16065513
124	0x3d85d93d	0.065355755
125	0x3d7bed0e	0.06150537
126	0xbdf0ca03	-0.11757281
127	0xbcd663b6	-0.026170593
128	0x3d18710d	0.03721719
129	0x3d3ea3de	0.046542995
130	0x3e13b41f	0.1442418
131	0xbcb486dc	-0.022036962
132	0x3c3fed17	0.0117142415
133	0xbd3243b4	-0.043521598
134	0x3e16b468	0.14717257
135	0xbdc8a46d	-0.09796987
136	0x3bf3e236	0.007442738
137	0xbd400727	-0.04688182
138	0xbe3ba250	-0.18323636
139	0xbd6e1933	-0.0581295
140	0xbdedb2bf	-0.11606359
141	0x3ddb59ef	0.10710513
142	0x3d8feea3	0.07027938
143	0x3e552e36	0.2081841
144	0x3e120bce	0.14262316
145	0xbd29ed6d	-0.041486192
146	0xbbfd1155	-0.0077230134
147	0x3d95feed	0.07324014
148	0xbd725262	-0.059160598
149	0x3dac2f0f	0.08407413
150	0x3e34fc2a	0.17674318
151	0xbd30d86e	-0.043175153
152	0x3e41011a	0.18848076
153	0x3e603fe2	0.2189937
154	0x3dae78eb	0.08519157
155	0x3db45471	0.088051684
156	0xbbd4c2b1	-0.0064929356
157	0xbc9e79ea	-0.019345243
158	0xbdf9f65c	-0.122051924
159	0x3e474420	0.19459581
160	0xbe209fdc	-0.15685982
161	0x3dd02783	0.10163786
162	0x3e3b80ac	0.18310803
163	0x3e4fa1f3	0.20276622
164	0xbe0c9840	-0.13729954
165	0x3e5cdfd8	0.21569765
166	0x3de7229c	0.11285898
167	0x3e0e1756	0.1387609
168	0xbc6faa49	-0.0146280015
169	0x3e1a0df0	0.15044379
170	0xbd97d07a	-0.074128106
171	0xbe48095b	-0.19534819
172	0x3dc45f20	0.09588456
173	0xbe27c16a	-0.16382375
174	0xbe015664	-0.12630612
175	0xbe0e1526	-0.13875255
176	0xbe3bad8a	-0.18327919
177	0xbe049a8e	-0.12949583
178	0xbd1561f5	-0.036470372
179	0xbce355bc	-0.027750842
180	0xbe1fce06	-0.15605935
181	0x3b981e0b	0.0046422533
182	0xbdf8f2e7	-0.12155705
183	0xbe4f2f8e	-0.20232984
184	0xbe3ac33d	-0.1823854
185	0x3c69ca78	0.014269464
186	0xbe172b62	-0.14762643
187	0x3e6226c5	0.22085102
188	0xbdd8e4ed	-0.10590539
189	0xbdf8d9a7	-0.12150889
190	0x3e58d5d8	0.21175325
191	0x3e0eec08	0.13957226
192	0x3e26e9d9	0.16300143
193	0x3e54507b	0.20733826
194	0x3dc618b4	0.096726805
195	0xbe4edd64	-0.20201641
196	0x3db0bb88	0.08629519
197	0x3d83b896	0.06431691
198	0x3d643198	0.05571136
199	0xbd8d6021	-0.06903101
200	0xbde497dd	-0.11161778
201	0x3dda7fcd	0.10668907
202	0x3cc5637c	0.02409529
203	0x3cd5596f	0.026043622
204	0xbd1491fb	-0.03627203
205	0x3d16e145	0.036835928
206	0x3e1259dd	0.14292093
207	0x3c085010	0.00831987
208	0xbe42262a	-0.18959871
209	0x3e1ea56b	0.1549279
210	0x3c2e2b6f	0.010630473
211	0xbe1c3329	-0.15253891
212	0xbe2afc5e	-0.16697833
213	0xbd9c656e	-0.07636534
214	0xbd1ba6f0	-0.038001
215	0xbe08e38d	-0.13368054
216	0x3de7ffb2	0.11328067
217	0x3dfff24e	0.12497388
218	0xbdd63568	-0.10459405
219	0xbe2e1239	-0.16999139
220	0x3d9623cf	0.07331049
221	0x3d79d300	0.06099224
222	0x3d5eb000	0.054367065
223	0x3cc538e5	0.024074981
224	0xbe377cfa	-0.17918769
225	0x3e44c244	0.19214731
226	0xbe03b3a1	-0.12861492
227	0x3e00a717	0.1256374
228	0x3dad34a9	0.0845731
229	0xbd2f3262	-0.04277266
230	0xbe3a9d00	-0.18223953
231	0x3df21d90	0.11822045
232	0xbdd2fad6	-0.103017494
233	0x3c3628e3	0.011118147
234	0x3e413f87	0.1887189
235	0xbd35aaff	-0.044352528
236	0x3e2b15b3	0.16707496
237	0x3e3d25c0	0.18471432
238	0x3d031766	0.032004736
239	0x3dd0eb5c	0.10201141
240	0x3da4c81a	0.08045979
241	0xbdfcf708	-0.12351805
242	0xbd8f5b32	-0.06999816
243	0x3dd60c9d	0.104516245
244	0x3de9030e	0.11377536
245	0x3b8cda88	0.004298512
246	0xbc2ae9cc	-0.010431718
247	0xbdc25a5f	-0.09489893
248	0x3d9d414d	0.07678471
249	0x3cb7fd49	0.022459643
250	0x3e05ae38	0.1305474
251	0x3e3a7efd	0.18212505
252	0x3e37e50d	0.1795847
253	0xbdc17e6f	-0.094479434
254	0xbe4ae204	-0.1981278
255	0xbe0356a8	-0.12826025

cnn_pep_1.bias f4 [50]
0	0xbd3627ce	-0.044471554
1	0xbc8e49a2	-0.017369095
2	0xbdb2a03e	-0.0872197
3	0xbd0d6aba	-0.03452561
4	0x3c0cc634	0.008592177
5	0xbdcd713c	-0.10031363
6	0x3e294981	0.16531946
7	0xbe04da18	-0.12973821
8	0xbe245c76	-0.16050896
9	0xbb335e66	-0.0027369498
10	0xbde4df71	-0.111754306
11	0xbdc872ed	-0.09787545
12	0x3d9cafde	0.076507315
13	0x3e2b7c22	0.16746572
14	0x3c893be2	0.016752187
15	0xbdfd29ba	-0.12361474
16	0xbd16b8c6	-0.036797307
17	0x3e2d625c	0.16932052
18	0x3ca56baa	0.02019294
19	0x3daa97dd	0.08329747
20	0xbc93ef82	-0.018058542
21	0xbe23e495	-0.16005166
22	0x3b37d5e9	0.0028051084
23	0xbe14f4e2	-0.1454654
24	0xbe2f197b	-0.17099564
25	0xbe06b9ef	-0.13156866
26	0xbe1c0d91	-0.1523955
27	0x3d198908	0.0374842
28	0x3e0db155	0.13837178
29	0x3de13d5a	0.1099803
30	0xbde66ce7	-0.1125124
31	0x3cdea098	0.027176186
32	0xbe4fa4dc	-0.20277733
33	0x3e56b2fc	0.20966715
34	0x3e0488bb	0.12942784
35	0x3dba71be	0.09103726
36	0x3d8f73a7	0.07004481
37	0x3d331870	0.043724477
38	0x3e2673c0	0.16255093
39	0xbbaab30a	-0.0052093314
40	0xbd88cd9c	-0.06679842
41	0x3dad4bfa	0.08461757
42	0x3e500441	0.20314123
43	0x3d91decb	0.071225725
44	0x3e527f58	0.2055639
45	0x3e8a0b54	0.26961768
46	0xbb02acf0	-0.0019939505
47	0xbe098c94	-0.13432533
48	0x3e3b542b	0.18293826
49	0x3e52a876	0.20572075

cnn_pep_2.weight f4 [25, 50, 1]
0	0xbdf57e58	-0.11986989
1	0xbb5fdc38	-0.003415836
2	0xbd482e3d	-0.04887222
3	0xbda173c8	-0.07883412
4	0x3c208547	0.009797401
5	0x3d5b3560	0.0535177
6	0xbdfeb585	-0.12436966
7	0xbde3c66e	-0.11121832
8	0xbd4fdebd	-0.05074953
9	0xbbf0c094	-0.007347176
10	0xbd3aa307	-0.04556563
11	0x3ddb80f4	0.10717955
12	0xbbaf6e6f	-0.005353741
13	0xbd1ddca0	-0.038540483
14	0x3ca505e2	0.020144407
15	0xbd89be7c	-0.06725785
16	0x3dfb1109	0.122591086
17	0x3e02d4de	0.12776515
18	0x3e259889	0.16171469
19	0x3e261b05	0.16221245
20	0xbcbfd23a	-0.023415674
21	0x3cb919f2	0.02259538
22	0x3d62c6ba	0.0553653
23	0xbd6ea58a	-0.05826334
24	0x3d068613	0.032842707
25	0xbcfdfdcf	-0.031004814
26	0x3e05c759	0.13064326
27	0x3e230878	0.159212
28	0x3e167549	0.14693178
29	0xbe0285c7	-0.12746345
30	0x3d8969f2	0.067096606
31	0xbe00b2b6	-0.12568173
32	0xbd07fcff	-0.03320026
33	0x3d26ec16	0.040752493
34	0x3d64d497	0.055866804
35	0xbdafd4f8	-0.085855424
36	0xbe0e0f2e	-0.13872978
37	0x3e0a47d9	0.1350397
38	0x3e219730	0.1578033
39	0x3c440807	0.0119648045
40	0xbdf29976	-0.118456766
41	0x3d3b9eab	0.045805614
42	0x3da12b8e	0.078696355
43	0xbbf1d719	-0.007380378
44	0x3d4368c5	0.047707338
45	0x3d7e1530	0.062031925
46	0xbce96d96	-0.028494637
47	0xbdcf7e10	-0.101314664
48	0xbd97c0ab	-0.074097954
49	0x3d53320c	0.0515614
50	0x3bcee4f8	0.0063139163
51	0x3e25a89d	0.16177602
52	0xbcc15358	-0.023599312
53	0x3e0bbb69	0.1364571
54	0xbbae5e45	-0.0053212964
55	0xbdfd66df	-0.12373137
56	0xbd8a526e	-0.067540035
57	0x3e061717	0.13094746
58	0xbc38c069	-0.011276343
59	0xbe1241e0	-0.14282942
60	0xbcc6cbd9	-0.024267124
61	0x3c865689	0.016398685
62	0x3e49ddf5	0.19713576
63	0xbd2932c9	-0.041308198
64	0x3c28d652	0.010305004
65	0x3db4e63d	0.08832977
66	0x3d324b73	0.043528985
67	0xbdab21ed	-0.0835608
68	0x3c8ac452	0.016939316
69	0xbdbf9fe0	-0.093566656
70	0xbd02866d	-0.03186648
71	0xbdd3cbdf	-0.1034162
72	0x3dc424da	0.095773414
73	0x3e0de48a	0.13856712
74	0xbe0570cc	-0.1303131
75	0x3d7030af	0.05864018
76	0x3c83ceeb	0.016089877
77	0x3e4f6700	0.20254135
78	0xbbca0808	-0.006165508
79	0xbdef20e0	-0.11676192
80	0xbdc2071f	-0.094740145
81	0x3d7bbb6a	0.06145803
82	0xbdca8b2b	-0.098898254
83	0xbe13e45b	-0.1444258
84	0x3da797e5	0.081832685
85	0x3df6d553	0.12052407
86	0xbe340de3	-0.17583422
87	0x3e53e287	0.20691882
88	0x3e832c24	0.25619614
89	0x3cd43c1a	0.025907565
90	0x3dc7150b	0.097208105
91	0xbdb84916	-0.08998315
92	0x3b8e5b77	0.0043443996
93	0xbda92b54	-0.08260217
94	0x3de03ac7	0.10948711
95	0x3e17d692	0.14827946
96	0xbd81afea	-0.06332381
97	0xbdd544f8	-0.10413545
98	0xbe316d3c	-0.17326826
99	0x3d14c1e5	0.036317725
100	0xbd9c9a68	-0.07646638
101	0xbdee0be4	-0.11623362
102	0xbd359038	-0.04432699
103	0x3dc1f8c5	0.09471277
104	0x3ddcd7d8	0.107833564
105	0x3df8c5a2	0.121470705
106	0xbddc2169	-0.1074856
107	0xbe001117	-0.1250652
108	0x3cc55e30	0.024092764
109	0xbdbb64de	-0.09150098
110	0xbd8dd5e2	-0.069255605
111	0x3d9b70f7	0.07589906
112	0xbdf4edd6	-0.11959426
113	0xbdb0e453	-0.086372994
114	0x3daa4ec2	0.08315803
115	0x3dbf73f7	0.093482904
116	0xbd9ad63c	-0.07560393
117	0xbdedb7f3	-0.11607351
118	0xbdd59d0f	-0.10430347
119	0x3e0c72fb	0.13715737
120	0xbd860b20	-0.06545091
121	0x3e03273e	0.12807938
122	0xbd818371	-0.063238986
123	0x3dc964b0	0.09833658
124	0xbc1138a0	-0.008863598
125	0xbe0ebf0f	-0.1394007
126	0x3e0642c9	0.13111414
127	0x3ceb3321	0.028710904
128	0x3d5d161b	0.05397616
129	0x3cdd2df2	0.026999447
130	0xbdf9e594	-0.12201992
131	0x3d7f83c4	0.06238152
132	0x3a9fe480	0.0012198836
133	0xbda6209c	-0.081116885
134	0x3b20d90c	0.0024543433
135	0xbe016cf2	-0.12639216
136	0xbb100bd3	-0.0021979704
137	0x3db23299	0.08701057
138	0xbdf907e8	-0.12159711
139	0x3d90ea08	0.07075888
140	0xbd5fedfa	-0.05467031
141	0xbcc1443b	-0.023592105
142	0x3ddbf703	0.10740473
143	0x3dc58f68	0.09646493
144	0xbd96106d	-0.07327352
145	0xbcb47116	-0.02202658
146	0xbe009db4	-0.12560159
147	0xbd9fd8b2	-0.07805003
148	0x3dc54c62	0.096337095
149	0xbde2231f	-0.11041855
150	0xbcb416ae	-0.02198347
151	0xbbe70813	-0.007050523
152	0xbda5bda6	-0.08092813
153	0x3cf5f8e6	0.03002591
154	0xbdd23a65	-0.10265044
155	0x3deeaff5	0.11654655
156	0x3dc409d3	0.09572186
157	0xbd95aef3	-0.073087595
158	0xbd554821	-0.05207074
159	0xbdb45b7c	-0.08806512
160	0x3cdaf290	0.026726991
161	0xbe07fc84	-0.13279921
162	0x3da3b41f	0.0799334
163	0x3e06aa85	0.13150986
164	0xbccadcc1	-0.024763467
165	0xbda2c9ce	-0.079486474
166	0x3d28d92f	0.041222747
167	0xbdd1980c	-0.10234079
168	0x3d14c234	0.03631802
169	0x3e02d608	0.12776959
170	0x3dd2e0cc	0.10296783
171	0xbba90190	-0.005157657
172	0x3e05359c	0.13008732
173	0xbdf327c1	-0.11872817
174	0xbdeb162a	-0.11478837
175	0xbdef4e06	-0.11684804
176	0xbcb425ec	-0.021990739
177	0xbb99894c	-0.0046855565
178	0x3cc718e2	0.024303857
179	0xbdd5b98a	-0.104357794
180	0xbe0d9acf	-0.13828586
181	0x3c0e6375	0.008690705
182	0xbdb4e3db	-0.088325225
183	0xbdef69d6	-0.116901085
184	0x3e25eaaa	0.16202798
185	0x3db624f1	0.08893765
186	0x3d2954b7	0.041340556
187	0xbe20f7b9	-0.15719499
188	0xbd81c931	-0.06337202
189	0xbd4c74c6	-0.04991605
190	0xbd90807f	-0.07055759
191	0xbb6b052e	-0.0035861242
192	0x3e0fd559	0.1404623
193	0xbd9abd23	-0.07555606
194	0x3e036864	0.1283279
195	0x3d0df810	0.0346604
196	0x3dd32e44	0.10311559
197	0x3dc97f2d	0.0983871
198	0x3e26e07c	0.16296571
199	0x3d3577dc	0.04430376
200	0x3d9fdd48	0.07805878
201	0xbd833ca9	-0.064080544
202	0xbd53b45c	-0.051685676
203	0xbdd27e70	-0.10278022
204	0xbbbfc040	-0.0058517754
205	0xbdaeb800	-0.08531189
206	0x3c45b4a0	0.01206699
207	0x3c83a180	0.01606822
208	0x3de6b9d6	0.11265914
209	0xbe0c8edf	-0.13726376
210	0xbc2a04a0	-0.010377079
211	0x3db0149a	0.085976794
212	0xbdbbc42f	-0.091682784
213	0xbe0e4a49	-0.13895525
214	0xbdb8be20	-0.090206385
215	0xbdd28f7e	-0.10281275
216	0xbdfc0c5b	-0.12307044
217	0xbd131b54	-0.035914734
218	0xbd8827ae	-0.06648193
219	0xbda6b758	-0.08140439
220	0x3cab1448	0.020883694
221	0xbe076aa4	-0.13224274
222	0x3e032ef7	0.12810884
223	0xbdf76a1a	-0.12080784
224	0x3d355a68	0.04427567
225	0xbd1f99f0	-0.038965166
226	0x3d065230	0.032793224
227	0xbdfbf58f	-0.12302696
228	0xbdc61a17	-0.09672945
229	0xbdc0069b	-0.0937626
230	0xbbc2f3a0	-0.0059494525
231	0xbe0cae90	-0.13738465
232	0x3df3a29a	0.11896248
233	0xbd5b6ea6	-0.05357232
234	0xbddf957e	-0.10917185
235	0xbd3e0560	-0.046391845
236	0xbb8983e0	-0.004196629
237	0x3e0cc0d9	0.1374544
238	0xbdc5d354	-0.09659448
239	0xbde0175b	-0.10941955
240	0x3cd9c310	0.02658227
241	0xbbeb1600	-0.0071742535
242	0xbd17b2e0	-0.037035823
243	0x3d1ff9d0	0.0390566
244	0xbdd5d7b2	-0.10441531
245	0xbd0e1d4c	-0.03469591
246	0x3e0beed5	0.13665326
247	0xbdb9c5e9	-0.090709515
248	0xbc9da508	-0.019243732
249	0x3d0ac384	0.033877864
250	0x3c7c33f0	0.015393242
251	0xbceaf16b	-0.02867957
252	0x3d4b4e81	0.049635414
253	0x3d65efc4	0.05613686
254	0xbe2387cc	-0.15969771
255	0x3c4d6d02	0.0125381965

cnn_pep_2.bias f4 [25]
0	0x3db0a771	0.08625687
1	0x3dfdb387	0.12387758
2	0xbe103c82	-0.14085582
3	0x3db46b16	0.088094875
4	0x3cfb21f8	0.030655846
5	0x3d6abbe4	0.057308093
6	0xbd535035	-0.051590163
7	0x3db1f7ee	0.08689867
8	0x3d4dfaca	0.050288
9	0x3d862916	0.06550805
10	0xbd509320	-0.05092156
11	0xbd9f4edb	-0.07778712
12	0xbc7f5625	-0.015584503
13	0x3cc8958f	0.024485378
14	0xbd0231b7	-0.031785693
15	0x3dff4b46	0.12465529
16	0xbdcbb925	-0.09947423
17	0xbe0fa87e	-0.14029118
18	0x3e2fc4ef	0.17164968
19	0x3e532d5f	0.20622776
20	0x3ced4a5a	0.028966118
21	0x3e8a0d31	0.2696319
22	0x3b521b7b	0.0032059837
23	0x3dd13bbf	0.10216474
24	0xbd359119	-0.04432783

cnn_pep_3.weight f4 [10, 25, 1]
0	0xbd08f5b8	-0.03343746
1	0xbc102650	-0.008798197
2	0xbdd4f0ea	-0.10397513
3	0x3b8b85c0	0.0042578876
4	0x3ce37518	0.027765796
5	0xbe288cad	-0.16459914
6	0xbc9cbac0	-0.019132018
7	0x3e1919bb	0.14951222
8	0x3ca20650	0.0197784
9	0x3d43bff4	0.047790483
10	0xbdd160d3	-0.10223546
11	0x3d81b37e	0.063330635
12	0xbe4a7b1d	-0.19773526
13	0xba086d00	-0.00052042305
14	0xbdb297e7	-0.08720379
15	0xbd586100	-0.05282688
16	0x3e4c6c5b	0.1996321
17	0xbdcc003a	-0.09960981
18	0x3e3da5f1	0.18520333
19	0xbe0b64bd	-0.13612647
20	0x3e4cad49	0.19987978
21	0x3de56c42	0.11202289
22	0xbe217fea	-0.15771452
23	0x3c0a1ed0	0.008430198
24	0xbe301c15	-0.17198212
25	0x3d25e218	0.040498823
26	0x3cea9910	0.028637439
27	0x3e46f89f	0.19430779
28	0x3e14d9bf	0.14536189
29	0x3cda8dd0	0.02667895
30	0xbdd04350	-0.10169089
31	0x3ced6900	0.028980732
32	0x3e08f20b	0.13373582
33	0x3d010f14	0.03150852
34	0xbe1f3cde	-0.15550563
35	0xbaf4ad00	-0.0018667281
36	0xbcbcc580	-0.023043394
37	0x3cae6cd0	0.02129212
38	0x3e3c159b	0.18367617
39	0xbdcf5740	-0.101240635
40	0xbd8f950a	-0.07010849
41	0xbdcb862d	-0.099377014
42	0x3c83f8e8	0.016109899
43	0xbd2319ac	-0.039819404
44	0x3d8e3806	0.069442794
45	0x3e2ce43f	0.16883944
46	0xbe21b11b	-0.15790217
47	0xbe0b9252	-0.13630036
48	0xbcd0f418	-0.025507018
49	0x3db45f82	0.08807279
50	0xbcfdf2b0	-0.030999511
51	0x3cd1d798	0.025615498
52	0x3d6ecb2c	0.05829923
53	0xbdd29a9a	-0.10283394
54	0xbdc71773	-0.097212695
55	0x3dc6f116	0.09713952
56	0xbd866d24	-0.06563786
57	0xbce31098	-0.027717873
58	0xbc61c480	-0.013779759
59	0x3e395373	0.1809824
60	0xbdf9ded3	-0.122007035
61	0xbe3312af	-0.17487596
62	0xbd607a8c	-0.05480437
63	0xbcbe3368	-0.023217872
64	0x3da66ec6	0.08126597
65	0xbd5dd3ec	-0.054157183
66	0xbe214b30	-0.15751338
67	0xbdf1df7a	-0.11810203
68	0xbd42678c	-0.04746203
69	0x3ca66d28	0.020315722
70	0x3d8e2e1a	0.06942387
71	0x3e361a4b	0.17783467
72	0x3e369843	0.1783152
73	0xbe22041b	-0.15821879
74	0x3d7916ec	0.060812876
75	0xbc5dfbe0	-0.013548821
76	0xbd16b1f8	-0.036790818
77	0x3bdbabc0	0.006703824
78	0xbcc7a498	-0.024370477
79	0x3ba4a9c0	0.0050251186
80	0x3e46b69d	0.19405599
81	0xbe1e48a2	-0.15457395
82	0xbe1bb5c3	-0.15206055
83	0x3e351519	0.1768383
84	0x3dfac272	0.12244119
85	0x3e300d31	0.17192532
86	0x3e4b67e5	0.19863851
87	0x3ce3b430	0.027795881
88	0x3e391769	0.18075337
89	0xbda2bcbd	-0.07946155
90	0x3e3d5ea5	0.18493135
91	0x3da9a61a	0.082836345
92	0xbd4194a0	-0.04726088
93	0xbc64c160	-0.01396212
94	0xbe12a543	-0.14320855
95	0x3d368cd4	0.044567898
96	0xbcc624c0	-0.024187446
97	0x3e413869	0.18869175
98	0xbd9a655d	-0.07538865
99	0xbc175720	-0.009237081
100	0xbcde6e70	-0.02715227
101	0xbe00cf74	-0.12579137
102	0xbe30c762	-0.17263559
103	0xbe021460	-0.12703085
104	0xbe432565	-0.19057234
105	0xbdf18dd7	-0.11794632
106	0xbe11ffab	-0.14257686
107	0x3e167263	0.14692073
108	0xbe3ab018	-0.18231237
109	0xbdd21e03	-0.102596305
110	0x3e0c6a55	0.13712437
111	0xbe2ea128	-0.17053664
112	0xbd123ee8	-0.035704523
113	0x3d546364	0.0518526
114	0x3e2cf031	0.16888501
115	0xbd1889ac	-0.03724067
116	0xbdd59d6a	-0.10430415
117	0x3e13b089	0.14422812
118	0xbe2d73b3	-0.16938667
119	0x3dc95486	0.09830575
120	0x3e0e0649	0.13869585
121	0xbc02d3d0	-0.00798507
122	0xbe2c73e3	-0.16841082
123	0x3d4218f8	0.047387093
124	0x3d218f40	0.039443254
125	0x3db15dfe	0.08660506
126	0x3e0cb755	0.1374181
127	0x3d811482	0.0630274
128	0x3dae8e62	0.08523251
129	0xbe119838	-0.14218223
130	0x3e405141	0.18780996
131	0x3dc0e102	0.09417917
132	0xbe3ebb3a	-0.18626109
133	0xbdfd1137	-0.12356799
134	0x3db22372	0.08698167
135	0xbdb5f2a7	-0.08884173
136	0x3c4217d0	0.011846498
137	0x3e2b3819	0.16720618
138	0x3e24340f	0.16035484
139	0x3d8cb4ea	0.06870444
140	0x3e40ecf9	0.18840398
141	0x3e3b84ed	0.18312426
142	0xbdba66fd	-0.09101675
143	0xbdb5d233	-0.08877983
144	0x3c9ddb18	0.019269511
145	0x3d127788	0.035758525
146	0xbbfff8c0	-0.0078116357
147	0xbe2e7b02	-0.17039111
148	0x3db0b90e	0.086290464
149	0xbe18d48b	-0.14924829
150	0xbe4032d2	-0.18769386
151	0x3e2b8ce9	0.16752972
152	0x3e1869e1	0.1488414
153	0xbdb57ca7	-0.08861666
154	0x3c93bc90	0.01803425
155	0x3da41c62	0.08013226
156	0x3e04a579	0.12953748
157	0x3e2142eb	0.15748183
158	0x3e01151b	0.12605707
159	0x3dd409be	0.10353421
160	0x3d4177d8	0.047233433
161	0x3c824968	0.015904143
162	0xbe274002	-0.16333011
163	0x3d729d24	0.059231892
164	0x3de730b6	0.11288588
165	0xbe2b3730	-0.16720271
166	0xbd5dc9a8	-0.054147393
167	0xbe33e66d	-0.17568369
168	0xbe1a108b	-0.15045373
169	0xbdcc0627	-0.09962111
170	0xbc466330	-0.012108609
171	0xbe20088a	-0.15628257
172	0xbddc4b13	-0.10756507
173	0xbdce9790	-0.10087502
174	0x3dd8cf02	0.105863586
175	0x3d92cdb2	0.071681395
176	0x3e243c61	0.16038658
177	0x3de0b9f6	0.10972969
178	0xbe368c42	-0.17826942
179	0x3dc9f482	0.09861089
180	0xbe2d1da0	-0.16905832
181	0xbdef8ac7	-0.116963916
182	0xbd51eea8	-0.05125299
183	0xbd438ea0	-0.04774344
184	0x3d945b72	0.07244004
185	0x3c849630	0.016184896
186	0x3e302bfd	0.1720428
187	0x3d778724	0.060431615
188	0xbe04bbe4	-0.129623
189	0x3e116791	0.14199664
190	0x3d9f4f52	0.07778801
191	0xbd90f080	-0.07077122
192	0x3d91cdd2	0.07119335
193	0x3dbfb4f2	0.093606845
194	0x3e3c7a61	0.18406059
195	0xbdd6bf97	-0.104857616
196	0x3d2163b8	0.03940174
197	0xbe40fb2b	-0.18845813
198	0x3c1b3980	0.009474158
199	0xbe19db80	-0.15025139
200	0x3d1e8e0c	0.038709685
201	0xbdbd643d	-0.092476346
202	0x3df69a52	0.12041153
203	0xbda971cd	-0.08273659
204	0x3e207c69	0.15672459
205	0xbcb902f0	-0.022584409
206	0xbc968e90	-0.018378526
207	0xbbb2d340	-0.005457312
208	0xbe20d4b0	-0.15706134
209	0x3e3c21bb	0.18372242
210	0x3e4c7263	0.1996551
211	0x3dfc65fe	0.12324141
212	0x3d572bf4	0.05253215
213	0xbd2a8bf8	-0.04163739
214	0xbdf106dd	-0.11768887
215	0x3dc048e2	0.09388901
216	0xbe1bda1d	-0.15219922
217	0xbc8c0398	-0.017091557
218	0x3e16e367	0.14735185
219	0x3df580ea	0.11987479
220	0xbdb3db1a	-0.08782025
221	0x3e42b2f3	0.19013576
222	0xbe30eb3d	-0.17277236
223	0xbe4497b2	-0.19198492
224	0x3da670ae	0.08126961
225	0xbe48812a	-0.19580522
226	0x3dd96902	0.10615732
227	0xbdef6c77	-0.1169061
228	0x3e110431	0.14161755
229	0x3d2782a0	0.040896058
230	0xbe21eb1a	-0.1581234
231	0xbe1e8e35	-0.15483935
232	0xbb652cc0	-0.00349693
233	0x3dcfa98a	0.10139759
234	0xbdf15160	-0.11783099
235	0x3dc98d4a	0.09841402
236	0x3df35b66	0.11882667
237	0xbbb98a00	-0.005662203
238	0xbd67d1cc	-0.056596562
239	0xbe39612f	-0.18103479
240	0xbe2c9ec0	-0.16857433
241	0xbcbe9d00	-0.023268223
242	0x3d8b9072	0.0681466
243	0xbd018948	-0.031625062
244	0xbde56a6a	-0.112019375
245	0x3c077de0	0.008269757
246	0x3e01e271	0.12684037
247	0x3d7e2d6c	0.062055036
248	0x3e12a1a9	0.14319481
249	0xbe0def00	-0.13860703

cnn_pep_3.bias f4 [10]
0	0x3e0a9b21	0.1353574
1	0x3c7415d0	0.014897779
2	0x3cdf0230	0.027222723
3	0x3e1a58f1	0.15072991
4	0xbd31a698	-0.043371767
5	0xbda892da	-0.08231135
6	0x3e03ffb1	0.12890507
7	0xbc9036f0	-0.017604321
8	0xbe20f74b	-0.15719335
9	0x3e362aad	0.17789717

cnn_apt.0.weight f4 [100, 40, 3]
0	0x3db408a5	0.08790711
1	0x3d31f3bb	0.04344533
2	0x3dce2df4	0.100673586
3	0x3b46dba6	0.0030343323
4	0xbdb2957b	-0.087199174
5	0xbcf7e6be	-0.030261394
6	0x3a717d63	0.00092121045
7	0xbd0a2211	-0.033723895
8	0xbc3ab932	-0.011396693
9	0xbd111035	-0.035415847
10	0xbd1cb043	-0.038254034
11	0x3dae2664	0.08503416
12	0x3d833623	0.0640681
13	0xbda514b0	-0.080605865
14	0xbcaec825	-0.02133567
15	0x3ca1600b	0.019699117
16	0x3a301ee9	0.0006718473
17	0x3d707b60	0.05871141
18	0x3bdbf787	0.006712857
19	0xbbf32394	-0.0074200127
20	0xbae062b2	-0.0017119257
21	0x3c21ddb0	0.009879515
22	0xbdbb8b02	-0.09157373
23	0x3daec587	0.08533769
24	0xbd26a6ad	-0.0406863
25	0xbcb28125	-0.021790097
26	0xbc57d424	-0.013173137
27	0xbd8364dd	-0.064157225
28	0xbd06ff17	-0.032958116
29	0x3d5a8c6f	0.053356584
30	0xbcec2349	-0.028825419
31	0xbd4d462a	-0.05011574
32	0xbbe4d6d8	-0.006983619
33	0x3b8e2487	0.0043378505
34	0xbd6c2a18	-0.05765733
35	0x3b61ab53	0.0034434393
36	0x3da3a589	0.07990558
37	0xbdcf899f	-0.10133671
38	0xbce16df9	-0.02751826
39	0x3d90cb8c	0.070700735
40	0xbd30870a	-0.043097533
41	0x3ce15db9	0.02751051
42	0x3d45766d	0.048208643
43	0xbd8ed8a9	-0.069749184
44	0x3d97b6d1	0.07407916
45	0xbcd8c9c1	-0.026463391
46	0xbd94107f	-0.07229709
47	0x3da136e0	0.07871795
48	0x3d2157be	0.039390318
49	0xbde430b2	-0.111421004
50	0x3d7bf05d	0.061508525
51	0xbcc98ee3	-0.024604267
52	0xbd595dcb	-0.053067964
53	0x3d0a5fb9	0.033782694
54	0xb90248cb	-0.00012424884
55	0xbc91f14b	-0.017815253
56	0x3cad054b	0.021120688
57	0x3d91f568	0.07126886
58	0xbc975e30	-0.01847753
59	0xbcaf4892	-0.021396909
60	0x3db4308b	0.08798321
61	0xbd0072d1	-0.031359497
62	0x3da65448	0.08121544
63	0x3d9726c0	0.07380438
64	0xbd7811ed	-0.06056397
65	0x3c88a8f9	0.016682135
66	0xba3b9ce7	-0.0007156864
67	0xbd8e9d75	-0.06963626
68	0x3d93af08	0.07211119
69	0x3de888c6	0.113542125
70	0xbb1715c3	-0.0023053742
71	0x3dcdd738	0.10050815
72	0x3d48bbe7	0.049007323
73	0xbcf17afc	-0.029477589
74	0x3beaaa2d	0.0071614
75	0x3dc99f3c	0.09844825
76	0xbdc39e09	-0.09551627
77	0x3db0a955	0.086260475
78	0xbb809c2f	-0.0039248685
79	0xbd63cfb7	-0.055618014
80	0x3c492149	0.012276002
81	0x3da272dc	0.07932064
82	0xbe02f7f5	-0.127899
83	0xbd0bd41d	-0.034137834
84	0xbc06c1c3	-0.008224907
85	0xbdee9f19	-0.11651439
86	0x3d4e635a	0.050387718
87	0xbd613133	-0.05497856
88	0xbde28234	-0.110599905
89	0x39340968	0.00017169642
90	0xbcd2a1cf	-0.025711922
91	0xbd30abc3	-0.043132555
92	0x3dcb20b4	0.09918347
93	0x3bd5f35b	0.0065292544
94	0xbcd05980	-0.025433302
95	0x3d827b68	0.06371194
96	0x3d2f19d9	0.04274926
97	0xbd064361	-0.0327791
98	0x3d5e1b74	0.0542254
99	0x3d3d66a6	0.04624047
100	0xbdbbd07d	-0.09170625
101	0xbc1f033b	-0.00970536
102	0x3dbf020f	0.093265645
103	0xbd1f71ff	-0.038927075
104	0x3d94b9be	0.0726199
105	0xbd390d53	-0.045178723
106	0xbc86e6fb	-0.016467562
107	0x3d1b4163	0.037904155
108	0xbd3ef292	-0.04661805
109	0xbc1e76ea	-0.009671906
110	0x3d118151	0.035523716
111	0xbd6510fb	-0.055924397
112	0xbd70d686	-0.058798335
113	0x3dda576c	0.10661206
114	0x3c512cc5	0.012767022
115	0xbd9833d4	-0.074317604
116	0xbc996800	-0.018726349
117	0xbd057211	-0.032579485
118	0xbda6507f	-0.08120822
119	0x3d48d090	0.049027026
120	0xbce5ee0f	-0.028067617
121	0x3d5511d2	0.052018948
122	0x3d68ab88	0.05680421
123	0x3da92efe	0.08260916
124	0xbb1bca0e	-0.0023771557
125	0x3dc197af	0.094527595
126	0xbd711ee0	-0.058867335
127	0xbd8606b5	-0.06544248
128	0xbd3e4568	-0.04645291
129	0x3d598cb2	0.053112693
130	0xbdc086f6	-0.09400742
131	0xbd0f3dcf	-0.034971055
132	0x3d32fee5	0.043700118
133	0x3d8d3807	0.06895452
134	0x3da4e076	0.08050625
135	0x3d6682cd	0.056277085
136	0xbd9defa4	-0.077117234
137	0x3d257441	0.04039407
138	0xbc34c2ca	-0.011032769
139	0xbc337bea	-0.010954836
140	0xbb3e0ee7	-0.0029000582
141	0x3ddb774e	0.10716115
142	0x3d428e0c	0.047498748
143	0x3cb16907	0.021656526
144	0xbd9d3fa2	-0.076781526
145	0x3d86d32e	0.06583248
146	0x3d95f55d	0.0732219
147	0x3d2d7ac5	0.04235341
148	0xbdc85edc	-0.09783718
149	0xbd532541	-0.0515492
150	0x3d87d547	0.06632476
151	0xbdb766ba	-0.089551404
152	0x3d25edc0	0.04050994
153	0x3cea5b09	0.028607862
154	0x3d88503e	0.0665593
155	0x3d41de63	0.047331225
156	0x3d7570d5	0.059922058
157	0x3c36d995	0.011160274
158	0xbce546d9	-0.027987884
159	0xbd2f942e	-0.042865925
160	0xbdc12663	-0.0943115
161	0xba8054d1	-0.0009790902
162	0x3c11b480	0.008893132
163	0xbcfd846c	-0.030946933
164	0x3d059b4e	0.032618813
165	0x3da043a6	0.07825403
166	0xbba03c14	-0.0048899744
167	0xbce48248	-0.027894154
168	0xbd738a29	-0.05945793
169	0xbd7ed53a	-0.062215067
170	0x3d22249e	0.039585702
171	0xbd826bba	-0.063682035
172	0xbdcf23e7	-0.1011427
173	0x3c96a95d	0.018391306
174	0x3c5ada27	0.013357676
175	0xbda89b10	-0.08232701
176	0x3d13eec8	0.03611639
177	0x3d496d21	0.04917634
178	0xbda20de9	-0.079128094
179	0xbc1df14a	-0.009640047
180	0x3d9ecc9e	0.077538714
181	0x3d61bc96	0.05511149
182	0xbd5f07ed	-0.054450918
183	0xbcdf2fdb	-0.027244499
184	0xbd78c7ca	-0.06073741
185	0xbd1c04e9	-0.03809062
186	0xbd2cdb04	-0.042201057
187	0x3d733d6e	0.059384756
188	0x3b92b62c	0.004477283
189	0xbd4070e5	-0.046982665
190	0xbda20e88	-0.07912928
191	0xbd8770b8	-0.06613296
192	0xbd969257	-0.07352131
193	0xbbb9fc66	-0.00567584
194	0x3cf1cb33	0.029515838
195	0x3d940a27	0.07228499
196	0x3d6b34ff	0.057423588
197	0x3d9f8cc8	0.07790524
198	0x3db9453b	0.09046408
199	0xbd2b40d1	-0.04180986
200	0xbd633381	-0.05546904
201	0x3b781eab	0.0037860076
202	0xbcff2417	-0.031145139
203	0x3ba25337	0.0049537676
204	0x3bbe95c8	0.005816195
205	0xbd8053af	-0.062659614
206	0xbd62bec2	-0.055357702
207	0xbcc1dad7	-0.023663921
208	0x3bfd6af9	0.0077336994
209	0x3d7d0fd5	0.061782677
210	0xbd91b05b	-0.07113715
211	0xbdbdb753	-0.09263482
212	0x3c3463e6	0.011010146
213	0xbcadb273	-0.021203255
214	0xbd542401	-0.05179215
215	0xbda39423	-0.07987239
216	0x3d4d111f	0.050065156
217	0xbcab475f	-0.020908056
218	0x3daf6314	0.085638195
219	0xbd49d6bb	-0.04927705
220	0xbdb9102d	-0.090362884
221	0x3c51f31a	0.012814308
222	0x3d1c791b	0.038201433
223	0x3d23128e	0.039812617
224	0x3bbe2e04	0.0058038253
225	0x3db3e5da	0.08784075
226	0xbd669f68	-0.056304365
227	0xbd911512	-0.07084097
228	0xbcfa86ef	-0.03058192
229	0xbd028661	-0.031866435
230	0x3d1645ad	0.03668754
231	0x3dbd5249	0.0924421
232	0x3d8c7937	0.068590574
233	0xbccc8ce0	-0.024969518
234	0xbc4befce	-0.012447311
235	0xbcdbbc90	-0.026823312
236	0x3d5ab2d6	0.053393207
237	0xbc689863	-0.014196488
238	0xbd36272c	-0.04447095
239	0x3cbcc74e	0.023044255
240	0xbd6a0438	-0.05713293
241	0x3d702894	0.05863245
242	0xbda4e9c3	-0.08052399
243	0xbda15502	-0.07877542
244	0xbc875876	-0.016521674
245	0xbd8873f7	-0.066627435
246	0xbd18507c	-0.03718613
247	0x3d179ac9	0.03701285
248	0xbbacd6be	-0.0052746227
249	0xbc67cecc	-0.014148425
250	0xbdc484c1	-0.09595633
251	0xbd080f61	-0.03321779
252	0xbcf6f493	-0.030145919
253	0x3d4ab29d	0.049486745
254	0x3d1f88ab	0.038948696
255	0xbbc8f44c	-0.006132638

cnn_apt.0.bias f4 [100]
0	0x3e01b999	0.12668456
1	0x3d2115cc	0.039327428
2	0xbbdc7e3b	-0.006728915
3	0xbab30865	-0.0013659118
4	0x3daf0f8e	0.08547889
5	0x3dc0e41f	0.09418511
6	0xbd3b7897	-0.0457693
7	0xbce5ee49	-0.028067725
8	0x3d8da720	0.06916642
9	0x3b9c2dd4	0.0047662053
10	0x3d2d284e	0.042274766
11	0x3d8f7bcb	0.070060335
12	0x3d5b7751	0.053580586
13	0x3dc78658	0.09742421
14	0xbce2d5f2	-0.027689908
15	0xbcaf4135	-0.021393398
16	0xbc3a51a8	-0.011372007
17	0x3d325824	0.04354109
18	0x3d16b638	0.03679487
19	0xbd3ec339	-0.046572898
20	0xbd3b92f0	-0.045794427
21	0xbcdb4c19	-0.026769685
22	0x3b4d2fc1	0.003130898
23	0x3db29a38	0.08720821
24	0x3d1f33e9	0.038867865
25	0xbce6afc9	-0.028159993
26	0xbd4a303f	-0.049362417
27	0xbc797c20	-0.015227348
28	0xbcc7c69a	-0.024386693
29	0xbd643dbd	-0.05572294
30	0xbdbc4d46	-0.09194426
31	0xbd5928be	-0.05301737
32	0xbd996dd0	-0.07491648
33	0xbca36702	-0.019946579
34	0xbbac4963	-0.005257772
35	0xbc999ac5	-0.018750558
36	0x3db5203d	0.088440396
37	0xbd9c6259	-0.07635946
38	0x3d41a12a	0.04727284
39	0x3d34abcd	0.044109154
40	0x3db12ad1	0.08650745
41	0x3d6d1b58	0.057887405
42	0xbd605eae	-0.054777794
43	0x3d08d056	0.03340181
44	0xbd9c48ab	-0.07631048
45	0x3dcddf6c	0.1005238
46	0xbd97ab5d	-0.07405732
47	0xbcf44a3a	-0.02982055
48	0x3d3371d5	0.04380973
49	0xbc4742be	-0.012161909
50	0xbcee9c6b	-0.02912732
51	0x3bcc3376	0.0062317206
52	0x3d700771	0.058600847
53	0x3dadc871	0.08485497
54	0xbce2cda8	-0.027685955
55	0x3d57e97b	0.0527129
56	0xbd28c5d1	-0.041204277
57	0xbcf6be7a	-0.030120123
58	0xbd1010c7	-0.03517225
59	0xbd3e4c9d	-0.046459783
60	0x3d88f160	0.06686664
61	0xbd9b4345	-0.0758119
62	0x3c528c86	0.012850886
63	0x3cdfb60b	0.027308485
64	0xbcbd7056	-0.023124855
65	0x3caf9d61	0.021437349
66	0x3d19cf60	0.037551284
67	0xbd888ef4	-0.06667891
68	0xbd131f69	-0.035918627
69	0x3c81d078	0.015846476
70	0x3d87ad6e	0.06624876
71	0x3b247419	0.0025093614
72	0x3d26cef4	0.04072471
73	0xbcd92190	-0.026505262
74	0x3d5e4ead	0.05427425
75	0xbd4b1bcc	-0.049587056
76	0xbd31fa34	-0.043451503
77	0xbd6f7bb6	-0.05846759
78	0x3cad60c5	0.021164307
79	0x3d58a115	0.052887995
80	0x3cdfb134	0.027306177
81	0x3cee5c16	0.029096644
82	0x3d76c39f	0.060245153
83	0xbd6dd36f	-0.058062967
84	0xbdaf04a3	-0.08545806
85	0xbd48a944	-0.04898955
86	0x3e055fa8	0.13024771
87	0xba98b8ff	-0.0011651813
88	0xbcd7ce28	-0.02634342
89	0x3dbe48d4	0.092912346
90	0x3c68cb12	0.014208572
91	0x3d443d4d	0.047910023
92	0x3daa53f5	0.08316795
93	0x3c73f664	0.014890287
94	0x3d71158f	0.05885845
95	0xbd02a93e	-0.031899683
96	0xbd9cb88a	-0.076523855
97	0x3db9f91e	0.090807185
98	0xbad92b1f	-0.0016568637
99	0xbd6cf948	-0.05785492
