src/models/models_to_evaluate/04102020.pth (torch_old, 84172 bytes, 19 tensors)

cnn_apt_1.weight f4 [100, 40, 3]
0.0016491796 -0.031289287 0.29841277 -0.0025418645 -0.12013639 0.07694348 0.12197971 -0.23255889
0.08594384 -0.21435165 0.068987355 0.12305258 0.16642855 0.048908364 0.32606938 0.13677333
-0.1144904 0.10045683 -0.0806317 -0.1688845 0.017627133 0.1296368 -0.25112948 0.3608756
0.064346746 -0.4944841 -0.17030942 0.047326364 -0.27526787 0.08068043 -0.018218735 -0.21533796
-0.10186918 0.24104919 -0.17591608 0.032682154 -0.169393 -0.10977319 0.3268056 0.12137683
-0.13405164 0.2381572 -0.13807933 -0.16767095 0.28672826 -0.16512932 -0.15402338 0.20771274
0.07308002 -0.16617931 0.11436545 -0.21704455 -0.0416143 0.081636906 0.42186892 -0.16751963
0.2656674 0.15574652 -0.30552784 0.0800742 -0.111728765 -0.26481566 0.2764525 0.084537454
-0.16053694 0.16679984 -0.0009806383 -0.21044327 0.14724636 0.023591727 -0.31414372 0.3511095
0.05169304 -0.20338026 -0.005011744 0.056037534 -0.12825797 0.27451128 0.10335641 -0.112385556
-0.029760802 0.39648637 -0.20352162 0.24061297 0.16433662 -0.35016805 0.3875376 0.089558095
-0.5873304 0.15316673 0.2766443 -0.6718579 0.0039108093 0.03776361 -0.097044975 -0.026969941
0.42917573 -0.079353616 -0.051361088 0.028050998 -0.16591822 0.28387958 0.19898818 -0.071107574
0.4498148 0.05748632 -0.050984677 0.18350542 0.19976208 0.10228044 0.4517263 -0.18722105
0.00761844 0.19716035 -0.25428498 -0.18061188 0.25696978 -0.26105407 -0.16205323 0.3679037
-0.016134879 -0.10968458 -0.021835191 0.043891266 -0.18510392 -0.31511003 0.26753637 0.032826506
-0.37536523 0.32668635 -0.3937258 -0.04153433 0.059384745 -0.067822665 0.122707784 0.0429103
-0.0719902 -0.22352433 0.16793703 -0.21448892 -0.16387288 0.054666843 -0.10233558 -0.097444475
0.12936907 -0.020748148 -0.079841144 0.08427933 -0.33680922 0.32170957 0.060030054 -0.13138579
-0.06868132 0.10132094 -0.09372885 -0.016807804 -0.14981595 -0.26224077 0.3882902 -0.19176927
-0.17580722 0.08366178 0.17114834 0.036131743 0.07235244 -0.19959503 -0.23603742 0.23468843
-0.3530434 -0.21257974 0.23492797 0.04269167 -0.011150308 -0.02037724 -0.1349581 -0.078041874
-0.091153525 -0.22343801 -0.02367677 -0.36993396 0.42259857 0.039958045 0.001864404 0.6100962
0.14092267 -0.09609589 0.03805042 0.28693187 -0.085614935 -0.15417467 -0.66458714 0.037662696
-0.094745606 -0.026614059 0.09820521 0.3787925 0.0035880236 -0.21789737 0.70622057 -0.24968638
-0.01591023 0.028635697 0.06541953 -0.28886232 0.24361935 -0.050475672 -0.19731225 0.24266927
-0.07323529 -0.04631984 0.028890697 -0.41545594 -0.0825352 -0.0072741653 -0.343972 -0.23389
0.1013145 -0.17397368 -0.046849687 -0.078284554 -0.41875476 -0.12619092 0.1724882 -0.11789586
-0.21894495 0.15996452 -0.31108558 -0.37940428 0.31159925 0.020676253 -0.08697957 0.50127774
-0.10562419 -0.0055982075 0.122899055 -0.4267669 0.027104778 -0.201529 -0.38664052 -0.3635476
0.11657841 0.070303515 -0.01865939 -0.14282274 0.08893441 0.083015904 0.25100064 -0.009584556
-0.039605673 0.031449888 -0.086553074 0.2061666 -0.13467304 0.053456552 -0.0027485313 -0.11725945
00000000: 4929 d83a 3229 00bd 8fc9 983e 6995 26bb
00000010: 110a f6bd 8b94 9d3d 80d0 f93d eb23 6ebe
00000020: 5303 b03d 007f 5bbe 3e49 8d3d fe02 fc3d
00000030: 3f6c 2a3e 2354 483d 91f2 a63e 4f0e 0c3e
00000040: f179 eabd 4fbc cd3d 3c22 a5bd 0ff0 2cbe
00000050: c766 903c 82bf 043e 0b94 80be b0c4 b83e
00000060: 3ac8 833d 052d fdbe 9865 2ebe 4ad9 413d
00000070: e9ef 8cbe c83b a53d 753f 95bc 8e81 5cbe
00000080: caa0 d0bd 99d5 763e 5823 34be b9dd 053d
00000090: 5c75 2dbe c4d0 e0bd 1053 a73e 6a94 f83d
000000a0: d544 09be 7bdf 733e ab64 0dbe efb1 2bbe
000000b0: 0cce 923e a917 29be 4eb8 1dbe a6b2 543e
000000c0: faaa 953d e92a 2abe 6f38 ea3d ed40 5ebe
000000d0: c273 2abd 4031 a73d 34ff d73e 448a 2bbe
000000e0: 8f05 883e 047c 1f3e 256e 9cbe f1fd a33d
000000f0: 0dd2 e4bd eb95 87be 2f8b 8d3e f921 ad3d
00000100: cc63 24be 94cd 2a3e c388 80ba 717e 57be
00000110: c0c7 163e 7043 c13c 72d7 a0be a0c4 b33e
00000120: 15bc 533d ea42 50be 8e39 a4bb 9d87 653d
00000130: 0f56 03be be8c 8c3e 87ac d33d 662a e6bd
00000140: edcc f3bc 4300 cb3e f967 50be 3f63 763e
00000150: dc47 283e 3a49 b3be 546b c63e 3c6a b73d
00000160: 495b 16bf bdd7 1c3e 52a4 8d3e e1fe 2bbf
00000170: 3f26 803b 04ae 1a3d 84bf c6bd 11f0 dcbc
00000180: ecbc db3e 2684 a2bd 0160 52bd 35cb e53c
00000190: 77e6 29be aa58 913e 8fc3 4b3e d9a0 91bd
000001a0: 204e e63e c776 6b3d 4fd5 50bd d8e8 3b3e
000001b0: 6e8e 4c3e 6878 d13d ab48 e73e e0b6 3fbe
000001c0: 1ba4 f93b 67e4 493e a431 82be 52f2 38be
000001d0: 8b91 833e e1a8 85be 48f1 25be e05d bc3e
000001e0: 4b2d 84bc 4fa2 e0bd b7df b2bc 54c7 333d
000001f0: e28b 3dbe 1a56 a1be 87fa 883e 1675 063d
00000200: df2f c0be 6f43 a73e 6e96 c9be e71f 2abd
00000210: 6b3d 733d 9ce6 8abd 384e fb3d b6c2 2f3d
00000220: 996f 93bd 90e3 64be aff7 2b3e fca2 5bbe
00000230: 4bce 27be 57ea 5f3d 5195 d1bd f890 c7bd
00000240: 5379 043e 05f8 a9bc c183 a3bd a49a ac3d
00000250: 4272 acbe 1eb7 a43e 13e2 753d ff89 06be
00000260: cba8 8cbd 5a81 cf3d e9f4 bfbd 85b0 89bc
00000270: 5a69 19be 6c44 86be f9cd c63e 2a5f 44be
00000280: cf06 34be de56 ab3d 8341 2f3e e1fe 133d
00000290: 842d 943d a462 4cbe cbb3 71be 2a52 703e
000002a0: 1bc2 b4be 81ae 59be f590 703e 76dd 2e3d
000002b0: c8af 36bc 2bee a6bc 7532 0abe 6bd4 9fbd
000002c0: b3ae babd efcc 64be c9f5 c1bc fc67 bdbe
000002d0: d75e d83e 0cab 233d 045f f43a 442f 1c3f
000002e0: 084e 103e eccd c4bd c2da 1b3d bce8 923e
000002f0: e256 afbd f7df 1dbe 6222 2abf 3344 1a3d
00000300: fc09 c2bd ba05 dabc d01f c93d 17f1 c13e
00000310: 0c25 6b3b 7d20 5fbe dfca 343f c9ad 7fbe
00000320: 2c56 82bc 6995 ea3c adfa 853d c3e5 93be
00000330: 5a77 793e 94bf 4ebd 390c 4abe 4b7e 783e
00000340: 62fc 95bd dfb9 3dbd 2fac ec3c a4b6 d4be
00000350: 3708 a9bd 1f5c eebb 191d b0be dc80 6fbe
00000360: fa7d cf3d 2826 32be 75e5 3fbd a753 a0bd
00000370: 0667 d6be 3138 01be bfa0 303e 6273 f1bd
00000380: 1b33 60be bdcd 233e 9c46 9fbe 4741 c2be
00000390: f089 9f3e 3f61 a93c 5822 b2bd bd53 003f
000003a0: 7f51 d8bd 2b71 b7bb 80b2 fb3d 3181 dabe
000003b0: d70a de3c 9e5d 4ebe bff5 c5be e922 babe
000003c0: a9c0 ee3d 4afb 8f3d 94db 98bc 2040 12be
000003d0: 3e23 b63d 3e04 aa3d 2883 803e 8b08 1dbc
000003e0: 8f39 22bd 99d1 003d bd42 b1bd 561d 533e
000003f0: bbe7 09be 42f5 5a3d b420 34bb b925 f0bd

cnn_apt_1.bias f4 [100]
-0.4358756 -0.2487857 -0.0029732895 -0.16360597 0.1680242 -0.302381 -0.032702297 -0.08007672
0.018254712 -0.058302216 -0.7585074 -0.17908235 -0.61935574 -0.61147994 -0.3658586 -0.07929888
-0.27824676 -1.0752487 -0.06259749 0.032181688 -0.14009354 -0.3213237 -0.18216577 0.1536766
-0.77680445 -0.363458 -0.58412176 -0.4104767 -0.025029244 -0.13065389 -0.078885496 -0.1925309
-0.07547945 -0.11799573 -0.27738786 -0.34342602 0.16091156 -0.6412984 -0.3411538 -0.052444592
-0.043161742 -0.48226497 -0.32079428 -0.111746974 -0.23481199 0.16243051 -0.19504805 -0.096896775
-0.13715811 -0.2612233 0.044061363 0.008832135 -0.05735613 0.014416765 -0.33016297 0.1680625
-0.41257635 -0.28270593 -0.21145102 -0.10873323 -0.18200444 -0.39299443 0.10686772 -0.18104012
-0.0044821766 -0.509439 -0.13128112 -0.35311085 -0.12036158 0.07895247 0.0064796666 -0.038679566
0.09697446 -0.34749106 -0.14872907 -0.42050114 -0.58922434 -0.26073784 -0.18584536 -0.13996595
-0.23672572 -0.3072225 -0.10023325 -0.046316013 -0.5064561 -0.12017547 -0.5069272 -0.6725072
0.04168636 -0.06645024 -0.32941478 -0.029772567 -0.012876863 -0.46272624 0.15470351 -0.33327246
-0.037265282 -0.050495554 -0.67194396 -0.5596726
00000000: 162b dfbe aec1 7ebe 85db 42bb 5388 27be
00000010: 890e 2c3e afd1 9abe d8f2 05bd 43ff a3bd
00000020: e88a 953c 4ece 6ebd 8a2d 42bf 5d61 37be
00000030: 198e 1ebf f389 1cbf d251 bbbe 7467 a2bd
00000040: 5c76 8ebe c0a1 89bf 1d33 80bd f2d0 033d
00000050: ae74 0fbe 8a84 a4be aa89 3abe 665d 1d3e
00000060: a8dc 46bf 2b17 babe 0189 15bf 012a d2be
00000070: 210a cdbc 22ca 05be b88e a1bd d226 45be
00000080: f894 9abd bfa7 f1bd c805 8ebe 89d5 afbe
00000090: 00c6 243e 222c 24bf b6ab aebe 24d0 56bd
000000a0: 5eca 30bd 6feb f6be 263f a4be 99db e4bd
000000b0: 8e72 70be 2f54 263e adba 47be d171 c6bd
000000c0: 2d73 0cbe 0fbf 85be b079 343d a9b4 103c
000000d0: 43ee 6abd 4c34 6c3c 1f0b a9be 9318 2c3e
000000e0: 353d d3be d5be 90be 9e86 58be 87af debd
000000f0: 5f5f 3abe 9136 c9be 77dd da3d 9562 39be
00000100: 39df 92bb 986a 02bf 8f6e 06be f2ca b4be
00000110: 2280 f6bd d5b1 a13d 6253 d43b 776e 1ebd
00000120: 8c9a c63d 59ea b1be 6f4c 18be ed4b d7be
00000130: 68d7 16bf 6e7f 85be 3f4e 3ebe 3c53 0fbe
00000140: 3a68 72be 444c 9dbe 1747 cdbd dcb5 3dbd
00000150: 1ba7 01bf 8f1e f6bd fbc5 01bf 6f29 2cbf
00000160: 51bf 2a3d 1017 88bd 0ea9 a8be 99e5 f3bc
00000170: 7af9 52bc 74ea ecbe 996a 1e3e b0a2 aabe
00000180: 7ba3 18bd 6dd4 4ebd 8504 2cbf b446 0fbf

cnn_apt_2.weight f4 [50, 100, 1]
0.09893568 -0.2134856 0.06860412 0.16926137 -0.16690391 0.036043487 -0.020764085 0.036042377
-0.21167538 -0.015484363 -0.20992821 0.06448047 -0.2283434 -0.23688559 0.14781721 0.016683903
0.1749578 -0.03853617 0.012398862 -0.002255169 0.08715171 0.19295534 0.12357038 -0.10060733
-0.19725809 -0.11237457 0.31611472 -0.11129681 -0.10086456 -0.20863096 -0.0012139229 0.1118371
-0.04039603 0.102569774 -0.121626414 -0.04121943 -0.11620906 -0.10590705 0.21419491 0.11539415
-0.24206613 -0.1297046 0.055213876 -0.03491543 0.16903782 -0.38603854 -0.20873791 0.09890272
-0.01882169 -0.057267416 -0.14778672 -0.17915547 0.012331507 0.08401257 -0.04774371 -0.24089566
-0.0031443108 -0.020288076 -0.060801663 -0.122154355 0.0896877 0.04105937 -0.09903707 -0.15116775
-0.37319785 -0.08441825 0.0729354 0.023240667 0.13085218 -0.11035116 0.15832947 -0.06591378
0.103230216 0.1826281 0.08757452 0.10369002 -0.100347094 0.23677084 0.10028669 -0.007778896
0.15658651 -0.061130643 0.23239766 0.029322779 0.1023651 0.096819766 -0.105988 0.02674736
-0.18989894 -0.05748855 0.19785993 -0.18982857 0.09203606 0.039633747 0.05793356 0.052389633
-0.08403858 0.0057066274 0.049347285 0.12209679 0.10931794 0.09894854 -0.033026185 0.07205301
0.1950399 -0.1448427 0.011259392 -0.10288968 0.073025614 -0.004133051 -0.102288246 0.18297426
-0.08955555 -0.010901081 -0.019806756 -0.09908472 -0.25441545 0.0006297537 -0.34980986 0.09332388
0.02842815 0.27317792 -0.05654614 0.031830586 0.31121805 -0.10809189 -0.16431876 -0.2996428
-0.11623037 -0.008965432 0.0013946666 0.24677943 0.004126618 -0.07490635 0.09154333 -0.15827645
0.07694605 -0.124353394 -0.20268044 -0.30682623 0.08591625 -0.27410153 -0.103693955 -0.12064959
0.049211416 0.15625396 -0.24673499 -0.19728881 0.047585644 -0.004106726 0.09410146 0.05120964
-0.24388334 -0.1240885 -0.06712075 -0.19997427 0.1266971 0.279423 -0.17834602 0.064220406
0.044152092 -0.15917888 0.013042968 -0.062016595 0.022231998 0.114117675 -0.07690836 0.11158842
0.10000687 -0.017107997 0.0059083914 -0.006658011 0.010430081 0.011497118 -0.14376688 -0.13961361
-0.080177315 -0.033730485 -0.04203408 -0.049634438 0.11187541 0.07530583 0.10290893 0.05846302
-0.19336204 -0.32798174 -0.24425094 0.7280116 0.031061102 -0.26975185 0.23887573 -0.06557271
-0.43431202 0.21750435 0.2167989 -0.31580254 0.103298806 -0.2514922 0.17803092 -0.20702781
0.08855087 -0.012919032 0.11871869 -0.10694695 0.21009554 -0.0778277 -0.028219014 -0.06913221
-0.09534392 0.07092417 0.029474562 -0.056917265 0.054807633 -0.10091645 0.04122287 -0.044179417
0.19293757 -0.17203163 0.03285523 -0.06946283 -0.07656392 0.073611215 0.0977459 -0.005762637
0.16865402 -0.17969596 0.049095236 -0.16671869 0.0028944134 -0.048789043 -0.08289045 -0.0063150492
0.008961533 -0.20922554 0.08764974 -0.018424034 0.17853254 -0.058789082 -0.19136956 -0.183773
-0.06449411 0.20015326 0.03266958 -0.074714646 -0.0421816 -0.070963055 -0.0060091764 0.089265876
-0.09352598 0.06370323 0.11636561 0.012416857 0.08543574 0.029021647 0.08667543 -0.005401248
00000000: ca9e ca3d f89b 5abe 5180 8c3d da52 2d3e
00000010: dce8 2abe 56a2 133d 7119 aabc 2ca1 133d
00000020: 6ec1 58be 20b2 7dbc 6cf7 56be 560e 843d
00000030: dad2 69be 2392 72be 655d 173e aeac 883c
00000040: 2328 333e 1ad8 1dbd 9924 4b3c 75cb 13bb
00000050: 997c b23d 1696 453e 7812 fd3d 370b cebd
00000060: 06fe 49be a324 e6bd cad9 a13e 95ef e3bd
00000070: 1492 cebd 5ba3 55be 7e1c 9fba d90a e53d
00000080: 4f76 25bd 1a10 d23d 4517 f9bd b4d5 28bd
00000090: 04ff edbd cce5 d8bd e955 5b3e c553 ec3d
000000a0: 2fe0 77be 48d1 04be f227 623d 7b03 0fbd
000000b0: 4018 2d3e d8a6 c5be 64bf 55be 828d ca3d
000000c0: f22f 9abc 3d91 6abd 6755 17be 8874 37be
000000d0: 170a 4a3c c80e ac3d e98e 43bd 5aad 76be
000000e0: c810 4ebb 2e33 a6bc 2a0b 79bd 102c fabd
000000f0: 2fae b73d df2d 283d f3d3 cabd b8cb 1abe
00000100: ca13 bfbe 7ae3 acbd 285f 953d 3663 be3c
00000110: 1dfe 053e caff e1bd 1f21 223e cefd 86bd
00000120: 5d6a d33d dc02 3b3e 455a b33d 6f5b d43d
00000130: c782 cdbd 0e74 723e 1c63 cd3d 1ce6 febb
00000140: 3758 203e 2064 7abd a7f9 6d3e 5336 f03c
00000150: cba4 d13d 7149 c63d 3d10 d9bd 481d db3c
00000160: de74 42be 1d79 6bbd cb9b 4a3e 6c62 42be
00000170: 677d bc3d ff56 223d be4b 6d3d 8396 563d
00000180: 6b1c acbd a9fe ba3b 6120 4a3d e20d fa3d
00000190: 16e2 df3d 88a5 ca3d 7746 07bd 8790 933d
000001a0: 8ab8 473e a551 14be 5079 383c d3b7 d2bd
000001b0: 748e 953d 8b6e 87bb 807c d1bd 9b5d 3b3e
000001c0: e668 b7bd 739a 32bc c741 a2bc eeec cabd
000001d0: be42 82be 0e16 253a 471a b3be 9720 bf3d
000001e0: 27e2 e83c fadd 8b3e ed9c 67bd ca60 023d
000001f0: f957 9f3e 485f ddbd 2d43 28be c86a 99be
00000200: 300a eebd bfe3 12bc 3fcd b63a bfb3 7c3e
00000210: 9538 873b 8068 99bd 127b bb3d 3913 22be
00000220: e495 9d3d feac febd 768b 4fbe 5418 9dbe
00000230: dcf4 af3d 0957 8cbe 7f5d d4bd 2217 f7bd
00000240: e991 493d 0a01 203e 19a8 7cbe 1406 4abe
00000250: 2ae9 423d b791 86bb 44b8 c03d 33c1 513d
00000260: 8ebc 79be 1d22 febd 9b76 89bd 0ec6 4cbe
00000270: e2bc 013e 8810 8f3e 57a0 36be fd85 833d
00000280: d3d8 343d caff 22be 2cb2 553c 1d05 7ebd
00000290: e11f b63c 87b6 e93d 2182 9dbd 7888 e43d
000002a0: 67d0 cc3d 1226 8cbc 2e9b c13b 722b dabb
000002b0: eee2 2a3c 685e 3c3c a037 13be dff6 0ebe
000002c0: 0134 a4bd fa28 0abd ed2b 2cbd 7b4d 4bbd
000002d0: ef1e e53d f139 9a3d ebc1 d23d eb76 6f3d
000002e0: b300 46be 39ed a7be eb1c 7abe f85e 3a3f
000002f0: da73 fe3c ea1c 8abe d79b 743e fc4a 86bd
00000300: 255e debe 76b9 5e3e 8800 5e3e dfb0 a1be
00000310: 538e d33d 96c3 80be bd4d 363e 19ff 53be
00000320: 295a b53d 59aa 53bc c922 f33d 0107 dbbd
00000330: 4923 573e 2164 9fbd 902b e7bc 3095 8dbd
00000340: ac43 c3bd b140 913d a374 f13c 1422 69bd
00000350: f87d 603d 49ad cebd 50d9 283d 7af5 34bd
00000360: 6d91 453e 0f29 30be 3593 063d 8742 8ebd
00000370: 8bcd 9cbd 7ac1 963d 012f c83d 81d4 bcbb
00000380: a4b3 2c3e 3802 38be 1618 493d 4eb8 2abe
00000390: 33b0 3d3b 05d7 47bd 78c2 a9bd 79ee cebb
000003a0: 65d3 123c 383f 56be b581 b33d 00ee 96bc
000003b0: 3cd1 363e d2cc 70bd 62f6 43be fd2e 3cbe
000003c0: 7d15 84bd faf4 4c3e 8ad0 053d fe03 99bd
000003d0: 9dc6 2cbd 1455 91bd a0e8 c4bb 07d1 b63d
000003e0: 8d8a bfbd d776 823d 1851 ee3d 1370 4b3c
000003f0: eff8 ae3d cebe ed3c e382 b13d f4fc b0bb

cnn_apt_2.bias f4 [50]
-0.31420428 0.056592792 0.080156825 -0.47509894 -0.09609862 -0.11409078 -0.30481094 -0.15999715
-0.143983 -0.41453654 -0.16778108 -0.45679775 0.053804923 -0.2121714 -0.09112775 -0.45369563
-0.47494656 0.03388456 -0.31746873 -0.13513237 -0.25602514 -0.17719996 -0.3246636 0.06284494
-0.07007088 0.0074675186 -0.09341502 -0.38334504 -0.053567998 -0.13051589 -0.25612658 0.97272587
-0.23362009 -0.8448838 -0.7871019 0.020566931 0.054346766 -0.040075656 -0.079708196 -0.22962074
-0.33655438 -0.48089418 -0.05559395 -0.71862817 0.54659826 -0.1554915 -0.6349729 -0.534749
-0.30560002 0.011182291
00000000: 62df a0be d8cd 673d 4329 a43d 2b40 f3be
00000010: 5acf c4bd 6da8 e9bd 2e10 9cbe 4bd6 23be
00000020: 4870 13be 223e d4be cece 2bbe 65e1 e9be
00000030: 8d62 5c3d 7643 59be 30a1 babd cb4a e8be
00000040: 322c f3be 89ca 0a3d 438b a2be 2460 0abe
00000050: ba15 83be e873 35be 4f3a a6be d9b4 803d
00000060: 5281 8fbd 16b2 f43b 6050 bfbd cd45 c4be
00000070: 1e6a 5bbd f5a5 05be 0623 83be 9004 793f
00000080: 1b3a 6fbe 4e4a 58bf 837f 49bf fb7b a83c
00000090: b79a 5e3d 5f26 24bd 0d3e a3bd b321 6bbe
000000a0: db50 acbe c337 f6be 7bb6 63bd 04f8 37bf
000000b0: dded 0b3f 2a39 1fbe 958d 22bf 4fe5 08bf
000000c0: 9b77 9cbe ee35 373c

cnn_pep_1.weight f4 [50, 8, 3]
0.20162158 0.10520989 0.25901875 0.20295651 -0.05058441 0.108268246 0.28752843 -0.2995691
-0.12612103 0.08059073 0.00074014487 -0.026133556 0.26628438 -0.0706992 -0.18485482 0.3975234
0.040497124 -0.084766686 0.2365614 -0.20321871 -0.11884373 -0.45693576 -0.18045159 0.04069126
-0.57488203 0.37919348 -0.36992493 -0.113691956 0.6106873 -0.0128991995 -0.31252062 0.65054846
-0.51946443 -0.32221916 0.18208376 -0.23969564 -0.17988335 0.47098413 -0.4828798 -0.329452
0.10677045 -0.019003542 -0.3613098 0.1968044 -0.2049094 -0.59026915 0.23136015 -0.051893152
-0.15513487 0.05838266 -0.0014352063 0.15968288 -0.11393805 -0.20746952 -0.29723248 0.016865263
-0.14481147 0.09096112 0.39151707 -0.14683275 -0.04476082 0.07161132 0.2117381 -0.19465496
0.2503798 0.1934006 -0.19063185 -0.17037904 0.008509933 0.09693228 -0.25244075 0.14803426
-0.38916886 -0.24386881 0.08861446 -0.14178373 0.3843576 -0.2710678 -0.291266 0.09884495
-0.2447416 -0.016584314 -0.14459173 0.055029586 0.12451109 0.022588193 0.20081209 0.11791177
0.02124309 -0.06381912 -0.08611954 0.062803224 0.10971184 0.034471963 0.15472141 -0.21198523
-0.2467925 -3.112551e-05 -0.30260852 -0.11998554 0.45924595 0.03552987 0.19585542 -0.2845812
0.13375169 -0.305056 0.317353 -0.1213213 0.16322489 0.08667976 0.20715927 -0.17782767
-0.06855004 0.10096117 -0.10942859 0.49980435 -0.024259625 -0.21998006 0.32572225 0.06929194
0.05161834 0.31681418 -0.06821415 0.16656357 0.080954716 0.07990228 0.10902535 -0.020539299
-0.048808936 0.09992651 -0.053188507 -0.053051233 0.16093361 0.00582194 0.40597147 -0.21540746
-0.40462738 0.10438165 -0.48461223 -0.26222572 -0.19643249 0.26323503 -0.07572076 0.6464772
0.4293701 0.7168065 -0.4161724 0.2663026 -0.4415723 0.3056827 0.09421338 -0.24152029
0.11178687 0.430111 -0.014903076 0.0063428953 0.17179202 -0.22791296 0.050221432 0.49057236
-0.37025285 0.119410664 0.38669106 0.17003796 -0.07020322 0.5974039 -0.11175348 0.46512437
-0.17709719 0.152567 0.041964136 -0.19937502 0.028956026 -0.21474525 -0.12552999 -0.074404374
-0.22174254 -0.1024414 -0.16082738 -0.14828277 -0.21280062 -0.18478489 -0.18135841 -0.25118592
-0.0839125 0.033103134 -0.12711427 0.49606127 -0.19653006 -0.11060246 0.2774949 0.17040113
0.30836743 0.18587807 0.1511417 -0.20114219 0.15938103 0.13312836 -0.08930506 -0.11183835
-0.11956422 0.1796799 0.0154223535 0.022987109 -0.01905474 0.012474031 0.06587273 0.045316108
-0.18475913 0.034189064 -0.049350947 -0.12079507 -0.17758073 -0.023904782 -0.020972874 -0.18573827
-0.27158323 0.63135636 -0.36339185 -0.49395615 0.057711083 0.103459336 0.23790699 -0.020457577
0.115553804 0.62256885 -0.3043849 -0.13745196 0.3520111 -0.3393702 -0.24415208 0.1679097
-0.40264297 0.013398783 0.31266394 -0.24227956 0.3325828 0.45211822 0.028078975 0.12496635
-0.023601217 -0.087164216 -0.062334355 -0.033082757 0.18072712 0.10312295 -0.019458868 -0.06654696
0.095072255 0.17850932 -0.039211504 0.25379688 0.2629068 -0.17812222 -0.26100206 0.09366204
00000000: e375 4e3e 4878 d73d 1b9e 843e d5d3 4f3e
00000010: 9931 4fbd bebb dd3d ed36 933e 1f61 99be
00000020: df25 01be c10c a53d 4806 423a 0a16 d6bc
00000030: 6d56 883e beca 90bd 954a 3dbe 3088 cb3e
00000040: 50e0 253d 289a adbd 273d 723e 9118 50be
00000050: 5764 f3bd 7cf3 e9be 4dc8 38be e1ab 263d
00000060: 782b 13bf a625 c23e cd66 bdbe 54d7 e8bd
00000070: 0156 1c3f 2a57 53bc b402 a0be 588a 263f
00000080: 9ffb 04bf e9f9 a4be 2a74 3a3e c672 75be
00000090: 5733 38be d524 f13e 053c f7be efad a8be
000000a0: 77aa da3d 51ad 9bbc 99fd b8be 1887 493e
000000b0: c5d3 51be e11b 17bf ade9 6c3e ea8d 54bd
000000c0: addb 1ebe a822 6f3d 881d bcba e983 233e
000000d0: 5a58 e9bd e472 54be db2e 98be 0529 8a3c
000000e0: 7549 14be d349 ba3d ed74 c83e 535b 16be
000000f0: 1f57 37bd f5a8 923d dfd1 583e a153 47be
00000100: c831 803e cf0a 463e ff34 43be d877 2ebe
00000110: 3f6d 0b3c 6e84 c63d ea3f 81be 4b96 173e
00000120: 2441 c7be bfb8 79be 7f7b b53d c12f 11be
00000130: 85ca c43e 66c9 8abe d120 95be 396f ca3d
00000140: 8b9d 7abe d4db 87bc db0f 14be b466 613d
00000150: acff fe3d e00a b93c afa1 4d3e ba7b f13d
00000160: fd05 ae3c 99b3 82bd 715f b0bd fa9e 803d
00000170: 9ab0 e03d 7932 0d3d 4a6f 1e3e a812 59be
00000180: 2cb7 7cbe c38c 02b8 81ef 9abe fbba f5bd
00000190: 4922 eb3e c587 113d 538e 483e a1b4 91be
000001a0: 34f6 083e 4d30 9cbe 187c a23e 4d77 f8bd
000001b0: 6d24 273e 2885 b13d 8f21 543e 7518 36be
000001c0: f763 8cbd bbc4 ce3d 191c e0bd 5be6 ff3e
000001d0: 1fbc c6bc 7442 61be 11c5 a63e efe8 8d3d
000001e0: c16d 533d 7835 a23e dcb3 8bbd a48f 2a3e
000001f0: 96cb a53d cea3 a33d af48 df3d 0842 a8bc
00000200: e1eb 47bd 45a6 cc3d 31dc 59bd 404c 59bd
00000210: c8cb 243e f9c5 be3b 7edb cf3e c693 5cbe
00000220: 522b cfbe 0cc6 d53d 181f f8be 7342 86be
00000230: 9925 49be bec6 863e 7c13 9bbd 887f 253f
00000240: 66d6 db3e a180 373f 8c14 d5be d058 883e
00000250: c415 e2be 7182 9c3e f2f2 c03d 1851 77be
00000260: 84f0 e43d 8237 dc3e 082c 74bc 10d8 cf3b
00000270: 3fea 2f3e 0462 69be fdb4 4d3d 4d2c fb3e
00000280: c891 bdbe 948d f43d 5ffc c53e 6e1e 2e3e
00000290: b5c6 8fbd 76ef 183f 02df e4bd c824 ee3e
000002a0: f758 35be 863a 1c3e 96e2 2b3d f728 4cbe
000002b0: 3035 ed3c 2ee6 5bbe ef8a 00be 5261 98bd
000002c0: 7a10 63be cccc d1bd efaf 24be 70d7 17be
000002d0: 68e8 59be 4038 3dbe 05b6 39be 719b 80be
000002e0: 51da abbd 2797 073d 3e2a 02be befb fd3e
000002f0: 2d3f 49be 8b83 e2bd d013 8e3e a27d 2e3e
00000300: 56e2 9d3e d256 3e3e e4c4 1a3e 38f8 4dbe
00000310: c834 233e cd52 083e 92e5 b6bd 810b e5bd
00000320: 16de f4bd 02fe 373e 0aae 7c3c 764f bc3c
00000330: b018 9cbc e15f 4c3c 48e8 863d 629d 393d
00000340: 7f31 3dbe d509 0c3d 3824 4abd 6863 f7bd
00000350: b9d7 35be f6d3 c3bc 4ecf abbc 2c32 3ebe
00000360: f50c 8bbe 92a0 213f 7f0e babe d2e7 fcbe
00000370: 7562 6c3d 7de2 d33d e49d 733e a696 a7bc
00000380: 79a7 ec3d ac60 1f3f 56d8 9bbe 35c0 0cbe
00000390: cd3a b43e eec1 adbe 0103 7abe 85f0 2b3e
000003a0: 3827 cebe 9286 5b3c 7d15 a03e 2218 78be
000003b0: 4b48 aa3e 0a7c e73e e105 e63c 5cee ff3d
000003c0: 5757 c1bc 2783 b2bd 4f52 7fbd c981 07bd
000003d0: 8810 393e 2032 d33d 3468 9fbc c649 88bd
000003e0: 3eb5 c23d 26cb 363e 3e9c 20bd aaf1 813e
000003f0: b89b 863e ac65 36be 10a2 85be e2d1 bf3d

cnn_pep_1.bias f4 [50]
0.029363288 0.15416084 -0.24607235 0.07477821 -0.21519276 -0.19730651 -0.1870536 -0.07651357
-0.1973258 -0.28987294 -0.016862622 -0.2538028 -0.12443819 0.07164072 -0.049254004 -0.23214196
-0.29829916 0.31239143 -0.22084726 0.024774075 0.0617555 -0.29396707 -0.27655742 -0.23937461
-0.195026 -0.09969618 -0.361187 0.19819592 -0.17233424 -0.5371506 -0.15301761 -0.08481678
-0.40205732 0.038705915 -0.21273188 -0.13061441 -0.13414876 0.4348124 0.030093463 -0.12768914
-0.19606504 -0.13932995 -0.047615536 0.03752152 -0.02789544 -0.004361246 -0.26105082 0.025655936
-0.025667138 -0.34758127
00000000: 478b f03c 57dc 1d3e 64fa 7bbe 5125 993d
00000010: 7e5b 5cbe b80a 4abe fb8a 3fbe 26b3 9cbd
00000020: c60f 4abe 3a6a 94be 7b23 8abc 71f2 81be
00000030: 73d9 febd 5fb8 923d 91be 49bd 9fb6 6dbe
00000040: abba 98be c5f1 9f3e c925 62be 00f3 ca3c
00000050: 56f3 7c3d da82 96be ef98 8dbe 9e1e 75be
00000060: e5b4 47be 832d ccbd 81ed b8be dff3 4a3e
00000070: 6378 30be b482 09bf a6b0 1cbe 6cb4 adbd
00000080: 75da cdbe 188a 1e3d 63d6 59be c9bf 05be
00000090: 4b5e 09be bb9f de3e 9186 f63c f1c0 02be
000000a0: 46c5 48be 83ac 0ebe 8208 43bd 2ab0 193d
000000b0: fa84 e4bc c8e8 8ebb 74a8 85be 662c d23c
000000c0: e443 d2bc 2cf6 b1be

cnn_pep_2.weight f4 [25, 50, 1]
-0.043065067 0.03331562 0.21970503 -0.058287278 0.25431088 0.109303676 0.02313953 -0.1284012
-0.034927487 0.14318767 -0.20401679 0.17234568 -0.29504642 0.05828146 0.05216037 -0.037782557
0.40531182 -0.16543423 0.3750042 0.29255226 -0.26337367 0.07752163 0.41594535 -0.104418576
0.0424979 0.12611651 0.18349996 -0.09254627 0.17351024 -0.123540096 0.2575688 -0.13228191
0.045733023 -0.06353301 -0.028709585 -0.1408644 -0.06094347 -0.26536658 0.17005572 0.13153024
-0.051384024 0.3007529 0.26685783 -0.23430051 0.18558988 -0.17421322 -0.10139591 -0.3278582
0.056443144 0.1849263 0.2604661 0.07201599 -0.10711878 0.09758144 0.23171538 -0.59086835
0.06304376 0.09187805 0.02511542 -0.20083538 0.043399222 0.003775092 0.2620567 -0.33680508
0.09068405 0.28553003 0.19371723 -0.5199929 0.24555574 -0.5340086 -0.1681813 -0.30021018
-0.10810981 0.16016221 -0.1304381 0.03778712 -0.09750436 0.19142601 -0.22373195 -0.19671121
-0.07850516 -0.14376663 -0.09011694 -0.28875732 -0.2181321 0.055326197 -0.029782167 0.038866136
0.48235792 -0.06344378 0.13316642 -0.253685 0.23413783 -0.5570392 0.31123674 0.13936664
0.063095964 -0.1779097 -0.5136267 0.01136027 -0.08121846 -0.12720726 -0.041868575 0.09041886
0.10435128 0.12143033 -0.11027661 -0.12515402 0.024204172 -0.09030793 -0.070069015 0.076319836
-0.11766518 -0.081714705 0.082394615 0.09332964 -0.07598186 -0.114865445 -0.109976165 0.13533421
-0.061982308 0.13081497 -0.06486168 0.09792328 -0.008674768 -0.14166081 0.13424222 0.020159604
0.05009784 0.024103655 -0.12248804 0.060204003 -0.00020432062 -0.08462952 0.0031607603 -0.12641618
-0.00048922375 0.08316424 -0.1226193 0.06856016 -0.055530325 -0.021522466 0.09870173 0.09105584
-0.06764569 -0.026318956 -0.12775818 -0.07732902 0.090878166 -0.11092041 -0.12913892 -0.18446746
-0.039728712 -0.16442226 -0.15246722 0.27726197 0.097814985 -0.1672346 -0.004487039 0.07358727
-0.1198707 -0.13142215 -0.069831826 0.18187498 -0.17158546 -0.035941437 0.044646267 -0.12800798
0.24303134 0.2922966 0.25601566 0.124230176 0.27750963 -0.117791444 -0.111352175 -0.25882
0.09216399 -0.18959679 -0.015346623 0.09125927 -0.11052808 0.13359734 -0.07628813 0.2169164
0.23057942 0.07398435 0.24334109 -0.5177904 -0.09512367 -0.15211634 -0.08652262 0.2587355
0.112098925 0.1548838 -0.008610189 -0.15371293 0.10468418 0.08767457 0.047677975 0.018874876
0.0767641 -0.07218164 -0.051685676 -0.10306511 -0.005711835 -0.08531189 0.012132061 0.01606822
0.11265914 -0.13726376 -0.010400845 0.085976794 -0.095328525 -0.14112449 -0.09072004 -0.10281275
-0.12307044 -0.043172795 -0.06732709 -0.08315648 0.018562453 -0.13224274 0.12810884 -0.12080784
0.04427567 -0.038986612 0.032793224 -0.12734391 -0.09745061 -0.0937626 -0.0059494525 -0.13743214
0.11896248 -0.057580575 -0.10917185 -0.046331808 -0.004196629 0.12179646 -0.09697016 -0.10941955
0.02658227 -0.0071748644 -0.03705817 0.038006462 -0.10506365 -0.03776116 0.13665326 -0.09074092
-0.022091877 0.033877864 0.24109477 -0.37196368 0.048992105 0.14406331 0.0675798 0.16763783
00000000: ff64 30bd f675 083d 5bfa 603e a4be 6ebd
00000010: 0935 823e 9bda df3d 1d8f bd3c 9b7b 03be
00000020: 2010 0fbd ca9f 123e c7e9 50be 637b 303e
00000030: 5310 97be 8ab8 6e3d 1da6 553d e2c1 1abd
00000040: 0885 cf3e 9767 29be 8d00 c03e 69c9 953e
00000050: ead8 86be a9c3 9e3d caf6 d43e 68d9 d5bd
00000060: 4712 2e3d b024 013e 6ae7 3b3e e688 bdbd
00000070: abac 313e 9702 fdbd 0fe0 833e e974 07be
00000080: 8d52 3b3d 981d 82bd 5d30 ebbc c23e 10be
00000090: dc9f 79bd 21de 87be 1623 2e3e ddaf 063e
000000a0: 0e78 52bd 49fc 993e 97a1 883e 79ec 6fbe
000000b0: 460b 3e3e f364 32be a9a8 cfbd 08dd a7be
000000c0: ed30 673d 525d 3d3e d05b 853e 1f7d 933d
000000d0: 1761 dbbd c7d8 c73d cc46 6d3e 2643 17bf
000000e0: 161d 813d 8f2a bc3d dabe cd3c caa7 4dbe
000000f0: 62c3 313d 8967 773b 4c2c 863e b771 acbe
00000100: 8fb8 b93d fe30 923e cf5d 463e 411e 05bf
00000110: f772 7b3e cab4 08bf b837 2cbe 26b5 99be
00000120: ad68 ddbd 9001 243e 9191 05be abc6 1a3d
00000130: 5eb0 c7bd 2e05 443e fd19 65be aa6e 49be
00000140: 50c7 a0bd 8f37 13be 3b8f b8bd 00d8 93be
00000150: 055e 5fbe b99d 623d bbf9 f3bc 1932 1f3d
00000160: 9ef7 f63e d0ee 81bd c75c 083e 00e3 81be
00000170: d4c1 6f3e 1f9a 0ebf 6c5a 9f3e 21b6 0e3e
00000180: 7538 813d f62d 36be 0a7d 03bf 6d20 3a3c
00000190: dd55 a6bd 9f42 02be 627e 2bbd 862d b93d
000001a0: 20b6 d53d 77b0 f83d b4d8 e1bd 6028 00be
000001b0: d447 c63c 5df3 b8bd 5880 8fbd 934d 9c3d
000001c0: 71fa f0bd 0a5a a7bd 82be a83d 9c23 bf3d
000001d0: 619c 9bbd 933e ebbd 2f3b e1bd 0d95 0a3e
000001e0: 29e1 7dbd 5cf4 053e 33d6 84bd 008c c83d
000001f0: 9d20 0ebc 880f 11be cb76 093e c125 a53c
00000200: 6533 4d3d 0775 c53c 02db fabd 7998 763d
00000210: e63e 56b9 3e52 adbd c224 4f3b 3e73 01be
00000220: 403f 00ba 0352 aa3d d41f fbbd 4569 8c3d
00000230: c473 63bd e24f b0bc 2224 ca3d 7c7b ba3d
00000240: d389 8abd da9a d7bc 0ad3 02be ad5e 9ebd
00000250: 551e ba3d 3d2a e3bd fe3c 04be 0ae5 3cbe
00000260: 93ba 22bd 4f5e 28be 5e20 1cbe 48f5 8d3e
00000270: 3953 c83d 8c3f 2bbe 0308 93bb ecb4 963d
00000280: c57e f5bd 8793 06be fd03 8fbd 6f3d 3a3e
00000290: 19b4 2fbe 5437 13bd 01df 363d 8614 03be
000002a0: 35dd 783e e6a7 953e 7c14 833e 646c fe3d
000002b0: be15 8e3e a43c f1bd 9c0c e4bd 0e84 84be
000002c0: 79c0 bc3d a925 42be 6770 7bbc 24e6 ba3d
000002d0: 8c5c e2bd becd 083e f33c 9cbd 551f 5e3e
000002e0: 031d 6c3e 1b85 973d 682e 793e e98d 04bf
000002f0: 33d0 c2bd 63c4 1bbe c532 b1bd fb78 843e
00000300: 1f94 e53d dc99 1e3e c011 0dbc ec66 1dbe
00000310: a964 d63d ba8e b33d fb49 433d 7c9f 9a3c
00000320: 7f36 9d3d f8d3 93bd 5cb4 53bd cd13 d3bd
00000330: 582a bbbb 00b8 aebd 8dc5 463c 80a1 833c
00000340: d6b9 e63d df8e 0cbe 4e68 2abc 9a14 b03d
00000350: 9a3b c3bd f082 10be 6ecb b9bd 7e8f d2bd
00000360: 5b0c fcbd f5d5 30bd c9e2 89bd f24d aabd
00000370: 4910 983c a46a 07be f72e 033e 1a6a f7bd
00000380: 685a 353d 6db0 1fbd 3052 063d 7166 02be
00000390: 2f94 c7bd 9b06 c0bd a0f3 c2bb 03bb 0cbe
000003a0: 9aa2 f33d 9cd9 6bbd 7e95 dfbd 6cc6 3dbd
000003b0: e083 89bb 6c70 f93d 4b98 c6bd 5b17 e0bd
000003c0: 10c3 d93c 201b ebbb 4fca 17bd aaac 1b3d
000003d0: 9c2b d7bd 72ab 1abd d5ee 0b3e 60d6 b9bd
000003e0: 06fa b4bc 84c3 0a3d 8ce1 763e 0672 bebe
000003f0: f2ab 483d 5585 133e 4767 8a3d 40a9 2b3e

cnn_pep_2.bias f4 [25]
0.005616082 -0.043281205 -0.14868154 -0.20153686 -0.012348288 0.16993861 -0.26265246 -0.13166982
-0.076550774 0.0154857095 -0.027444351 -0.24421166 -0.0670804 0.07321607 -0.08893237 -0.59489614
-0.14615394 -0.56192976 0.16867173 0.09938682 -0.30358118 0.18399672 -0.18903795 -0.19539207
-0.07908109
00000000: 1c07 b83b a247 31bd f93f 18be ae5f 4ebe
00000010: 7950 4abc 6304 2e3e 627a 86be 74d4 06be
00000020: a7c6 9cbd c6b7 7d3c fad2 e0bc 9f12 7abe
00000030: 7361 89bd 4ff2 953d 2d22 b6bd 1d4b 18bf
00000040: 61a9 15be a1da 0fbf 48b8 2c3e 518b cb3d
00000050: fe6e 9bbe a369 3c3e 2a93 41be dc14 48be
00000060: 44f5 a1bd

cnn_pep_3.weight f4 [10, 25, 1]
-0.03343746 -0.008798197 -0.10397513 0.0042578876 0.027765796 -0.16459914 -0.019132018 0.14951222
0.0197784 0.047790483 -0.10223546 0.063330635 -0.19773526 -0.00052042305 -0.08720379 -0.05282688
0.1996321 -0.09960981 0.18520333 -0.13612647 0.19987978 0.11202289 -0.15771452 0.008430198
-0.17198212 0.040498823 0.028637439 0.19430779 0.14536189 0.02667895 -0.10169089 0.028980732
0.13373582 0.03150852 -0.15550563 -0.0018667281 -0.023043394 0.02129212 0.18367617 -0.101240635
-0.07010849 -0.099377014 0.016109899 -0.039819404 0.069442794 0.16883944 -0.15790217 -0.13630036
-0.025507018 0.08807279 -0.030999511 0.025615498 0.05829923 -0.10283394 -0.097212695 0.09713952
-0.06563786 -0.027717873 -0.013779759 0.1809824 -0.122007035 -0.17487596 -0.05480437 -0.023217872
0.08126597 -0.054157183 -0.15751338 -0.11810203 -0.04746203 0.020315722 0.06942387 0.17783467
0.1783152 -0.15821879 0.060812876 -0.013548821 -0.036790818 0.006703824 -0.024370477 0.0050251186
0.19405599 -0.15457395 -0.15206055 0.1768383 0.12244119 0.17192532 0.19863851 0.027795881
0.18075337 -0.07946155 0.18493135 0.082836345 -0.04726088 -0.01396212 -0.14320855 0.044567898
-0.024187446 0.18869175 -0.07538865 -0.009237081 -0.02715227 -0.12579137 -0.17263559 -0.12703085
-0.19057234 -0.11794632 -0.14257686 0.14692073 -0.18231237 -0.102596305 0.13712437 -0.17053664
-0.035704523 0.0518526 0.16888501 -0.03724067 -0.10430415 0.14422812 -0.16938667 0.09830575
0.13869585 -0.00798507 -0.16841082 0.047387093 0.039443254 0.08660506 0.1374181 0.0630274
0.08523251 -0.14218223 0.18780996 0.09417917 -0.18626109 -0.12356799 0.08698167 -0.08884173
0.011846498 0.16720618 0.16035484 0.06870444 0.18840398 0.18312426 -0.09101675 -0.08877983
0.019269511 0.035758525 -0.0078116357 -0.17039111 0.086290464 -0.14924829 -0.18769386 0.16752972
0.1488414 -0.08861666 0.01803425 0.08013226 0.12953748 0.15748183 0.12605707 0.10353421
0.047233433 0.015904143 -0.16333011 0.059231892 0.11288588 -0.16720271 -0.054147393 -0.17568369
-0.15045373 -0.09962111 -0.012108609 -0.15628257 -0.10756507 -0.10087502 0.105863586 0.071681395
0.16038658 0.10972969 -0.17826942 0.09861089 -0.16905832 -0.116963916 -0.05125299 -0.04774344
0.07244004 0.016184896 0.1720428 0.060431615 -0.129623 0.14199664 0.07778801 -0.07077122
0.07119335 0.093606845 0.18406059 -0.104857616 0.03940174 -0.18845813 0.009474158 -0.15025139
0.038709685 -0.092476346 0.12041153 -0.08273659 0.15672459 -0.022584409 -0.018378526 -0.005457312
-0.15706134 0.18372242 0.1996551 0.12324141 0.05253215 -0.04163739 -0.11768887 0.09388901
-0.15219922 -0.017091557 0.14735185 0.11987479 -0.08782025 0.19013576 -0.17277236 -0.19198492
0.08126961 -0.19580522 0.10615732 -0.1169061 0.14161755 0.040896058 -0.1581234 -0.15483935
-0.00349693 0.10139759 -0.11783099 0.09841402 0.11882667 -0.005662203 -0.056596562 -0.18103479
-0.16857433 -0.023268223 0.0681466 -0.031625062 -0.112019375 0.008269757 0.12684037 0.062055036
0.14319481 -0.13860703
00000000: b8f5 08bd 5026 10bc eaf0 d4bd c085 8b3b
00000010: 1875 e33c ad8c 28be c0ba 9cbc bb19 193e
00000020: 5006 a23c f4bf 433d d360 d1bd 7eb3 813d
00000030: 1d7b 4abe 006d 08ba e797 b2bd 0061 58bd
00000040: 5b6c 4c3e 3a00 ccbd f1a5 3d3e bd64 0bbe
00000050: 49ad 4c3e 426c e53d ea7f 21be d01e 0a3c
00000060: 151c 30be 18e2 253d 1099 ea3c 9ff8 463e
00000070: bfd9 143e d08d da3c 5043 d0bd 0069 ed3c
00000080: 0bf2 083e 140f 013d de3c 1fbe 00ad f4ba
00000090: 80c5 bcbc d06c ae3c 9b15 3c3e 4057 cfbd
000000a0: 0a95 8fbd 2d86 cbbd e8f8 833c ac19 23bd
000000b0: 0638 8e3d 3fe4 2c3e 1bb1 21be 5292 0bbe
000000c0: 18f4 d0bc 825f b43d b0f2 fdbc 98d7 d13c
000000d0: 2ccb 6e3d 9a9a d2bd 7317 c7bd 16f1 c63d
000000e0: 246d 86bd 9810 e3bc 80c4 61bc 7353 393e
000000f0: d3de f9bd af12 33be 8c7a 60bd 6833 bebc
00000100: c66e a63d ecd3 5dbd 304b 21be 7adf f1bd
00000110: 8c67 42bd 286d a63c 1a2e 8e3d 4b1a 363e
00000120: 4398 363e 1b04 22be ec16 793d e0fb 5dbc
00000130: f8b1 16bd c0ab db3b 98a4 c7bc c0a9 a43b
00000140: 9db6 463e a248 1ebe c3b5 1bbe 1915 353e
00000150: 72c2 fa3d 310d 303e e567 4b3e 30b4 e33c
00000160: 6917 393e bdbc a2bd a55e 3d3e 1aa6 a93d
00000170: a094 41bd 60c1 64bc 43a5 12be d48c 363d
00000180: c024 c6bc 6938 413e 5d65 9abd 2057 17bc
00000190: 706e debc 74cf 00be 62c7 30be 6014 02be
000001a0: 6525 43be d78d f1bd abff 11be 6372 163e
000001b0: 18b0 3abe 031e d2bd 556a 0c3e 28a1 2ebe
000001c0: e83e 12bd 6463 543d 31f0 2c3e ac89 18bd
000001d0: 6a9d d5bd 89b0 133e b373 2dbe 8654 c93d
000001e0: 4906 0e3e d0d3 02bc e373 2cbe f818 423d
000001f0: 408f 213d fe5d b13d 55b7 0c3e 8214 813d
00000200: 628e ae3d 3898 11be 4151 403e 02e1 c03d
00000210: 3abb 3ebe 3711 fdbd 7223 b23d a7f2 b5bd
00000220: d017 423c 1938 2b3e 0f34 243e eab4 8c3d
00000230: f9ec 403e ed84 3b3e fd66 babd 33d2 b5bd
00000240: 18db 9d3c 8877 123d c0f8 ffbb 027b 2ebe
00000250: 0eb9 b03d 8bd4 18be d232 40be e98c 2b3e
00000260: e169 183e a77c b5bd 90bc 933c 621c a43d
00000270: 79a5 043e eb42 213e 1b15 013e be09 d43d
00000280: d877 413d 6849 823c 0240 27be 249d 723d
00000290: b630 e73d 3037 2bbe a8c9 5dbd 6de6 33be
000002a0: 8b10 1abe 2706 ccbd 3063 46bc 8a08 20be
000002b0: 134b dcbd 9097 cebd 02cf d83d b2cd 923d
000002c0: 613c 243e f6b9 e03d 428c 36be 82f4 c93d
000002d0: a01d 2dbe c78a efbd a8ee 51bd a08e 43bd
000002e0: 725b 943d 3096 843c fd2b 303e 2487 773d
000002f0: e4bb 04be 9167 113e 524f 9f3d 80f0 90bd
00000300: d2cd 913d f2b4 bf3d 617a 3c3e 97bf d6bd
00000310: b863 213d 2bfb 40be 8039 1b3c 80db 19be
00000320: 0c8e 1e3d 3d64 bdbd 529a f63d cd71 a9bd
00000330: 697c 203e f002 b9bc 908e 96bc 40d3 b2bb
00000340: b0d4 20be bb21 3c3e 6372 4c3e fe65 fc3d
00000350: f42b 573d f88b 2abd dd06 f1bd e248 c03d
00000360: 1dda 1bbe 9803 8cbc 67e3 163e ea80 f53d
00000370: 1adb b3bd f3b2 423e 3deb 30be b297 44be
00000380: ae70 a63d 2a81 48be 0269 d93d 776c efbd
00000390: 3104 113e a082 273d 1aeb 21be 358e 1ebe
000003a0: c02c 65bb 8aa9 cf3d 6051 f1bd 4a8d c93d
000003b0: 665b f33d 008a b9bb ccd1 67bd 2f61 39be
000003c0: c09e 2cbe 009d bebc 7290 8b3d 4889 01bd
000003d0: 6a6a e5bd e07d 073c 71e2 013e 6c2d 7e3d
000003e0: a9a1 123e 00ef 0dbe

cnn_pep_3.bias f4 [10]
0.1353574 0.014897779 0.027222723 0.15072991 -0.043371767 -0.08231135 0.12890507 -0.017604321
-0.15719335 0.17789717
00000000: 219b 0a3e d015 743c 3002 df3c f158 1a3e
00000010: 98a6 31bd da92 a8bd b1ff 033e f036 90bc
00000020: 4bf7 20be ad2a 363e

cnn_apt.0.weight f4 [100, 40, 3]
0.0016491796 -0.031289287 0.29841277 -0.0025418645 -0.12013639 0.07694348 0.12197971 -0.23255889
0.08594384 -0.21435165 0.068987355 0.12305258 0.16642855 0.048908364 0.32606938 0.13677333
-0.1144904 0.10045683 -0.0806317 -0.1688845 0.017627133 0.1296368 -0.25112948 0.3608756
0.064346746 -0.4944841 -0.17030942 0.047326364 -0.27526787 0.08068043 -0.018218735 -0.21533796
-0.10186918 0.24104919 -0.17591608 0.032682154 -0.169393 -0.10977319 0.3268056 0.12137683
-0.13405164 0.2381572 -0.13807933 -0.16767095 0.28672826 -0.16512932 -0.15402338 0.20771274
0.07308002 -0.16617931 0.11436545 -0.21704455 -0.0416143 0.081636906 0.42186892 -0.16751963
0.2656674 0.15574652 -0.30552784 0.0800742 -0.111728765 -0.26481566 0.2764525 0.084537454
-0.16053694 0.16679984 -0.0009806383 -0.21044327 0.14724636 0.023591727 -0.31414372 0.3511095
0.05169304 -0.20338026 -0.005011744 0.056037534 -0.12825797 0.27451128 0.10335641 -0.112385556
-0.029760802 0.39648637 -0.20352162 0.24061297 0.16433662 -0.35016805 0.3875376 0.089558095
-0.5873304 0.15316673 0.2766443 -0.6718579 0.0039108093 0.03776361 -0.097044975 -0.026969941
0.42917573 -0.079353616 -0.051361088 0.028050998 -0.16591822 0.28387958 0.19898818 -0.071107574
0.4498148 0.05748632 -0.050984677 0.18350542 0.19976208 0.10228044 0.4517263 -0.18722105
0.00761844 0.19716035 -0.25428498 -0.18061188 0.25696978 -0.26105407 -0.16205323 0.3679037
-0.016134879 -0.10968458 -0.021835191 0.043891266 -0.18510392 -0.31511003 0.26753637 0.032826506
-0.37536523 0.32668635 -0.3937258 -0.04153433 0.059384745 -0.067822665 0.122707784 0.0429103
-0.0719902 -0.22352433 0.16793703 -0.21448892 -0.16387288 0.054666843 -0.10233558 -0.097444475
0.12936907 -0.020748148 -0.079841144 0.08427933 -0.33680922 0.32170957 0.060030054 -0.13138579
-0.06868132 0.10132094 -0.09372885 -0.016807804 -0.14981595 -0.26224077 0.3882902 -0.19176927
-0.17580722 0.08366178 0.17114834 0.036131743 0.07235244 -0.19959503 -0.23603742 0.23468843
-0.3530434 -0.21257974 0.23492797 0.04269167 -0.011150308 -0.02037724 -0.1349581 -0.078041874
-0.091153525 -0.22343801 -0.02367677 -0.36993396 0.42259857 0.039958045 0.001864404 0.6100962
0.14092267 -0.09609589 0.03805042 0.28693187 -0.085614935 -0.15417467 -0.66458714 0.037662696
-0.094745606 -0.026614059 0.09820521 0.3787925 0.0035880236 -0.21789737 0.70622057 -0.24968638
-0.01591023 0.028635697 0.06541953 -0.28886232 0.24361935 -0.050475672 -0.19731225 0.24266927
-0.07323529 -0.04631984 0.028890697 -0.41545594 -0.0825352 -0.0072741653 -0.343972 -0.23389
0.1013145 -0.17397368 -0.046849687 -0.078284554 -0.41875476 -0.12619092 0.1724882 -0.11789586
-0.21894495 0.15996452 -0.31108558 -0.37940428 0.31159925 0.020676253 -0.08697957 0.50127774
-0.10562419 -0.0055982075 0.122899055 -0.4267669 0.027104778 -0.201529 -0.38664052 -0.3635476
0.11657841 0.070303515 -0.01865939 -0.14282274 0.08893441 0.083015904 0.25100064 -0.009584556
-0.039605673 0.031449888 -0.086553074 0.2061666 -0.13467304 0.053456552 -0.0027485313 -0.11725945
00000000: 4929 d83a 3229 00bd 8fc9 983e 6995 26bb
00000010: 110a f6bd 8b94 9d3d 80d0 f93d eb23 6ebe
00000020: 5303 b03d 007f 5bbe 3e49 8d3d fe02 fc3d
00000030: 3f6c 2a3e 2354 483d 91f2 a63e 4f0e 0c3e
00000040: f179 eabd 4fbc cd3d 3c22 a5bd 0ff0 2cbe
00000050: c766 903c 82bf 043e 0b94 80be b0c4 b83e
00000060: 3ac8 833d 052d fdbe 9865 2ebe 4ad9 413d
00000070: e9ef 8cbe c83b a53d 753f 95bc 8e81 5cbe
00000080: caa0 d0bd 99d5 763e 5823 34be b9dd 053d
00000090: 5c75 2dbe c4d0 e0bd 1053 a73e 6a94 f83d
000000a0: d544 09be 7bdf 733e ab64 0dbe efb1 2bbe
000000b0: 0cce 923e a917 29be 4eb8 1dbe a6b2 543e
000000c0: faaa 953d e92a 2abe 6f38 ea3d ed40 5ebe
000000d0: c273 2abd 4031 a73d 34ff d73e 448a 2bbe
000000e0: 8f05 883e 047c 1f3e 256e 9cbe f1fd a33d
000000f0: 0dd2 e4bd eb95 87be 2f8b 8d3e f921 ad3d
00000100: cc63 24be 94cd 2a3e c388 80ba 717e 57be
00000110: c0c7 163e 7043 c13c 72d7 a0be a0c4 b33e
00000120: 15bc 533d ea42 50be 8e39 a4bb 9d87 653d
00000130: 0f56 03be be8c 8c3e 87ac d33d 662a e6bd
00000140: edcc f3bc 4300 cb3e f967 50be 3f63 763e
00000150: dc47 283e 3a49 b3be 546b c63e 3c6a b73d
00000160: 495b 16bf bdd7 1c3e 52a4 8d3e e1fe 2bbf
00000170: 3f26 803b 04ae 1a3d 84bf c6bd 11f0 dcbc
00000180: ecbc db3e 2684 a2bd 0160 52bd 35cb e53c
00000190: 77e6 29be aa58 913e 8fc3 4b3e d9a0 91bd
000001a0: 204e e63e c776 6b3d 4fd5 50bd d8e8 3b3e
000001b0: 6e8e 4c3e 6878 d13d ab48 e73e e0b6 3fbe
000001c0: 1ba4 f93b 67e4 493e a431 82be 52f2 38be
000001d0: 8b91 833e e1a8 85be 48f1 25be e05d bc3e
000001e0: 4b2d 84bc 4fa2 e0bd b7df b2bc 54c7 333d
000001f0: e28b 3dbe 1a56 a1be 87fa 883e 1675 063d
00000200: df2f c0be 6f43 a73e 6e96 c9be e71f 2abd
00000210: 6b3d 733d 9ce6 8abd 384e fb3d b6c2 2f3d
00000220: 996f 93bd 90e3 64be aff7 2b3e fca2 5bbe
00000230: 4bce 27be 57ea 5f3d 5195 d1bd f890 c7bd
00000240: 5379 043e 05f8 a9bc c183 a3bd a49a ac3d
00000250: 4272 acbe 1eb7 a43e 13e2 753d ff89 06be
00000260: cba8 8cbd 5a81 cf3d e9f4 bfbd 85b0 89bc
00000270: 5a69 19be 6c44 86be f9cd c63e 2a5f 44be
00000280: cf06 34be de56 ab3d 8341 2f3e e1fe 133d
00000290: 842d 943d a462 4cbe cbb3 71be 2a52 703e
000002a0: 1bc2 b4be 81ae 59be f590 703e 76dd 2e3d
000002b0: c8af 36bc 2bee a6bc 7532 0abe 6bd4 9fbd
000002c0: b3ae babd efcc 64be c9f5 c1bc fc67 bdbe
000002d0: d75e d83e 0cab 233d 045f f43a 442f 1c3f
000002e0: 084e 103e eccd c4bd c2da 1b3d bce8 923e
000002f0: e256 afbd f7df 1dbe 6222 2abf 3344 1a3d
00000300: fc09 c2bd ba05 dabc d01f c93d 17f1 c13e
00000310: 0c25 6b3b 7d20 5fbe dfca 343f c9ad 7fbe
00000320: 2c56 82bc 6995 ea3c adfa 853d c3e5 93be
00000330: 5a77 793e 94bf 4ebd 390c 4abe 4b7e 783e
00000340: 62fc 95bd dfb9 3dbd 2fac ec3c a4b6 d4be
00000350: 3708 a9bd 1f5c eebb 191d b0be dc80 6fbe
00000360: fa7d cf3d 2826 32be 75e5 3fbd a753 a0bd
00000370: 0667 d6be 3138 01be bfa0 303e 6273 f1bd
00000380: 1b33 60be bdcd 233e 9c46 9fbe 4741 c2be
00000390: f089 9f3e 3f61 a93c 5822 b2bd bd53 003f
000003a0: 7f51 d8bd 2b71 b7bb 80b2 fb3d 3181 dabe
000003b0: d70a de3c 9e5d 4ebe bff5 c5be e922 babe
000003c0: a9c0 ee3d 4afb 8f3d 94db 98bc 2040 12be
000003d0: 3e23 b63d 3e04 aa3d 2883 803e 8b08 1dbc
000003e0: 8f39 22bd 99d1 003d bd42 b1bd 561d 533e
000003f0: bbe7 09be 42f5 5a3d b420 34bb b925 f0bd

cnn_apt.0.bias f4 [100]
-0.4358756 -0.2487857 -0.0029732895 -0.16360597 0.1680242 -0.302381 -0.032702297 -0.08007672
0.018254712 -0.058302216 -0.7585074 -0.17908235 -0.61935574 -0.61147994 -0.3658586 -0.07929888
-0.27824676 -1.0752487 -0.06259749 0.032181688 -0.14009354 -0.3213237 -0.18216577 0.1536766
-0.77680445 -0.363458 -0.58412176 -0.4104767 -0.025029244 -0.13065389 -0.078885496 -0.1925309
-0.07547945 -0.11799573 -0.27738786 -0.34342602 0.16091156 -0.6412984 -0.3411538 -0.052444592
-0.043161742 -0.48226497 -0.32079428 -0.111746974 -0.23481199 0.16243051 -0.19504805 -0.096896775
-0.13715811 -0.2612233 0.044061363 0.008832135 -0.05735613 0.014416765 -0.33016297 0.1680625
-0.41257635 -0.28270593 -0.21145102 -0.10873323 -0.18200444 -0.39299443 0.10686772 -0.18104012
-0.0044821766 -0.509439 -0.13128112 -0.35311085 -0.12036158 0.07895247 0.0064796666 -0.038679566
0.09697446 -0.34749106 -0.14872907 -0.42050114 -0.58922434 -0.26073784 -0.18584536 -0.13996595
-0.23672572 -0.3072225 -0.10023325 -0.046316013 -0.5064561 -0.12017547 -0.5069272 -0.6725072
0.04168636 -0.06645024 -0.32941478 -0.029772567 -0.012876863 -0.46272624 0.15470351 -0.33327246
-0.037265282 -0.050495554 -0.67194396 -0.5596726
00000000: 162b dfbe aec1 7ebe 85db 42bb 5388 27be
00000010: 890e 2c3e afd1 9abe d8f2 05bd 43ff a3bd
00000020: e88a 953c 4ece 6ebd 8a2d 42bf 5d61 37be
00000030: 198e 1ebf f389 1cbf d251 bbbe 7467 a2bd
00000040: 5c76 8ebe c0a1 89bf 1d33 80bd f2d0 033d
00000050: ae74 0fbe 8a84 a4be aa89 3abe 665d 1d3e
00000060: a8dc 46bf 2b17 babe 0189 15bf 012a d2be
00000070: 210a cdbc 22ca 05be b88e a1bd d226 45be
00000080: f894 9abd bfa7 f1bd c805 8ebe 89d5 afbe
00000090: 00c6 243e 222c 24bf b6ab aebe 24d0 56bd
000000a0: 5eca 30bd 6feb f6be 263f a4be 99db e4bd
000000b0: 8e72 70be 2f54 263e adba 47be d171 c6bd
000000c0: 2d73 0cbe 0fbf 85be b079 343d a9b4 103c
000000d0: 43ee 6abd 4c34 6c3c 1f0b a9be 9318 2c3e
000000e0: 353d d3be d5be 90be 9e86 58be 87af debd
000000f0: 5f5f 3abe 9136 c9be 77dd da3d 9562 39be
00000100: 39df 92bb 986a 02bf 8f6e 06be f2ca b4be
00000110: 2280 f6bd d5b1 a13d 6253 d43b 776e 1ebd
00000120: 8c9a c63d 59ea b1be 6f4c 18be ed4b d7be
00000130: 68d7 16bf 6e7f 85be 3f4e 3ebe 3c53 0fbe
00000140: 3a68 72be 444c 9dbe 1747 cdbd dcb5 3dbd
00000150: 1ba7 01bf 8f1e f6bd fbc5 01bf 6f29 2cbf
00000160: 51bf 2a3d 1017 88bd 0ea9 a8be 99e5 f3bc
00000170: 7af9 52bc 74ea ecbe 996a 1e3e b0a2 aabe
00000180: 7ba3 18bd 6dd4 4ebd 8504 2cbf b446 0fbf
