src/models/models_to_evaluate/04132020.pth (torch_old, 57567 bytes, 9 tensors)

cnn_apt_1.weight f4 [100, 40, 3]
-0.045487814 -0.06355315 0.25338134 -0.10353403 0.08414928 -0.14789124 0.034973707 -0.0369475
0.09340801 -0.09079071 -0.2101306 -0.008690941 -0.010918203 0.02537366 0.1579918 -0.14141114
0.047653507 -0.10865022 0.2391658 -0.0712167 -0.021705959 -0.023670489 0.029895438 -0.07192515
-0.049987 -0.10246422 -0.10704896 -0.120289184 0.0021343434 -0.050851263 -0.018990846 -0.0415124
0.033047583 -0.180261 0.03225741 0.18428932 -0.10513757 0.04872472 -0.054796647 0.049945086
-0.18970926 0.0013941512 -0.0929627 0.028774401 -0.0022289483 -0.00027886144 -0.08066413 -0.020911917
-0.06801537 -0.13770989 -0.03615169 0.02841195 -0.1671584 -0.15267603 -0.033823583 0.010531829
0.045176305 0.014641131 -0.19987546 -0.015204366 -0.08647308 -0.1723125 -0.20989035 0.074640155
-0.0013379382 0.020384712 -0.05792967 0.025866587 0.05127309 0.17739078 -0.117679626 0.07319478
0.024664007 -0.019547336 -0.07923822 -0.059714336 -0.075705335 -0.07277391 -0.05554916 -0.035471395
0.06137146 0.11049654 -0.114199415 -0.059252303 -0.13910958 -0.059862345 0.06492053 0.045978338
-0.018021032 0.19375113 -0.11200946 -0.09298049 0.061545044 0.18612193 -0.021457426 0.006941279
-0.16336846 -0.13867636 -0.023241889 -0.15444474 0.15647498 0.13896132 0.14064322 -0.22124742
0.10493512 -0.104887135 -0.08707153 -0.049464293 -0.07204443 -0.0394425 0.007340744 0.13055253
-0.119398154 -0.13661896 -0.15824595 -0.0017581881 -0.1503272 0.0645131 0.075313516 -0.016725454
0.10788658 0.11550582 0.060231123 0.062504835 -0.09052487 0.042495247 0.030095804 0.016591247
0.01501248 -0.04805498 0.22447804 0.09713995 0.07476285 -0.0675965 -0.02126558 -0.1492798
0.0757119 -0.018600801 -0.03844277 0.1115334 0.005931922 0.09796698 0.081245296 0.01307373
-0.0091327615 -0.025261793 -0.111998215 -0.045815874 0.14348881 0.047807667 0.13694161 -0.0032774631
-0.0073590213 -0.009237313 0.07709058 0.07739172 -0.052091707 0.016250435 0.0669753 0.07010104
0.041775506 0.019342296 -0.060757395 -0.08959609 -0.061119046 -0.017145908 0.15199582 0.099032514
-0.02970082 0.20144308 -0.07664475 0.0376312 0.11678583 -0.0073881843 0.004115391 0.18500613
0.0567723 0.12565744 -0.10761389 0.0017289278 -0.086391136 -0.02178041 0.0051368987 -0.03321758
0.041443605 0.047584716 -0.061750464 -0.052875448 -0.065181516 -0.024978556 -0.0056659635 -0.11686266
0.05641754 0.074542984 -0.036496554 0.11960866 -0.019158654 -0.1079361 0.13185799 0.021908818
-0.03512038 0.0980864 -0.07151651 0.0638059 0.07220759 -0.066438556 -0.041334014 0.123929076
-0.17059799 -0.078657195 -0.036553133 -0.07403618 -0.09012351 0.04704899 0.032308586 -0.063280426
0.09643987 -0.038732786 -0.07529536 -0.048963584 0.046797913 -0.13231052 0.17527644 -0.11913821
0.009272523 0.0021453083 -0.080018334 -0.07176642 0.023896607 -0.108517475 -0.12274778 0.03682931
-0.0388377 -0.10009342 -0.044427034 0.24804774 -0.009351247 0.17607483 -0.018004654 0.0870717
0.025509948 -0.07409167 -0.13291416 0.09663818 0.03921659 -0.00052009366 -0.08072212 -0.053536065
0.026044158 -0.039418437 -0.16306813 0.120035365 -0.035647526 -0.25813842 -0.041752927 0.020560155
00000000: 6e51 3abd 2728 82bd 33bb 813e a609 d4bd
00000010: 7556 ac3d cd70 17be 9740 0f3d 4356 17bd
00000020: b34c bf3d 7bf0 b9bd 7a2c 57be 7364 0ebc
00000030: 43e2 32bc 6cdc cf3c 9ac8 213e 15ce 10be
00000040: 5330 433d 0284 debd e1e7 743e 10da 91bd
00000050: b2d0 b1bc 9de8 c1bc 47e7 f43c 7e4d 93bd
00000060: 2bbf 4cbd c3d8 d1bd 7c3c dbbd 2d5a f6bd
00000070: 57e0 0b3b 6a49 50bd b192 9bbc e808 2abd
00000080: e75c 073d 5796 38be 5920 043d 57b6 3c3e
00000090: 5e52 d7bd 9293 473d 7372 60bd 3893 4c3d
000000a0: 2543 42be f4bb b63a 3a63 bebd 4bb8 eb3c
000000b0: 8c13 12bb 2634 92b9 3c33 a5bd 784f abbc
000000c0: a44b 8bbd d203 0dbe cb13 14bd 2ec0 e83c
000000d0: 922b 2bbe 1b57 1cbe 998a 0abd b18d 2c3c
000000e0: ca0a 393d 5be1 6f3c 27ac 4cbe bc1b 79bc
000000f0: cc18 b1bd b072 30be 7fed 56be f0dc 983d
00000100: c25d afba d7fd a63c a947 6dbd 2ae6 d33c
00000110: bb03 523d eea5 353e 0402 f1bd 25e7 953d
00000120: 2c0c ca3c bc21 a0bc a647 a2bd 0597 74bd
00000130: 660b 9bbd 7d0a 95bd 8487 63bd 744a 11bd
00000140: a460 7b3d 034c e23d 62e1 e9bd 8bb2 72bd
00000150: be72 0ebe 3832 75bd 0ef5 843d c853 3c3d
00000160: d8a0 93bc b266 463e 3765 e5bd 8e6c bebd
00000170: a816 7c3d bf96 3e3e 7cc7 afbc ab73 e33b
00000180: 104a 27be 2d01 0ebe c665 bebc c326 1ebe
00000190: fa3a 203e e04b 0e3e c704 103e af8e 62be
000001a0: 39e8 d63d 11cf d6bd 8f52 b2bd 129b 4abd
000001b0: 088c 93bd 758e 21bd a08a f03b 90af 053e
000001c0: 0587 f4bd d7e5 0bbe 3a0b 22be 0173 e6ba
000001d0: 60ef 19be 721f 843d f93d 9a3d d203 89bc
000001e0: a4f3 dc3d 518e ec3d e9b4 763d 8902 803d
000001f0: 1a65 b9bd 7f0f 2e3d 7a8b f63c 5eea 873c
00000200: e8f6 753c 4cd5 44bd 92dd 653e 4ff1 c63d
00000210: 441d 993d 0970 8abd 2735 aebc cedc 18be
00000220: d70e 9b3d b560 98bc 2a76 1dbd a06b e43d
00000230: 9160 c23b e9a2 c83d ef63 a63d 3333 563c
00000240: 94a1 15bc d2f1 cebc 525f e5bd 6da9 3bbd
00000250: bbee 123e f9d1 433d 6c3a 0c3e b5ca 56bb
00000260: f223 f1bb 1958 17bc aae1 9d3d 8d7f 9e3d
00000270: 1d5e 55bd a21f 853c 592a 893d 2291 8f3d
00000280: cb1c 2b3d bc73 9e3c bfdc 78bd 287e b7bd
00000290: f757 7abd 9375 8cbc cba4 1b3e 8fd1 ca3d
000002a0: 224f f3bc 1847 4e3e ecf7 9cbd 2c23 1a3d
000002b0: 692d ef3d 9518 f2bb 67da 863b 3f72 3d3e
000002c0: 128a 683d 58ac 003e ac64 dcbd 319d e23a
000002d0: d6ed b0bd d56c b2bc 6e53 a83b 280f 08bd
000002e0: c5c0 293d 31e8 423d 0eee 7cbd ed93 58bd
000002f0: e37d 85bd d49f ccbc 8ca9 b9bb b155 efbd
00000300: 1416 673d fea9 983d 697d 15bd 63f5 f43d
00000310: 9cf2 9cbc 9a0d ddbd c805 073e 1f7a b33c
00000320: 63da 0fbd 86e1 c83d 3f77 92bd abac 823d
00000330: 93e1 933d f010 88bd db4d 29bd 87ce fd3d
00000340: 3db1 2ebe 0617 a1bd bdb8 15bd 48a0 97bd
00000350: ad92 b8bd 71b6 403d 0256 043d 2b99 81bd
00000360: 4482 c53d 45a6 1ebd 7434 9abd 0a8e 48bd
00000370: 2baf 3f3d 697c 07be ab7b 333e bcfe f3bd
00000380: c8eb 173c 4d98 0c3b a7e0 a3bd 46fa 92bd
00000390: d1c2 c33c 693e debd 3063 fbbd 55da 163d
000003a0: 4814 1fbd c7fd ccbd 1ff9 35bd 3a00 7e3e
000003b0: f935 19bc f64c 343e 7f7e 93bc a652 b23d
000003c0: 3dfa d03c 60bd 97bd a61a 08be 3dea c53d
000003d0: 93a1 203d e556 08ba a451 a5bd a248 5bbd
000003e0: 8f5a d53c 3a75 21bd 55fb 26be 1ad5 f53d
000003f0: 2403 12bd b82a 84be 1e05 2bbd c56d a83c

cnn_apt_1.bias f4 [100]
-0.0457607 0.035027925 -0.28877705 0.004966564 -0.11257074 -0.06555207 -0.044583764 -0.19118477
-0.2757856 -0.09025378 -0.08150577 -0.10690042 -0.09282787 -0.11919341 -0.24541524 -0.07813531
-0.2583 -0.009201488 -0.35723364 -0.12154875 -0.1983728 0.1527213 -0.18454431 -0.25761518
-0.0820427 0.061362825 -0.17164686 -0.33652794 -0.0154528925 -0.028755121 -0.019457057 -0.16550511
0.06379479 0.13967162 0.06372099 -0.53657824 -0.066755824 -0.1018759 -0.07631311 -0.07571571
-0.009931728 -0.118353695 -0.21282713 -0.08503351 -0.032684233 -0.14474452 -0.34760287 -0.0542946
-0.09256302 -0.071203366 -0.061092496 -0.14518714 0.00931604 0.0366183 -0.14034949 -0.1330616
0.11373122 -0.059568457 -0.3431644 -0.07597634 -0.014365582 -0.35535777 -0.6617371 -0.16441904
-0.08042697 -0.3657137 -0.025793478 -0.16527727 0.047195874 -0.16054748 -0.09950933 -0.088261776
-0.1723916 -0.15019776 -0.07607868 -0.16142638 0.018621063 -0.052827496 -0.23712465 -0.36639112
-0.020849813 -0.17698133 -0.19293706 -0.114197835 -0.06264927 0.0011975858 -0.06694806 -0.12841676
-0.15281503 -0.3556648 -0.06287642 -0.11627033 -0.14575161 -0.053885974 -0.07773942 -0.020129256
-0.10158556 -0.005895374 0.020221466 -0.020583386
00000000: 926f 3bbd 7179 0f3d 96da 93be 8fbe a23b
00000010: 7d8b e6bd 2a40 86bd 779d 36bd f1c5 43be
00000020: c533 8dbe f9d6 b8bd 7fec a6bd 9bee dabd
00000030: 8a1c bebd ad1b f4bd 224e 7bbe 6805 a0bd
00000040: e63f 84be d7c1 16bc 54e7 b6be 8dee f8bd
00000050: 3d22 4bbe f962 1c3e 2ff9 3cbe 23e6 83be
00000060: 0106 a8bd 9657 7b3d 32c4 2fbe 644d acbe
00000070: 212e 7dbc dc8f ebbc 6864 9fbc 2c7a 29be
00000080: d8a6 823d 1406 0f3e 2780 823d 315d 09bf
00000090: 47b7 88bd 50a4 d0bd 0c4a 9cbd d710 9bbd
000000a0: b0b8 22bc 6c63 f2bd 5bef 59be 0d26 aebd
000000b0: e7df 05bd e837 14be 01f9 b1be 0464 5ebd
000000c0: ae91 bdbd 12d3 91bd 203c 7abd f0ab 14be
000000d0: 4ea2 183c 12fd 153d c7b7 0fbe 4d41 08be
000000e0: eaeb e83d 0efe 73bd 3fb3 afbe 7c99 9bbd
000000f0: 9e5d 6bbc 74f1 b5be 9a67 29bf 775d 28be
00000100: e5b6 a4bd d33e bbbe d84c d3bc 723e 29be
00000110: 7650 413d 8f66 24be 8ccb cbbd 97c2 b4bd
00000120: 6c87 30be 71cd 19be 24cf 9bbd f54c 25be
00000130: 338b 983c a561 58bd ced0 72be 9e97 bbbe
00000140: 3acd aabc 983a 35be 4b91 45be 8ee0 e9bd
00000150: 434e 80bd 50f8 9c3a 111c 89bd af7f 03be
00000160: 8b7b 1cbe b219 b6be 5ac5 80bd 241f eebd
00000170: e93f 15be 8ab7 5cbd d835 9fbd 1ce6 a4bc
00000180: 170c d0bd fb2d c1bb 7da7 a53c 7d9e a8bc

cnn_pep_1.weight f4 [50, 8, 3]
-0.56951064 -0.2832785 -0.10891601 -0.04295248 -0.24297486 0.33139384 -0.005765034 -0.24384539
0.24684143 0.08454244 -0.29961997 0.058301628 0.23255695 0.04918763 0.21498314 0.08003271
-0.43529126 0.07990936 -0.16933924 -0.3595665 0.32668152 -0.036046013 -0.38121593 0.32646987
0.090893924 0.111958236 0.092910305 -0.19022985 -0.121052355 0.045558244 -0.113967605 0.04804638
-0.118174486 -0.01692128 0.10061078 0.021894556 0.19026883 0.19787599 -0.018306652 0.378259
0.123435736 -0.16495584 0.1824848 -0.056392275 -0.026499156 0.1419627 0.108939245 -0.19648005
-0.09099075 0.22079127 -0.20128657 -0.045062523 -0.13533235 -0.19724146 -0.15236565 -0.18554011
-0.0018422338 0.051834032 -0.12661593 -0.20328763 -0.07643805 0.18967146 -0.092305996 0.113715924
-0.27874354 -0.19712627 -0.18411934 0.4086389 0.39132118 0.030638283 -0.13174331 -0.054836176
0.21529366 0.13086127 -0.39688143 0.053116966 0.31275573 0.08591413 0.15947086 0.04147056
0.21876472 0.14529628 0.1287842 0.19440947 0.17091388 0.29639563 -0.0949876 0.18421294
-0.032793287 0.27599636 -0.22254735 -0.011918403 0.34162384 -0.12235366 -0.057903156 0.32618043
-0.1269673 -0.22248864 -0.08696524 0.11335563 -0.13220051 -0.16070886 -0.081480145 -0.13523248
-0.050413705 0.13583915 -0.020435806 -0.111394286 -0.15018156 0.3179978 0.24392557 -0.033875905
0.08954422 0.013622596 -0.25007463 0.38953456 0.27827173 0.029489972 -0.00064248353 -0.076133
-0.10262173 0.09025838 0.1644923 0.08226919 -0.07015358 0.070653744 0.054574724 -0.17538483
0.010106897 -0.13262376 -0.060824107 -0.12987323 -0.17164505 -0.14879984 -0.20313436 0.19989671
-0.008508843 0.11788678 0.13799699 -0.009139123 -0.032581072 -0.04859067 -0.020275932 -0.17363407
-0.338559 0.21744967 -0.34455836 -0.36799794 0.7651441 -0.07392359 -0.088717714 0.55852187
-0.08147052 -0.18054935 0.18993367 -0.03232144 -0.08295212 0.17202312 0.11453994 -0.16424625
0.52914363 0.08196554 -0.09434138 0.16597874 0.0652742 -0.059603665 0.074256465 -0.027542207
0.3850027 -0.06429901 0.16882873 -0.18379846 -0.04996278 0.19436254 0.17120822 -0.19673537
0.3119401 -0.21639165 -0.34361333 -0.055473745 -0.14501756 0.062153082 0.08224445 0.123612314
0.19736129 -0.013452782 0.0019849553 -0.14451505 0.09816131 -0.017286073 -0.2337138 0.047467835
-0.35929528 0.11158865 -0.047469202 0.39736056 -0.033747174 0.17200324 -0.110144846 -0.048293374
-0.0119198235 0.23681381 0.10027341 0.25118592 0.008786721 0.012313782 0.22402236 -0.18055558
-0.24246639 0.16534533 -0.21757805 -0.09088999 0.09285306 0.14145306 -0.14691266 0.508103
0.12013057 -0.18927443 -0.20512113 -0.2642737 -0.26981026 0.006513152 -0.14343642 0.036374662
-0.06954611 -0.29160887 -0.2104861 0.19119377 -0.2758789 -0.1089301 0.2270133 -0.24103884
-0.25241572 0.16843458 -0.15913664 -0.086717114 -0.01048748 -0.16612965 -0.06396065 0.19955724
-0.13357791 -0.05483984 0.052808654 -0.07640422 -0.05292372 0.016163602 0.031322386 0.09731549
0.113306955 0.06131587 -0.1445025 -0.038198207 -0.12721384 0.39595482 0.13485818 0.28355312
00000000: 73cb 11bf e109 91be 5b0f dfbd f1ee 2fbd
00000010: 67ce 78be 74ac a93e 9ce8 bcbb 9bb2 79be
00000020: 00c4 7c3e 9624 ad3d ca67 99be b0cd 6e3d
00000030: 6923 6e3e f878 493d 8a24 5c3e 31e8 a33d
00000040: 7fde debe 85a7 a33d 4467 2dbe 1a19 b8be
00000050: cd42 a73e fca4 13bd bc2e c3be 0f27 a73e
00000060: 9826 ba3d 5c4a e53d c247 be3d 9dcb 42be
00000070: 4cea f7bd 489b 3a3d d967 e9bd 48cc 443d
00000080: 7705 f2bd 7f9e 8abc 060d ce3d 365c b33c
00000090: d5d5 423e 01a0 4a3e d5f7 95bc 2aab c13e
000000a0: e0cb fc3d 2fea 28be 4cdd 3a3e 96fb 66bd
000000b0: c214 d9bc ac5e 113e 8a1b df3d 1132 49be
000000c0: 5c59 babd 1b17 623e 111e 4ebe 7b93 38bd
000000d0: 9094 0abe aaf9 49be be05 1cbe 3afe 3dbe
000000e0: 1c77 f1ba ec4f 543d 9ba7 01be a22a 50be
000000f0: 8d8b 9cbd 3c39 423e ed0a bdbd e5e3 e83d
00000100: 79b7 8ebe 78db 49be c889 3cbe 1e39 d13e
00000110: 405b c83e 23fd fa3c b8e7 06be e69b 60bd
00000120: f175 5c3e 7f00 063e 0b34 cbbe 2d91 593d
00000130: 8521 a03e bff3 af3d 544c 233e 09dd 293d
00000140: dc03 603e 8cc8 143e 01e0 033e 4713 473e
00000150: 0c04 2f3e 2bc1 973e dc88 c2bd 51a2 3c3e
00000160: 4152 06bd 654f 8d3e 74e3 63be 6845 43bc
00000170: 52e9 ae3e 8e94 fabd dc2b 6dbd 1f01 a73e
00000180: b703 02be 10d4 63be d51a b2bd ff26 e83d
00000190: 925f 07be dd90 24be 10df a6bd 627a 0abe
000001a0: 9a7e 4ebd 6b19 0b3e fe68 a7bc b022 e4bd
000001b0: 32c9 19be 9cd0 a23e a0c7 793e 76c1 0abd
000001c0: f662 b73d 4f31 5f3c c809 80be 1371 c73e
000001d0: a279 8e3e f494 f13c 576c 28ba 9eeb 9bbd
000001e0: 572b d2bd 63d9 b83d ab70 283e c07c a83d
000001f0: aeac 8fbd e9b2 903d bf89 5f3d 1598 33be
00000200: 6697 253c 86ce 07be b322 79bd 7dfd 04be
00000210: b8c3 2fbe fc5e 18be 7402 50be b9b1 4c3e
00000220: ad68 0bbc a06e f13d 154f 0d3e 43bc 15bc
00000230: bb73 05bd 0307 47bd b619 a6bc 21cd 31be
00000240: 9b57 adbe 20ab 5e3e f469 b0be 3a6a bcbe
00000250: 7ce0 433f 4065 97bd a2b1 b5bd 4afb 0e3f
00000260: 04da a6bd eee1 38be f97d 423e 7c63 04bd
00000270: cde2 a9bd d426 303e eb93 ea3d 2b30 28be
00000280: f575 073f 8ddd a73d 0e36 c1bd 55f6 293e
00000290: 7bae 853d f922 74bd c613 983d 32a0 e1bc
000002a0: 131f c53e 33af 83bd 70e1 2c3e aa35 3cbe
000002b0: c6a5 4cbd f906 473e 3551 2f3e ff74 49be
000002c0: 9db6 9f3e c695 5dbe 16ee afbe 7038 63bd
000002d0: 7c7f 14be 3b94 7e3d c76f a83d 7428 fd3d
000002e0: 1419 4a3e 0f69 5cbc 0616 023b c1fb 13be
000002f0: cc08 c93d 869b 8dbc ac52 6fbe a26d 423d
00000300: 8df5 b7be 9788 e43d 116f 42bd d872 cb3e
00000310: 7a3a 0abd 9e21 303e 9f93 e1bd 46cf 45bd
00000320: 5d4b 43bc 527f 723e 255c cd3d 719b 803e
00000330: 2ef6 0f3c bfbf 493c 1e66 653e 90e3 38be
00000340: 1c49 78be 4950 293e c8cc 5ebe 8824 babd
00000350: bf29 be3d 12d9 103e 4670 16be 0a13 023f
00000360: 0407 f63d 28d1 41be 460b 52be e24e 87be
00000370: 9224 8abe 476c d53b ffe0 12be 99fd 143d
00000380: 316e 8ebd c24d 95be ab89 57be 4dc8 433e
00000390: 0040 8dbe bf16 dfbd 2d76 683e e3d2 76be
000003a0: a23c 81be 1d7a 2c3e b7f4 22be be98 b1bd
000003b0: aed3 2bbc e41d 2abe cdfd 82bd bc58 4c3e
000003c0: a6c8 08be bd9f 60bd e34d 583d d179 9cbd
000003d0: 8bc6 58bd 8869 843c e74b 003d 584d c73d
000003e0: 7a0d e83d 5a26 7b3d 77f8 13be b975 1cbd
000003f0: 5844 02be 97ba ca3e 4318 0a3e e02d 913e

cnn_pep_1.bias f4 [50]
0.053831313 -0.20297909 -0.03912333 -0.22359416 -0.03950106 -0.19984698 -0.26260316 -0.19082002
-0.32242334 0.39132673 -0.14588484 0.0403799 -0.02594262 -0.21882845 -0.06833693 0.07346803
-0.10581305 0.05746168 0.14666143 0.18431035 0.23250961 -0.30061814 -0.24254295 -0.18021925
0.045911774 -0.19852737 -0.18909773 -0.14822671 -0.2727397 -0.22008368 -0.07291248 -0.0035509912
-0.1404783 -0.11433611 0.023836216 -0.31914607 -0.08377991 -0.13951282 -0.20528927 -0.0706967
0.111373395 -0.27058974 -0.21807422 -0.13950792 0.1360319 0.071536526 0.101917945 0.0956201
-0.028380763 -0.19420646
00000000: 397e 5c3d c0d9 4fbe c93f 20bd def5 64be
00000010: ddcb 21bd b0a4 4cbe ec73 86be 5366 43be
00000020: ac14 a5be fa5b c83e d662 15be 6565 253d
00000030: 9e85 d4bc 9114 60be 3bf4 8bbd 6876 963d
00000040: 83b4 d8bd f05c 6b3d 6a2e 163e dabb 3c3e
00000050: 0017 6e3e 9fea 99be 2e5d 78be 658b 38be
00000060: fc0d 3c3d c24a 4bbe d6a2 41be bec8 17be
00000070: 8aa4 8bbe 9e5d 61be 2353 95bd bfb7 68bb
00000080: 8bd9 0fbe 0d29 eabd 2b44 c33c 1d67 a3be
00000090: cd94 abbd 73dc 0ebe 5a37 52be 6ec9 90bd
000000a0: bc17 e43d bd8a 8abe d94e 5fbe 2adb 0ebe
000000b0: f24b 0b3e be81 923d 5bba d03d 79d4 c33d
000000c0: c67e e8bc 0fde 46be

cnn_apt.0.weight f4 [100, 40, 3]
-0.045487814 -0.06355315 0.25338134 -0.10353403 0.08414928 -0.14789124 0.034973707 -0.0369475
0.09340801 -0.09079071 -0.2101306 -0.008690941 -0.010918203 0.02537366 0.1579918 -0.14141114
0.047653507 -0.10865022 0.2391658 -0.0712167 -0.021705959 -0.023670489 0.029895438 -0.07192515
-0.049987 -0.10246422 -0.10704896 -0.120289184 0.0021343434 -0.050851263 -0.018990846 -0.0415124
0.033047583 -0.180261 0.03225741 0.18428932 -0.10513757 0.04872472 -0.054796647 0.049945086
-0.18970926 0.0013941512 -0.0929627 0.028774401 -0.0022289483 -0.00027886144 -0.08066413 -0.020911917
-0.06801537 -0.13770989 -0.03615169 0.02841195 -0.1671584 -0.15267603 -0.033823583 0.010531829
0.045176305 0.014641131 -0.19987546 -0.015204366 -0.08647308 -0.1723125 -0.20989035 0.074640155
-0.0013379382 0.020384712 -0.05792967 0.025866587 0.05127309 0.17739078 -0.117679626 0.07319478
0.024664007 -0.019547336 -0.07923822 -0.059714336 -0.075705335 -0.07277391 -0.05554916 -0.035471395
0.06137146 0.11049654 -0.114199415 -0.059252303 -0.13910958 -0.059862345 0.06492053 0.045978338
-0.018021032 0.19375113 -0.11200946 -0.09298049 0.061545044 0.18612193 -0.021457426 0.006941279
-0.16336846 -0.13867636 -0.023241889 -0.15444474 0.15647498 0.13896132 0.14064322 -0.22124742
0.10493512 -0.104887135 -0.08707153 -0.049464293 -0.07204443 -0.0394425 0.007340744 0.13055253
-0.119398154 -0.13661896 -0.15824595 -0.0017581881 -0.1503272 0.0645131 0.075313516 -0.016725454
0.10788658 0.11550582 0.060231123 0.062504835 -0.09052487 0.042495247 0.030095804 0.016591247
0.01501248 -0.04805498 0.22447804 0.09713995 0.07476285 -0.0675965 -0.02126558 -0.1492798
0.0757119 -0.018600801 -0.03844277 0.1115334 0.005931922 0.09796698 0.081245296 0.01307373
-0.0091327615 -0.025261793 -0.111998215 -0.045815874 0.14348881 0.047807667 0.13694161 -0.0032774631
-0.0073590213 -0.009237313 0.07709058 0.07739172 -0.052091707 0.016250435 0.0669753 0.07010104
0.041775506 0.019342296 -0.060757395 -0.08959609 -0.061119046 -0.017145908 0.15199582 0.099032514
-0.02970082 0.20144308 -0.07664475 0.0376312 0.11678583 -0.0073881843 0.004115391 0.18500613
0.0567723 0.12565744 -0.10761389 0.0017289278 -0.086391136 -0.02178041 0.0051368987 -0.03321758
0.041443605 0.047584716 -0.061750464 -0.052875448 -0.065181516 -0.024978556 -0.0056659635 -0.11686266
0.05641754 0.074542984 -0.036496554 0.11960866 -0.019158654 -0.1079361 0.13185799 0.021908818
-0.03512038 0.0980864 -0.07151651 0.0638059 0.07220759 -0.066438556 -0.041334014 0.123929076
-0.17059799 -0.078657195 -0.036553133 -0.07403618 -0.09012351 0.04704899 0.032308586 -0.063280426
0.09643987 -0.038732786 -0.07529536 -0.048963584 0.046797913 -0.13231052 0.17527644 -0.11913821
0.009272523 0.0021453083 -0.080018334 -0.07176642 0.023896607 -0.108517475 -0.12274778 0.03682931
-0.0388377 -0.10009342 -0.044427034 0.24804774 -0.009351247 0.17607483 -0.018004654 0.0870717
0.025509948 -0.07409167 -0.13291416 0.09663818 0.03921659 -0.00052009366 -0.08072212 -0.053536065
0.026044158 -0.039418437 -0.16306813 0.120035365 -0.035647526 -0.25813842 -0.041752927 0.020560155
00000000: 6e51 3abd 2728 82bd 33bb 813e a609 d4bd
00000010: 7556 ac3d cd70 17be 9740 0f3d 4356 17bd
00000020: b34c bf3d 7bf0 b9bd 7a2c 57be 7364 0ebc
00000030: 43e2 32bc 6cdc cf3c 9ac8 213e 15ce 10be
00000040: 5330 433d 0284 debd e1e7 743e 10da 91bd
00000050: b2d0 b1bc 9de8 c1bc 47e7 f43c 7e4d 93bd
00000060: 2bbf 4cbd c3d8 d1bd 7c3c dbbd 2d5a f6bd
00000070: 57e0 0b3b 6a49 50bd b192 9bbc e808 2abd
00000080: e75c 073d 5796 38be 5920 043d 57b6 3c3e
00000090: 5e52 d7bd 9293 473d 7372 60bd 3893 4c3d
000000a0: 2543 42be f4bb b63a 3a63 bebd 4bb8 eb3c
000000b0: 8c13 12bb 2634 92b9 3c33 a5bd 784f abbc
000000c0: a44b 8bbd d203 0dbe cb13 14bd 2ec0 e83c
000000d0: 922b 2bbe 1b57 1cbe 998a 0abd b18d 2c3c
000000e0: ca0a 393d 5be1 6f3c 27ac 4cbe bc1b 79bc
000000f0: cc18 b1bd b072 30be 7fed 56be f0dc 983d
00000100: c25d afba d7fd a63c a947 6dbd 2ae6 d33c
00000110: bb03 523d eea5 353e 0402 f1bd 25e7 953d
00000120: 2c0c ca3c bc21 a0bc a647 a2bd 0597 74bd
00000130: 660b 9bbd 7d0a 95bd 8487 63bd 744a 11bd
00000140: a460 7b3d 034c e23d 62e1 e9bd 8bb2 72bd
00000150: be72 0ebe 3832 75bd 0ef5 843d c853 3c3d
00000160: d8a0 93bc b266 463e 3765 e5bd 8e6c bebd
00000170: a816 7c3d bf96 3e3e 7cc7 afbc ab73 e33b
00000180: 104a 27be 2d01 0ebe c665 bebc c326 1ebe
00000190: fa3a 203e e04b 0e3e c704 103e af8e 62be
000001a0: 39e8 d63d 11cf d6bd 8f52 b2bd 129b 4abd
000001b0: 088c 93bd 758e 21bd a08a f03b 90af 053e
000001c0: 0587 f4bd d7e5 0bbe 3a0b 22be 0173 e6ba
000001d0: 60ef 19be 721f 843d f93d 9a3d d203 89bc
000001e0: a4f3 dc3d 518e ec3d e9b4 763d 8902 803d
000001f0: 1a65 b9bd 7f0f 2e3d 7a8b f63c 5eea 873c
00000200: e8f6 753c 4cd5 44bd 92dd 653e 4ff1 c63d
00000210: 441d 993d 0970 8abd 2735 aebc cedc 18be
00000220: d70e 9b3d b560 98bc 2a76 1dbd a06b e43d
00000230: 9160 c23b e9a2 c83d ef63 a63d 3333 563c
00000240: 94a1 15bc d2f1 cebc 525f e5bd 6da9 3bbd
00000250: bbee 123e f9d1 433d 6c3a 0c3e b5ca 56bb
00000260: f223 f1bb 1958 17bc aae1 9d3d 8d7f 9e3d
00000270: 1d5e 55bd a21f 853c 592a 893d 2291 8f3d
00000280: cb1c 2b3d bc73 9e3c bfdc 78bd 287e b7bd
00000290: f757 7abd 9375 8cbc cba4 1b3e 8fd1 ca3d
000002a0: 224f f3bc 1847 4e3e ecf7 9cbd 2c23 1a3d
000002b0: 692d ef3d 9518 f2bb 67da 863b 3f72 3d3e
000002c0: 128a 683d 58ac 003e ac64 dcbd 319d e23a
000002d0: d6ed b0bd d56c b2bc 6e53 a83b 280f 08bd
000002e0: c5c0 293d 31e8 423d 0eee 7cbd ed93 58bd
000002f0: e37d 85bd d49f ccbc 8ca9 b9bb b155 efbd
00000300: 1416 673d fea9 983d 697d 15bd 63f5 f43d
00000310: 9cf2 9cbc 9a0d ddbd c805 073e 1f7a b33c
00000320: 63da 0fbd 86e1 c83d 3f77 92bd abac 823d
00000330: 93e1 933d f010 88bd db4d 29bd 87ce fd3d
00000340: 3db1 2ebe 0617 a1bd bdb8 15bd 48a0 97bd
00000350: ad92 b8bd 71b6 403d 0256 043d 2b99 81bd
00000360: 4482 c53d 45a6 1ebd 7434 9abd 0a8e 48bd
00000370: 2baf 3f3d 697c 07be ab7b 333e bcfe f3bd
00000380: c8eb 173c 4d98 0c3b a7e0 a3bd 46fa 92bd
00000390: d1c2 c33c 693e debd 3063 fbbd 55da 163d
000003a0: 4814 1fbd c7fd ccbd 1ff9 35bd 3a00 7e3e
000003b0: f935 19bc f64c 343e 7f7e 93bc a652 b23d
000003c0: 3dfa d03c 60bd 97bd a61a 08be 3dea c53d
000003d0: 93a1 203d e556 08ba a451 a5bd a248 5bbd
000003e0: 8f5a d53c 3a75 21bd 55fb 26be 1ad5 f53d
000003f0: 2403 12bd b82a 84be 1e05 2bbd c56d a83c

cnn_apt.0.bias f4 [100]
-0.0457607 0.035027925 -0.28877705 0.004966564 -0.11257074 -0.06555207 -0.044583764 -0.19118477
-0.2757856 -0.09025378 -0.08150577 -0.10690042 -0.09282787 -0.11919341 -0.24541524 -0.07813531
-0.2583 -0.009201488 -0.35723364 -0.12154875 -0.1983728 0.1527213 -0.18454431 -0.25761518
-0.0820427 0.061362825 -0.17164686 -0.33652794 -0.0154528925 -0.028755121 -0.019457057 -0.16550511
0.06379479 0.13967162 0.06372099 -0.53657824 -0.066755824 -0.1018759 -0.07631311 -0.07571571
-0.009931728 -0.118353695 -0.21282713 -0.08503351 -0.032684233 -0.14474452 -0.34760287 -0.0542946
-0.09256302 -0.071203366 -0.061092496 -0.14518714 0.00931604 0.0366183 -0.14034949 -0.1330616
0.11373122 -0.059568457 -0.3431644 -0.07597634 -0.014365582 -0.35535777 -0.6617371 -0.16441904
-0.08042697 -0.3657137 -0.025793478 -0.16527727 0.047195874 -0.16054748 -0.09950933 -0.088261776
-0.1723916 -0.15019776 -0.07607868 -0.16142638 0.018621063 -0.052827496 -0.23712465 -0.36639112
-0.020849813 -0.17698133 -0.19293706 -0.114197835 -0.06264927 0.0011975858 -0.06694806 -0.12841676
-0.15281503 -0.3556648 -0.06287642 -0.11627033 -0.14575161 -0.053885974 -0.07773942 -0.020129256
-0.10158556 -0.005895374 0.020221466 -0.020583386
00000000: 926f 3bbd 7179 0f3d 96da 93be 8fbe a23b
00000010: 7d8b e6bd 2a40 86bd 779d 36bd f1c5 43be
00000020: c533 8dbe f9d6 b8bd 7fec a6bd 9bee dabd
00000030: 8a1c bebd ad1b f4bd 224e 7bbe 6805 a0bd
00000040: e63f 84be d7c1 16bc 54e7 b6be 8dee f8bd
00000050: 3d22 4bbe f962 1c3e 2ff9 3cbe 23e6 83be
00000060: 0106 a8bd 9657 7b3d 32c4 2fbe 644d acbe
00000070: 212e 7dbc dc8f ebbc 6864 9fbc 2c7a 29be
00000080: d8a6 823d 1406 0f3e 2780 823d 315d 09bf
00000090: 47b7 88bd 50a4 d0bd 0c4a 9cbd d710 9bbd
000000a0: b0b8 22bc 6c63 f2bd 5bef 59be 0d26 aebd
000000b0: e7df 05bd e837 14be 01f9 b1be 0464 5ebd
000000c0: ae91 bdbd 12d3 91bd 203c 7abd f0ab 14be
000000d0: 4ea2 183c 12fd 153d c7b7 0fbe 4d41 08be
000000e0: eaeb e83d 0efe 73bd 3fb3 afbe 7c99 9bbd
000000f0: 9e5d 6bbc 74f1 b5be 9a67 29bf 775d 28be
00000100: e5b6 a4bd d33e bbbe d84c d3bc 723e 29be
00000110: 7650 413d 8f66 24be 8ccb cbbd 97c2 b4bd
00000120: 6c87 30be 71cd 19be 24cf 9bbd f54c 25be
00000130: 338b 983c a561 58bd ced0 72be 9e97 bbbe
00000140: 3acd aabc 983a 35be 4b91 45be 8ee0 e9bd
00000150: 434e 80bd 50f8 9c3a 111c 89bd af7f 03be
00000160: 8b7b 1cbe b219 b6be 5ac5 80bd 241f eebd
00000170: e93f 15be 8ab7 5cbd d835 9fbd 1ce6 a4bc
00000180: 170c d0bd fb2d c1bb 7da7 a53c 7d9e a8bc

cnn_pep.0.weight f4 [50, 8, 3]
-0.56951064 -0.2832785 -0.10891601 -0.04295248 -0.24297486 0.33139384 -0.005765034 -0.24384539
0.24684143 0.08454244 -0.29961997 0.058301628 0.23255695 0.04918763 0.21498314 0.08003271
-0.43529126 0.07990936 -0.16933924 -0.3595665 0.32668152 -0.036046013 -0.38121593 0.32646987
0.090893924 0.111958236 0.092910305 -0.19022985 -0.121052355 0.045558244 -0.113967605 0.04804638
-0.118174486 -0.01692128 0.10061078 0.021894556 0.19026883 0.19787599 -0.018306652 0.378259
0.123435736 -0.16495584 0.1824848 -0.056392275 -0.026499156 0.1419627 0.108939245 -0.19648005
-0.09099075 0.22079127 -0.20128657 -0.045062523 -0.13533235 -0.19724146 -0.15236565 -0.18554011
-0.0018422338 0.051834032 -0.12661593 -0.20328763 -0.07643805 0.18967146 -0.092305996 0.113715924
-0.27874354 -0.19712627 -0.18411934 0.4086389 0.39132118 0.030638283 -0.13174331 -0.054836176
0.21529366 0.13086127 -0.39688143 0.053116966 0.31275573 0.08591413 0.15947086 0.04147056
0.21876472 0.14529628 0.1287842 0.19440947 0.17091388 0.29639563 -0.0949876 0.18421294
-0.032793287 0.27599636 -0.22254735 -0.011918403 0.34162384 -0.12235366 -0.057903156 0.32618043
-0.1269673 -0.22248864 -0.08696524 0.11335563 -0.13220051 -0.16070886 -0.081480145 -0.13523248
-0.050413705 0.13583915 -0.020435806 -0.111394286 -0.15018156 0.3179978 0.24392557 -0.033875905
0.08954422 0.013622596 -0.25007463 0.38953456 0.27827173 0.029489972 -0.00064248353 -0.076133
-0.10262173 0.09025838 0.1644923 0.08226919 -0.07015358 0.070653744 0.054574724 -0.17538483
0.010106897 -0.13262376 -0.060824107 -0.12987323 -0.17164505 -0.14879984 -0.20313436 0.19989671
-0.008508843 0.11788678 0.13799699 -0.009139123 -0.032581072 -0.04859067 -0.020275932 -0.17363407
-0.338559 0.21744967 -0.34455836 -0.36799794 0.7651441 -0.07392359 -0.088717714 0.55852187
-0.08147052 -0.18054935 0.18993367 -0.03232144 -0.08295212 0.17202312 0.11453994 -0.16424625
0.52914363 0.08196554 -0.09434138 0.16597874 0.0652742 -0.059603665 0.074256465 -0.027542207
0.3850027 -0.06429901 0.16882873 -0.18379846 -0.04996278 0.19436254 0.17120822 -0.19673537
0.3119401 -0.21639165 -0.34361333 -0.055473745 -0.14501756 0.062153082 0.08224445 0.123612314
0.19736129 -0.013452782 0.0019849553 -0.14451505 0.09816131 -0.017286073 -0.2337138 0.047467835
-0.35929528 0.11158865 -0.047469202 0.39736056 -0.033747174 0.17200324 -0.110144846 -0.048293374
-0.0119198235 0.23681381 0.10027341 0.25118592 0.008786721 0.012313782 0.22402236 -0.18055558
-0.24246639 0.16534533 -0.21757805 -0.09088999 0.09285306 0.14145306 -0.14691266 0.508103
0.12013057 -0.18927443 -0.20512113 -0.2642737 -0.26981026 0.006513152 -0.14343642 0.036374662
-0.06954611 -0.29160887 -0.2104861 0.19119377 -0.2758789 -0.1089301 0.2270133 -0.24103884
-0.25241572 0.16843458 -0.15913664 -0.086717114 -0.01048748 -0.16612965 -0.06396065 0.19955724
-0.13357791 -0.05483984 0.052808654 -0.07640422 -0.05292372 0.016163602 0.031322386 0.09731549
0.113306955 0.06131587 -0.1445025 -0.038198207 -0.12721384 0.39595482 0.13485818 0.28355312
00000000: 73cb 11bf e109 91be 5b0f dfbd f1ee 2fbd
00000010: 67ce 78be 74ac a93e 9ce8 bcbb 9bb2 79be
00000020: 00c4 7c3e 9624 ad3d ca67 99be b0cd 6e3d
00000030: 6923 6e3e f878 493d 8a24 5c3e 31e8 a33d
00000040: 7fde debe 85a7 a33d 4467 2dbe 1a19 b8be
00000050: cd42 a73e fca4 13bd bc2e c3be 0f27 a73e
00000060: 9826 ba3d 5c4a e53d c247 be3d 9dcb 42be
00000070: 4cea f7bd 489b 3a3d d967 e9bd 48cc 443d
00000080: 7705 f2bd 7f9e 8abc 060d ce3d 365c b33c
00000090: d5d5 423e 01a0 4a3e d5f7 95bc 2aab c13e
000000a0: e0cb fc3d 2fea 28be 4cdd 3a3e 96fb 66bd
000000b0: c214 d9bc ac5e 113e 8a1b df3d 1132 49be
000000c0: 5c59 babd 1b17 623e 111e 4ebe 7b93 38bd
000000d0: 9094 0abe aaf9 49be be05 1cbe 3afe 3dbe
000000e0: 1c77 f1ba ec4f 543d 9ba7 01be a22a 50be
000000f0: 8d8b 9cbd 3c39 423e ed0a bdbd e5e3 e83d
00000100: 79b7 8ebe 78db 49be c889 3cbe 1e39 d13e
00000110: 405b c83e 23fd fa3c b8e7 06be e69b 60bd
00000120: f175 5c3e 7f00 063e 0b34 cbbe 2d91 593d
00000130: 8521 a03e bff3 af3d 544c 233e 09dd 293d
00000140: dc03 603e 8cc8 143e 01e0 033e 4713 473e
00000150: 0c04 2f3e 2bc1 973e dc88 c2bd 51a2 3c3e
00000160: 4152 06bd 654f 8d3e 74e3 63be 6845 43bc
00000170: 52e9 ae3e 8e94 fabd dc2b 6dbd 1f01 a73e
00000180: b703 02be 10d4 63be d51a b2bd ff26 e83d
00000190: 925f 07be dd90 24be 10df a6bd 627a 0abe
000001a0: 9a7e 4ebd 6b19 0b3e fe68 a7bc b022 e4bd
000001b0: 32c9 19be 9cd0 a23e a0c7 793e 76c1 0abd
000001c0: f662 b73d 4f31 5f3c c809 80be 1371 c73e
000001d0: a279 8e3e f494 f13c 576c 28ba 9eeb 9bbd
000001e0: 572b d2bd 63d9 b83d ab70 283e c07c a83d
000001f0: aeac 8fbd e9b2 903d bf89 5f3d 1598 33be
00000200: 6697 253c 86ce 07be b322 79bd 7dfd 04be
00000210: b8c3 2fbe fc5e 18be 7402 50be b9b1 4c3e
00000220: ad68 0bbc a06e f13d 154f 0d3e 43bc 15bc
00000230: bb73 05bd 0307 47bd b619 a6bc 21cd 31be
00000240: 9b57 adbe 20ab 5e3e f469 b0be 3a6a bcbe
00000250: 7ce0 433f 4065 97bd a2b1 b5bd 4afb 0e3f
00000260: 04da a6bd eee1 38be f97d 423e 7c63 04bd
00000270: cde2 a9bd d426 303e eb93 ea3d 2b30 28be
00000280: f575 073f 8ddd a73d 0e36 c1bd 55f6 293e
00000290: 7bae 853d f922 74bd c613 983d 32a0 e1bc
000002a0: 131f c53e 33af 83bd 70e1 2c3e aa35 3cbe
000002b0: c6a5 4cbd f906 473e 3551 2f3e ff74 49be
000002c0: 9db6 9f3e c695 5dbe 16ee afbe 7038 63bd
000002d0: 7c7f 14be 3b94 7e3d c76f a83d 7428 fd3d
000002e0: 1419 4a3e 0f69 5cbc 0616 023b c1fb 13be
000002f0: cc08 c93d 869b 8dbc ac52 6fbe a26d 423d
00000300: 8df5 b7be 9788 e43d 116f 42bd d872 cb3e
00000310: 7a3a 0abd 9e21 303e 9f93 e1bd 46cf 45bd
00000320: 5d4b 43bc 527f 723e 255c cd3d 719b 803e
00000330: 2ef6 0f3c bfbf 493c 1e66 653e 90e3 38be
00000340: 1c49 78be 4950 293e c8cc 5ebe 8824 babd
00000350: bf29 be3d 12d9 103e 4670 16be 0a13 023f
00000360: 0407 f63d 28d1 41be 460b 52be e24e 87be
00000370: 9224 8abe 476c d53b ffe0 12be 99fd 143d
00000380: 316e 8ebd c24d 95be ab89 57be 4dc8 433e
00000390: 0040 8dbe bf16 dfbd 2d76 683e e3d2 76be
000003a0: a23c 81be 1d7a 2c3e b7f4 22be be98 b1bd
000003b0: aed3 2bbc e41d 2abe cdfd 82bd bc58 4c3e
000003c0: a6c8 08be bd9f 60bd e34d 583d d179 9cbd
000003d0: 8bc6 58bd 8869 843c e74b 003d 584d c73d
000003e0: 7a0d e83d 5a26 7b3d 77f8 13be b975 1cbd
000003f0: 5844 02be 97ba ca3e 4318 0a3e e02d 913e

cnn_pep.0.bias f4 [50]
0.053831313 -0.20297909 -0.03912333 -0.22359416 -0.03950106 -0.19984698 -0.26260316 -0.19082002
-0.32242334 0.39132673 -0.14588484 0.0403799 -0.02594262 -0.21882845 -0.06833693 0.07346803
-0.10581305 0.05746168 0.14666143 0.18431035 0.23250961 -0.30061814 -0.24254295 -0.18021925
0.045911774 -0.19852737 -0.18909773 -0.14822671 -0.2727397 -0.22008368 -0.07291248 -0.0035509912
-0.1404783 -0.11433611 0.023836216 -0.31914607 -0.08377991 -0.13951282 -0.20528927 -0.0706967
0.111373395 -0.27058974 -0.21807422 -0.13950792 0.1360319 0.071536526 0.101917945 0.0956201
-0.028380763 -0.19420646
00000000: 397e 5c3d c0d9 4fbe c93f 20bd def5 64be
00000010: ddcb 21bd b0a4 4cbe ec73 86be 5366 43be
00000020: ac14 a5be fa5b c83e d662 15be 6565 253d
00000030: 9e85 d4bc 9114 60be 3bf4 8bbd 6876 963d
00000040: 83b4 d8bd f05c 6b3d 6a2e 163e dabb 3c3e
00000050: 0017 6e3e 9fea 99be 2e5d 78be 658b 38be
00000060: fc0d 3c3d c24a 4bbe d6a2 41be bec8 17be
00000070: 8aa4 8bbe 9e5d 61be 2353 95bd bfb7 68bb
00000080: 8bd9 0fbe 0d29 eabd 2b44 c33c 1d67 a3be
00000090: cd94 abbd 73dc 0ebe 5a37 52be 6ec9 90bd
000000a0: bc17 e43d bd8a 8abe d94e 5fbe 2adb 0ebe
000000b0: f24b 0b3e be81 923d 5bba d03d 79d4 c33d
000000c0: c67e e8bc 0fde 46be

fc1.weight f4 [1, 550]
0.439078 0.28743657 0.2602136 -0.22211117 -0.2650985 -0.26823008 -0.1877284 -0.27067694
0.88172454 0.12672406 -0.22201698 0.3468173 -0.28237593 -0.18708548 -0.26007414 0.1820004
-0.23581865 -0.17885283 -0.26214948 -0.26827958 -0.2550319 0.2758756 -0.24481058 -0.30009797
0.31499198 0.07365085 -0.25147536 -0.31259984 -0.23496215 0.2640065 -0.2775821 -0.24403584
0.26775357 0.26144654 0.18534964 0.1358891 -0.21828903 -0.1568982 -0.24963163 -0.23915048
0.5194272 0.25864923 -0.24865147 -0.23142979 -0.25461683 -0.25588903 -0.19150549 -0.20851897
-0.25340623 -0.27561206 0.178092 -0.29797006 0.3862323 0.22044966 -0.25073093 0.15097904
0.28815195 0.23911306 -0.2599276 0.24443789 0.2225204 -0.25061285 0.44266543 -0.25739604
0.15567566 -0.27324024 -0.2515182 -0.25214007 0.3645759 -0.22924316 0.050863374 0.30553007
-0.25158423 -0.23059726 -0.2364976 -0.28882787 -0.041004583 0.28950614 -0.20060103 0.3065268
-0.2125051 0.14895767 0.6828462 -0.22874741 0.32046875 0.2777976 -0.28633663 -0.4054745
0.25333625 -0.23685049 -0.26079205 0.07657972 -0.2575067 -0.25959402 -0.12584184 -0.26197562
-0.23533705 0.2234077 0.30439314 -0.26898843 0.11894887 -0.020814225 0.56542915 -0.039595354
-0.117604725 -0.04020694 0.2152162 -0.18257031 -0.37909976 0.23279798 0.0058987727 -0.042432036
0.16300792 0.003482704 0.11229635 -0.111242436 -0.026835965 0.083170734 0.09359459 -0.13391663
-0.122156784 -0.15670915 -0.20502225 -0.2854927 -0.26114872 0.15631841 -0.35996827 0.16123389
0.32332227 0.022523211 -0.29502383 -0.05037867 0.03166937 0.10932745 -0.23480004 0.001919144
-0.24893527 0.029263148 -0.17876212 -0.0038644855 -0.26651117 -0.039691687 -0.18257144 -0.10627752
0.00017425662 0.10914002 -0.019328486 -0.044629257 0.059892695 0.005918314 0.0031671706 0.08338631
-0.025490068 -0.0017714995 -0.35414037 0.12580179 -0.5340773 -0.0904323 0.16276483 0.16134307
-0.7056529 0.16778302 0.21404205 0.1967128 0.119683735 -0.009974052 -0.11307484 -0.20733608
-0.038063113 0.019057995 -0.12924217 0.26646984 -0.15506914 0.30995768 0.27592498 -0.084123835
-0.0877622 -0.13120371 0.18861614 0.07092914 -0.28734908 0.027398014 0.27971125 0.30868402
-0.28078988 0.41246152 0.14460033 0.1927302 -0.04945846 0.14663929 -0.22564346 0.093075104
-0.33808827 -0.0435625 0.038996335 -0.010220272 -0.29981127 -0.09801687 -0.1560885 0.17409083
-0.1873639 0.23085317 0.18143073 -0.27133822 0.08826659 -0.002000241 0.03494659 0.07280622
0.36171103 0.44408527 0.2088738 0.13620003 -0.060559783 -0.017251097 0.122441545 0.056785908
0.029298121 -0.2446049 0.05569161 -0.051739365 0.0269013 -0.07989766 -0.038595606 0.040316388
-0.078823924 0.045819335 -0.17069024 -0.047520958 -0.34583363 -0.06756705 -0.2326851 -0.19080856
-0.37774312 -0.03604036 -0.22550678 0.08349251 -0.16409047 0.4692491 0.096496105 -0.34164307
-0.1559642 0.26804772 0.32626337 -0.17183423 -0.18730344 0.075643204 -0.3775241 -0.048960928
-0.15866797 -0.2171847 -0.18007481 -0.016839888 -0.23811229 0.14073363 -0.22589707 0.15724117
00000000: d5ce e03e e32a 933e b83a 853e 1c71 63be
00000010: feba 87be 7455 89be e03b 40be 2b96 8abe
00000020: b3b8 613f f4c3 013e 6b58 63be 0a92 b13e
00000030: 9493 90be 5693 3fbe 7028 85be 505e 3a3e
00000040: 727a 71be 3225 37be 7538 86be f15b 89be
00000050: 8b93 82be 913f 8d3e a0af 7abe 71a6 99be
00000060: a146 a13e 42d6 963d 61c1 80be 160d a0be
00000070: eb99 70be dc2b 873e 3e1f 8ebe 88e4 79be
00000080: ff16 893e 52dc 853e 4ccc 3d3e 8326 0b3e
00000090: 2987 5fbe eca9 20be 6f9f 7fbe dde3 74be
000000a0: 2ef9 043f ac6d 843e 7e9e 7ebe eefb 6cbe
000000b0: 235d 82be e303 83be 041a 44be ff85 55be
000000c0: 76be 81be 061d 8dbe c05d 363e 888f 98be
000000d0: 3dc0 c53e 8ebd 613e ce5f 80be 409a 1a3e
000000e0: a788 933e 0eda 743e 3b15 85be ed4d 7a3e
000000f0: 63dc 633e 5450 80be 0ba5 e23e 6ac9 83be
00000100: 7169 1f3e 25e6 8bbe fec6 80be 8118 81be
00000110: b1a9 ba3e b8be 6abe 1d56 503d 706e 9c3e
00000120: a6cf 80be b021 6cbe 6d2c 72be 3fe1 93be
00000130: 6cf4 27bd 263a 943e 5b6a 4dbe 15f1 9c3e
00000140: f09a 59be 5c88 183e 02cf 2e3f c33c 6abe
00000150: 7b14 a43e 7d3b 8e3e b79a 92be 5b9a cfbe
00000160: 4ab5 813e ef88 72be 8986 85be d4d5 9c3d
00000170: ebd7 83be 82e9 84be afdc 00be ab21 86be
00000180: 32fc 70be fdc4 643e 6bd9 9b3e dab8 89be
00000190: 779b f33d 9882 aabc f7bf 103f bd2e 22bd
000001a0: bfda f0bd 08b0 24bd a361 5c3e b6f3 3abe
000001b0: 5d19 c2be 9862 6e3e 7e4a c13b 37cd 2dbd
000001c0: 8ceb 263e 143e 643b a1fb e53d 13d3 e3bd
000001d0: 19d7 dbbc 6b55 aa3d 85ae bf3d 7121 09be
000001e0: 562d fabd 5d78 20be 5af1 51be 192c 92be
000001f0: 49b5 85be ef11 203e c34d b8be 7f1a 253e
00000200: 7f8a a53e 9982 b83c 5d0d 97be dd59 4ebd
00000210: beb7 013d 12e7 df3d 6c6f 70be c98b fb3a
00000220: e3e8 7ebe 45b9 ef3c 6b0d 37be 4f43 7dbb
00000230: 2774 88be c093 22bd 02f4 3abe 07a8 d9bd
00000240: a8b8 3639 ce84 df3d c656 9ebc 2bcd 36bd
00000250: 0b52 753d 6bee c13b 4e90 4f3b 71c6 aa3d
00000260: 8cd0 d0bc a931 e8ba e351 b5be 2fd2 003e
00000270: 4ab9 08bf 9234 b9bd d3ab 263e 1e37 253e
00000280: aba5 34bf 50cf 2b3e d72d 5b3e 156f 493e
00000290: bf1c f53d 356a 23bc c893 e7bd e94f 54be
000002a0: 11e8 1bbd 831f 9c3c 0f58 04be bc6e 883e
000002b0: 72ca 1ebe c6b2 9e3e 0a46 8d3e 1e49 acbd
000002c0: abbc b3bd 445a 06be 9724 413e 4c43 913d
000002d0: 6b1f 93be cd71 e03c 5036 8f3e d50b 9e3e
000002e0: b1c3 8fbe 282e d33e 1c12 143e 115b 453e
000002f0: f494 4abd 9c28 163e 140f 67be 299e be3d
00000300: e819 adbe 986e 32bd 9fba 1f3d ed72 27bc
00000310: dd80 99be 12bd c8bd aad5 1fbe de44 323e
00000320: 52dc 3fbe c664 6c3e fac8 393e d8ec 8abe
00000330: 1dc5 b43d 7a16 03bb 2824 0f3d 6d1b 953d
00000340: 3032 b93e 255f e33e 03e3 553e 0578 0b3e
00000350: 890d 78bd 2c52 8dbc a2c2 fa3d 5798 683d
00000360: 9d02 f03c b579 7abe e31c 643d a8ec 53bd
00000370: 1d60 dc3c 62a1 a3bd 6d16 1ebd cc22 253d
00000380: 706e a1bd 0ead 3b3d 6cc9 2ebe 56a5 42bd
00000390: 1b11 b1be 9860 8abd 0145 6ebe 5263 43be
000003a0: 8c67 c1be 0e9f 13bd 40eb 66be 1ffe aa3d
000003b0: 5507 28be 6b41 f03e c09f c53d d7eb aebe
000003c0: 14b5 1fbe 8d3d 893e fe0b a73e 50f5 2fbe
000003d0: 79cc 3fbe d3ea 9a3d d74a c1be 418b 48bd
000003e0: db79 22be aa65 5ebe 8865 38be cef3 89bc
000003f0: b5d3 73be 7a1c 103e 9051 67be d403 213e
