src/models/models_to_evaluate/04142020.pth (torch_old, 124280 bytes, 21 tensors)

lin_apt_1.weight f4 [100, 160]
0	0x3d764063	0.060119998
1	0xbd35f3d0	-0.04442197
2	0xbd9cd806	-0.07658391
3	0x3dbb2652	0.091381684
4	0x3d3e637d	0.0464816
5	0x3c515cb7	0.012778453
6	0xbde85df3	-0.113460444
7	0x3c68d09b	0.014209892
8	0x3c3626aa	0.011117617
9	0xbdeabaa6	-0.114613816
10	0xbe005aeb	-0.12534682
11	0x3da25255	0.0792586
12	0xbcffa90c	-0.031208538
13	0x3d7dd496	0.061970316
14	0xbe57cf54	-0.21075183
15	0x3df00e59	0.117214866
16	0xbd8c3973	-0.06846895
17	0xbdc38596	-0.09546964
18	0xbda8f5b8	-0.08249992
19	0x3e1f3e12	0.15551022
20	0x3d87af8b	0.06625279
21	0x3d71b0e1	0.059006575
22	0xbe4587bc	-0.1929006
23	0x3d8f5e0e	0.070003614
24	0xbc1ddd07	-0.009635217
25	0xbdd545a5	-0.10413674
26	0xbe02f861	-0.12790062
27	0x3da58737	0.08082431
28	0xbcb2237d	-0.021745438
29	0x3deee9dc	0.11665699
30	0xbe0a94dc	-0.13533348
31	0x3bc18170	0.0059053227
32	0x3da52c7e	0.08065127
33	0xbdda79a6	-0.10667734
34	0xbda9693e	-0.082720265
35	0x3d390d5d	0.04517876
36	0x3cc987fe	0.024600979
37	0xbca5a570	-0.020220488
38	0xbe023223	-0.12714438
39	0x3de6cb02	0.112691894
40	0xbd128560	-0.035771728
41	0xbe1635b2	-0.1466892
42	0xbdcd548f	-0.10025894
43	0x3d7d9785	0.06191208
44	0xbcce8bba	-0.025213111
45	0xbd8d1a10	-0.06889737
46	0xbe20bfb7	-0.15698133
47	0x3d0c6da6	0.034284256
48	0x3d84ac1f	0.06478142
49	0x3dc838d2	0.097764626
50	0xbd482146	-0.048859857
51	0x3d4bd214	0.049760893
52	0x3e27ee50	0.16399503
53	0xbb6f545d	-0.003651879
54	0xbe6d869c	-0.2319588
55	0x3d89da4a	0.067310885
56	0xbca66065	-0.020309636
57	0x3d6c077d	0.05762433
58	0xbd9a3f11	-0.0753156
59	0x3e087b27	0.13328229
60	0xba866f4d	-0.0010256559
61	0x3d75786d	0.0599293
62	0xbd855e90	-0.06512177
63	0x3d137243	0.03599764
64	0xbdac9cb0	-0.08428323
65	0xbd26763b	-0.040640097
66	0xbdbca9d3	-0.09212079
67	0x3c294666	0.010331726
68	0x3bf56a13	0.0074894517
69	0xbdf110a3	-0.11770751
70	0xbc900615	-0.017581025
71	0xbe1781b8	-0.14795578
72	0x3e01544e	0.12629816
73	0xbd4b0707	-0.04956725
74	0xbd550603	-0.052007686
75	0xbd889510	-0.066690564
76	0x3dd492b7	0.10379546
77	0x3cb30e31	0.021857353
78	0xbe7fd7ac	-0.24984616
79	0x3dc6d65d	0.09708855
80	0x3e0a8ca2	0.1353021
81	0xbddbc1fe	-0.107303604
82	0xbe596c08	-0.21232617
83	0x3b2f16ff	0.0026716588
84	0xbca3d5df	-0.019999443
85	0x3e21ea31	0.15811993
86	0xbe212ce8	-0.15739787
87	0x3e61d857	0.22055183
88	0x3dd33995	0.10313717
89	0x3dc55001	0.096344
90	0xbe46d942	-0.19418815
91	0x3d2e4fbe	0.042556517
92	0x3d29741e	0.041370504
93	0x3e32ef4e	0.174741
94	0xbdfeea66	-0.12447052
95	0x3ddebcf3	0.10875883
96	0xbce9dbfe	-0.028547283
97	0xbddaef75	-0.10690204
98	0xbc5eb53c	-0.013593014
99	0x3e051c3f	0.12999056
100	0x3e0b1bda	0.13584843
101	0xbcf2cade	-0.02963775
102	0xbdd1b67a	-0.10239883
103	0x3db2876c	0.08717236
104	0x3d848398	0.06470412
105	0x3e0c97f7	0.13729845
106	0xbe0a242f	-0.13490365
107	0x3d04a9a3	0.03238834
108	0x3dddb865	0.10826186
109	0x3bd5986a	0.0065184133
110	0xbd3283b3	-0.04358263
111	0x3dec8285	0.11548332
112	0xbd0ced35	-0.034405906
113	0xbda9c383	-0.08289244
114	0xbe8be16f	-0.2732043
115	0x3dd60c9b	0.10451623
116	0x3d322701	0.04349423
117	0x3d0f2a70	0.03495258
118	0xbd588921	-0.05286515
119	0x3e3c52d2	0.18390968
120	0x3e86e685	0.26347747
121	0xbe075889	-0.13217367
122	0xbe388a5e	-0.18021533
123	0x3e4311ad	0.19049712
124	0xbc31298d	-0.010813129
125	0x3cd791df	0.026314674
126	0xbdc6b40f	-0.09702312
127	0x3e2251cc	0.15851516
128	0x3cb2458a	0.021761674
129	0x3c8ff519	0.017572926
130	0xbea667bf	-0.32501027
131	0x3e7c0ae9	0.24613537
132	0xbdc452dd	-0.095861174
133	0xbd12d366	-0.035846137
134	0xbd85a428	-0.06525451
135	0x3df7fdd2	0.12108959
136	0x3d084442	0.03326822
137	0x3ddfe167	0.10931664
138	0xbcecfbd4	-0.028928675
139	0xbdc3a01e	-0.09552024
140	0xbd6f9f1a	-0.05850134
141	0xbc800bb4	-0.01563058
142	0xbdc9f11d	-0.09860442
143	0x3b4bd636	0.0031103021
144	0xbda908ab	-0.082536064
145	0xbe3ca962	-0.1842399
146	0xbdd19c88	-0.10234934
147	0x3e367725	0.17818888
148	0x3d8960cc	0.06707916
149	0xbca84e79	-0.020545231
150	0xbd854e12	-0.06509031
151	0x3e061b69	0.13096394
152	0x3dba95e7	0.09110623
153	0xbe083e11	-0.13304926
154	0xbdbbde49	-0.09173257
155	0x3e11e4fd	0.14247508
156	0xbc73b515	-0.014874716
157	0xbd0ac67c	-0.033880696
158	0xbdc09770	-0.094038844
159	0xbd8fa2c1	-0.07013465
160	0x3cc75be0	0.024335802
161	0x3b6c6449	0.0036070517
162	0x3d9ecf0e	0.07754336
163	0xbd9f7cea	-0.07787497
164	0x3c9f24db	0.019426754
165	0x3e284dff	0.16436003
166	0x3db6a250	0.089176774
167	0xbe256054	-0.16150028
168	0xbd45bc20	-0.048275113
169	0x3d19e60f	0.037572917
170	0x3df2fae5	0.118642606
171	0xbde56ffe	-0.112030014
172	0xbdce60bf	-0.100770466
173	0xbcb9288d	-0.022602344
174	0x3e3788f5	0.17923339
175	0xbdec977c	-0.11552331
176	0xbd0110b2	-0.031510063
177	0x3d461fce	0.048370175
178	0x3e056a64	0.13028866
179	0xbe61cc97	-0.22050701
180	0xbd6d9869	-0.058006678
181	0x3d89b9b6	0.06724875
182	0x3e06cc46	0.13163862
183	0xbd0dec4c	-0.03464918
184	0xbbd1a91d	-0.0063983337
185	0x3d9d6fc4	0.07687333
186	0x3de367ea	0.111038044
187	0x3c77db5e	0.015127985
188	0x3cf5f83c	0.030025594
189	0xbd59eeef	-0.05320638
190	0x3ea99637	0.33122417
191	0xbd85a155	-0.06524912
192	0xbc317630	-0.010831401
193	0xbd78f969	-0.06078473
194	0x3d5ea8af	0.054360088
195	0x3c976dfb	0.01848506
196	0xbd2d7c47	-0.04235485
197	0x3def7dec	0.116939396
198	0xbd07f12d	-0.033188988
199	0xbdb3e0ac	-0.08783087
200	0xbe1ad87d	-0.15121646
201	0x3d7526cd	0.059851456
202	0x3c4acb05	0.012377505
203	0xbde4ae59	-0.11166067
204	0xbd2b2fd1	-0.04179365
205	0x3c91f040	0.017814755
206	0x3e4be9fb	0.19913475
207	0xbcf20bf0	-0.029546708
208	0x3e0a4105	0.13501365
209	0x3daf936e	0.08573042
210	0x3e21ee9d	0.1581368
211	0xbe01e2c8	-0.12684166
212	0x3dbca3f6	0.092109606
213	0x3cde947c	0.027170412
214	0x3d406d21	0.046979073
215	0xbd3b6190	-0.04574734
216	0xbdc2d3ab	-0.09513029
217	0xbd0375d8	-0.032094806
218	0x3e1b47b3	0.1516407
219	0xbdd95f68	-0.106139004
220	0xbc9b1c2f	-0.018934337
221	0x3caafa96	0.020871442
222	0x3de978d5	0.114
223	0xbd089449	-0.03334454
224	0xbc01cd75	-0.00792252
225	0xbd71da7c	-0.059046254
226	0x3b2ac149	0.0026055148
227	0xbd8e39fd	-0.06944654
228	0xbd8af3a2	-0.067847505
229	0xbd5308f4	-0.05152221
230	0xbc9defd2	-0.019279394
231	0xbe04f9b4	-0.12985879
232	0xbca2306a	-0.019798476
233	0x3dc7d1be	0.09756802
234	0x3d36fa05	0.04467203
235	0xbc93b1b0	-0.018029064
236	0x3dbfafcc	0.093597025
237	0xbd675aec	-0.056483194
238	0x3deb28cc	0.11482391
239	0xbd49c213	-0.04925735
240	0xbd9c045d	-0.0761802
241	0xbcf1b3a0	-0.029504597
242	0x3de8ec00	0.113731384
243	0xbdc21193	-0.09476008
244	0xbd73d5e8	-0.05953017
245	0x3d025230	0.03181666
246	0x3dd780c5	0.10522608
247	0xbd1750b5	-0.036942203
248	0xbd801de6	-0.06255703
249	0xbdf53a94	-0.119740635
250	0x3dd509da	0.1040227
251	0xbe0185d4	-0.12648708
252	0x3ba3e2d5	0.0050014057
253	0xbdb34820	-0.08753991
254	0x3e2380fe	0.15967175
255	0xbd251b8f	-0.040309485

lin_apt_1.bias f4 [100]
0	0xbbebd433	-0.007196927
1	0x3cd9cf0f	0.026587991
2	0x3bb4cef5	0.0055178353
3	0x3cb2bfa9	0.021819906
4	0xbc8830c4	-0.016624816
5	0x3d197a91	0.037470404
6	0xbcc8b937	-0.02450238
7	0xbd9f8ae5	-0.07790164
8	0xbd5653ec	-0.052326128
9	0x3a9eb3fd	0.0012108084
10	0x3c1f2ea2	0.009715708
11	0xbd06e0d2	-0.03292925
12	0xbd3824fd	-0.04495715
13	0x3d07fcf5	0.033200223
14	0x3954d919	0.0002029877
15	0xbb6f99d8	-0.0036560204
16	0x3c53eb7e	0.012934564
17	0xbd13e234	-0.036104396
18	0xba1ce73c	-0.00059853843
19	0xbc13d582	-0.009023072
20	0xbcf66096	-0.030075353
21	0x3d505c9a	0.05086956
22	0x3d3e8796	0.046516024
23	0xbd1f5ca1	-0.038906697
24	0x3d3dc454	0.04632981
25	0xbcd62435	-0.026140312
26	0x3c430f4d	0.011905503
27	0xbc0f0241	-0.008728565
28	0xbb7bdef9	-0.0038432463
29	0xbd58d778	-0.052939862
30	0x3c1be3c4	0.009514753
31	0xbd10349a	-0.035206415
32	0x3af14002	0.0018405917
33	0x3d600163	0.054688822
34	0x3d3cd4ae	0.046101265
35	0xbd880fc4	-0.06643632
36	0x3cf95aff	0.030438898
37	0xbd213e2c	-0.039365932
38	0xbd51cac5	-0.051218767
39	0x396c9582	0.0002256241
40	0x3d225f9e	0.03964197
41	0xbc7975d8	-0.01522585
42	0x3c945557	0.0181071
43	0x3cb5eaa8	0.02220662
44	0x3ca7b20d	0.020470643
45	0xbd0179df	-0.031610366
46	0xbbfe7c5a	-0.0077662887
47	0xbd64f3e1	-0.055896644
48	0x3d25a67d	0.04044198
49	0x3b56926e	0.0032741087
50	0x3d401e23	0.04690374
51	0xbccf6761	-0.02531785
52	0x3c2734e7	0.010205484
53	0xbceca211	-0.028885873
54	0x3bde2e81	0.006780446
55	0xbc9f86b2	-0.019473407
56	0x3b82cdf0	0.003991835
57	0xbd361341	-0.044451956
58	0x3d0503d3	0.03247435
59	0x3d057921	0.03258622
60	0x3d843254	0.06454912
61	0xbccdad6d	-0.02510711
62	0xbb685a8c	-0.003545436
63	0x3ce36de1	0.027762355
64	0x3c48e478	0.012261502
65	0xbd9e254a	-0.07721956
66	0x3c075d85	0.008262043
67	0x3c088dc7	0.008334584
68	0x3c988303	0.018617159
69	0x3c702007	0.014656073
70	0xbd69e08b	-0.057098906
71	0xbd73adab	-0.059491795
72	0x3b22465b	0.0024761173
73	0x3c47cf82	0.01219547
74	0xbd2cf05d	-0.042221416
75	0xbd7a403e	-0.061096422
76	0x3d39f649	0.04540089
77	0xbc5679f0	-0.013090596
78	0xbc2923b2	-0.010323452
79	0x3b9b0cec	0.004731765
80	0x3d30c57b	0.043157082
81	0x3d7eeffd	0.06224059
82	0x3d25bc46	0.040462755
83	0x3c9d4780	0.019199133
84	0x3c53bde8	0.012923695
85	0xbce3d03c	-0.027809255
86	0x3cdf398a	0.027249116
87	0x3d49774e	0.049186043
88	0xbcfb4a78	-0.030675158
89	0xbc4b1de9	-0.012397268
90	0xbb77e877	-0.0037827769
91	0xbcb5614e	-0.022141125
92	0x3c7c96a2	0.015416773
93	0xbd1cc6e4	-0.038275614
94	0x3d3e2963	0.04642619
95	0xbd1c5cc2	-0.0381744
96	0xbb39633e	-0.0028287913
97	0x3cb7a309	0.022416608
98	0x3c1811ec	0.009281617
99	0x3cccd884	0.025005586

lin_apt_2.weight f4 [50, 100]
0	0xbcde3038	-0.027122602
1	0xbdc0d25c	-0.09415123
2	0xbd341f9f	-0.04397547
3	0x3d63b481	0.055592064
4	0x3cc3bd87	0.023894085
5	0xbd29eccd	-0.041485596
6	0xbc9f5f33	-0.019454574
7	0x3d41888e	0.04724937
8	0x3ba3979e	0.0049924394
9	0xbce76a9f	-0.028249083
10	0xbc761dfa	-0.015021795
11	0x3d81a93d	0.06331108
12	0xbbebe70d	-0.0071991743
13	0xbd9ca1b0	-0.07648027
14	0xbd2c7f05	-0.042113323
15	0x3d15fd91	0.036618773
16	0xbd06310d	-0.032761622
17	0x3c5a985c	0.013341989
18	0x3d2cac03	0.04215623
19	0x3c28293f	0.01026374
20	0xbbfd5893	-0.007731506
21	0xbdce0f94	-0.10061565
22	0xbcd076f1	-0.02544734
23	0xbce2687a	-0.027637709
24	0xbc4234ae	-0.01185338
25	0x3c141d04	0.009040121
26	0xbd4b9e39	-0.04971144
27	0xbcc716d2	-0.024302874
28	0x3b9dcd19	0.0048157093
29	0x39468e9d	0.00018935879
30	0x3cb636f4	0.022243
31	0x3d04620b	0.032320064
32	0x3cde4442	0.027132157
33	0xbcdaff9c	-0.026733212
34	0x3cb426eb	0.021991214
35	0x3cc7886d	0.024357045
36	0x3a9e716f	0.0012088249
37	0xba8c989c	-0.0010726633
38	0x3a3d3d0b	0.0007218874
39	0xbcbe770d	-0.023250127
40	0x3dd8f5e7	0.10593777
41	0xbc4bf583	-0.012448671
42	0xbca46482	-0.020067457
43	0x3bd3d75a	0.006464881
44	0x3b66cabf	0.003521606
45	0x3d1fbf58	0.03900084
46	0x3d339af8	0.04384896
47	0xbce11f13	-0.027480638
48	0x3b92457e	0.0044638505
49	0xbd603378	-0.054736584
50	0xbd69637c	-0.05697964
51	0xbd61edee	-0.055158548
52	0xbceb4df7	-0.0287237
53	0x3d44f74d	0.048087407
54	0x3d03a941	0.032143835
55	0xbd2ee88a	-0.042702235
56	0xbd099936	-0.03359338
57	0xbca5bfa9	-0.020232992
58	0xbd201caf	-0.039089855
59	0xbc018fd2	-0.007907825
60	0x3c85a414	0.01631359
61	0xbce6db99	-0.028180884
62	0x3d5bce52	0.05366356
63	0x3c485ccb	0.012229155
64	0x3abfefa6	0.0014643564
65	0x3bd105d6	0.0063788695
66	0x3d6882b1	0.056765262
67	0xbcfd7d79	-0.03094362
68	0x3c59fab5	0.013304402
69	0x3d22a39b	0.039706808
70	0x3d1675f1	0.03673357
71	0x3d3bcd21	0.045849923
72	0x3a499fc4	0.00076913484
73	0x3d24e624	0.04025854
74	0x3a2c9d74	0.00065847416
75	0xbd7098b3	-0.058739375
76	0xbcdb3013	-0.026756322
77	0x3c087f3e	0.008331118
78	0x3d57dd0e	0.05270105
79	0xbca4ecc3	-0.020132428
80	0x3c4c3760	0.012464374
81	0x3c137919	0.00900104
82	0x3c7d0fce	0.015445663
83	0x3cd3e803	0.025867468
84	0x3bfab0a4	0.0076504517
85	0xbcaa42a3	-0.020783728
86	0x3cd072cb	0.025445363
87	0x3d56d12e	0.052445583
88	0x3d3a836c	0.04553549
89	0x3d0e8ad3	0.03480036
90	0x3b4d9373	0.0031368404
91	0x3a4fdefe	0.0007929652
92	0xbcedd0de	-0.02903026
93	0x3d7ac2da	0.06122098
94	0x3d7b1315	0.061297495
95	0xbd4a7e18	-0.04943666
96	0xbdb19d43	-0.086725734
97	0x3c77ff33	0.015136528
98	0xbb93c032	-0.0045089955
99	0x3ca21f18	0.019790217
100	0x3d32e5ba	0.043676116
101	0xbc31aa5b	-0.010843839
102	0xbc380083	-0.011230591
103	0xbd1587ac	-0.03650634
104	0x3dc38525	0.0954688
105	0xbb0390e1	-0.0020075368
106	0x3c1b38dd	0.0094740065
107	0xbd362f33	-0.044478606
108	0xbccc8363	-0.024964994
109	0xbb179753	-0.0023130968
110	0xbccaf907	-0.024776949
111	0x3bafaef1	0.005361431
112	0x3c30430b	0.010758172
113	0xbd329a6d	-0.043604303
114	0xbc88f52b	-0.016718468
115	0x3cfb8a13	0.030705487
116	0x3c8b9841	0.017040374
117	0xbd13551c	-0.03596984
118	0x3cdf6419	0.02726941
119	0x3d00ce1d	0.031446565
120	0xbca564f0	-0.020189732
121	0xbcc0a05a	-0.023513962
122	0x3d50837f	0.050906654
123	0x3d6d15bc	0.057882056
124	0x3c267202	0.0101590175
125	0xbc3d8588	-0.011567481
126	0xbcb4b65d	-0.022059614
127	0x3d65a9b2	0.056070037
128	0x3d3c605f	0.045990344
129	0xbc732a88	-0.014841683
130	0x3ca4b608	0.02010633
131	0x3c925324	0.01786191
132	0x3d182043	0.037140142
133	0xbd29fa81	-0.041498665
134	0x3c040412	0.008057611
135	0xbc0080c7	-0.007843203
136	0xbd8e6fcd	-0.06954918
137	0xbb289020	-0.002572067
138	0x3d39c9bb	0.0453584
139	0x3c49e446	0.012322491
140	0xbd2fa9da	-0.042886592
141	0xbc09c8ba	-0.008409673
142	0xbd18ba51	-0.03728706
143	0xbd5c89a5	-0.053842206
144	0x3d0ed710	0.03487307
145	0xbc7c2ac9	-0.01539106
146	0xbcc05602	-0.023478512
147	0x3cefea35	0.029286483
148	0xbc511a14	-0.012762565
149	0x3cfbd906	0.030743133
150	0xbd0ad5bb	-0.033895236
151	0x3cc8789f	0.02447158
152	0xbd659e6e	-0.056059293
153	0x3cc25b0d	0.023725057
154	0x3d26052e	0.040532283
155	0x3a390fce	0.0007059545
156	0x3ba6c8bd	0.005089848
157	0x3de7be53	0.11315598
158	0x3bc780e2	0.006088362
159	0xbd13dfd4	-0.03610213
160	0x3c9bc96d	0.019016946
161	0xbd2c8783	-0.04212142
162	0xbcf66ad4	-0.030080236
163	0xbbb5f342	-0.00555268
164	0xbc6ae69a	-0.014337206
165	0x3d6d25c6	0.05789735
166	0x3c31a7e4	0.010843251
167	0xbd1c6896	-0.03818568
168	0xbdd0448d	-0.10169325
169	0x3d0c2e2e	0.034223728
170	0x3d09c2dd	0.0336331
171	0x3d63a407	0.05557635
172	0xbcf1dfd8	-0.029525682
173	0xbd72ffbe	-0.059325926
174	0xbd1a5bf4	-0.03768535
175	0x3acfcc1a	0.0015853674
176	0x3b8db701	0.0043247943
177	0xbc2edbe6	-0.010672545
178	0xbd134ca0	-0.035961747
179	0x3aec592d	0.0018031948
180	0xbd96f35a	-0.073706344
181	0xbd37abcb	-0.04484157
182	0xbc2e556f	-0.010640486
183	0xbacedbc4	-0.0015782048
184	0x3caf2af4	0.021382786
185	0x39a4c6a7	0.00031428525
186	0xbc74d0a7	-0.014942325
187	0xbd6a938f	-0.05726963
188	0x3cdc5761	0.026897134
189	0xbd387dcb	-0.04504184
190	0xbc975a8a	-0.01847579
191	0x3c807754	0.0156819
192	0xbc5ec83b	-0.013597543
193	0x3d0e06fd	0.034674633
194	0xbda4ccf0	-0.08046901
195	0x3cd3f3dc	0.025873117
196	0xbbeef067	-0.007291842
197	0xbd035d9c	-0.032071695
198	0x3cb6fe05	0.022337923
199	0xbc62fb41	-0.013853849
200	0xbd1355ae	-0.035970382
201	0xbdcd12d4	-0.10013357
202	0x3da0d023	0.07852199
203	0xbc433e73	-0.0119167445
204	0x3b28c9b5	0.0025754992
205	0xbd0cbaa5	-0.034357686
206	0x3ce255df	0.027628837
207	0xbd15215b	-0.036408763
208	0xbcf7f76a	-0.030269343
209	0xbd06cbf7	-0.03290936
210	0x3c6704a2	0.014100226
211	0x3d80193e	0.062548146
212	0xbcc5f610	-0.024165183
213	0xbcd1aa8d	-0.02559402
214	0xb7ec2021	-2.8148354e-05
215	0xbd00c450	-0.03143722
216	0xbc2a6112	-0.01039912
217	0xbd0a5470	-0.033771932
218	0x3d91a96c	0.07112393
219	0x3d868a3e	0.06569336
220	0xbd134ca2	-0.035961755
221	0x3d7b4cbc	0.061352476
222	0xbd53926e	-0.051653318
223	0x3cba6e03	0.022757536
224	0xbd1a3229	-0.037645493
225	0x3d06bfa7	0.032897618
226	0xbcd55055	-0.026039282
227	0x3d32afd7	0.043624725
228	0xbd094e60	-0.03352201
229	0x3d571b82	0.052516468
230	0xbd33b71a	-0.04387579
231	0x3d358966	0.044320486
232	0x3cd2d4e2	0.025736276
233	0x3d01d22a	0.03169457
234	0x3d319255	0.043352444
235	0x3d1a6c0e	0.037700705
236	0x3d69ac42	0.057049043
237	0xbc4c9186	-0.012485867
238	0xbc4e6cc1	-0.012599171
239	0xbb98a6c2	-0.004658551
240	0xbdab2e9f	-0.08358502
241	0xbdc9d603	-0.098552726
242	0xbcf44155	-0.029816309
243	0xbd657720	-0.05602181
244	0x3c01a9cd	0.007914019
245	0xbc6d6e44	-0.014491621
246	0xbd2ef978	-0.04271838
247	0x3c52cf0f	0.012866749
248	0x3b90e1f0	0.004421465
249	0x3ce287fc	0.027652733
250	0xbc70a431	-0.014687584
251	0x3d5de005	0.05416872
252	0xbcfa8575	-0.030581215
253	0xbd299062	-0.04139746
254	0x395e8a39	0.00021223062
255	0x3dc426ce	0.09577714

lin_apt_2.bias f4 [50]
0	0xbba83709	-0.005133514
1	0xbb376cce	-0.0027988437
2	0x3ab4ce1b	0.0013794334
3	0xbb283846	-0.0025668307
4	0xbbb4bf33	-0.005515957
5	0x3a5c3f89	0.00084018015
6	0x3bad23a1	0.0052837883
7	0x3b7eb765	0.0038866636
8	0x3b3616df	0.0027784628
9	0xbbfd2e72	-0.007726484
10	0xbb46228a	-0.003023299
11	0xbb77bee3	-0.0037802986
12	0xbab44351	-0.0013752972
13	0x3af7f044	0.0018916209
14	0xbb754730	-0.0037426464
15	0xbb3f2e2c	-0.0029171808
16	0x3b62ff7b	0.0034637142
17	0x3b627198	0.003455257
18	0x391c9d75	0.00014935977
19	0x3c3bd11b	0.011463429
20	0xbbdedd40	-0.0068012774
21	0x3bb2810e	0.0054475134
22	0xbb44b222	-0.0030013402
23	0xbc19aef4	-0.009380091
24	0x3b41b7c6	0.0029559
25	0x3baa13fb	0.00519037
26	0x3b8701c7	0.004120085
27	0x3c0973cf	0.008389427
28	0xbaa91b50	-0.0012901817
29	0xbacf236f	-0.0015803407
30	0x3bcdfa64	0.0062859524
31	0xbc140bab	-0.009035985
32	0xbc14d75d	-0.00908455
33	0x3b0f6a2c	0.0021883352
34	0x3a2ce3c7	0.0006595221
35	0xba99cf25	-0.0011734708
36	0xbb260592	-0.002533291
37	0x3c2b4fdc	0.010456052
38	0x3b978588	0.0046240725
39	0xbc3a3903	-0.011366132
40	0xb9958441	-0.00028518031
41	0x3b7034bb	0.0036652524
42	0x3c1c104f	0.009525373
43	0xbbea6cb0	-0.00715407
44	0xbb81385c	-0.003943486
45	0xbb1b6adc	-0.0023714816
46	0xbc4663e0	-0.012108773
47	0xbbaca2bd	-0.0052684234
48	0x3bc51998	0.006015014
49	0xb7d899d1	-2.5820833e-05

lin_apt_3.weight f4 [10, 50]
0	0x3c31e453	0.010857659
1	0x3a45b3b4	0.00075417315
2	0x3ca9fb15	0.020749608
3	0x3ccb5add	0.0248236
4	0x3bf4ea14	0.0074741933
5	0x3c931ec5	0.017959008
6	0xbc7d3d31	-0.015456484
7	0x3c0937f7	0.008375159
8	0x3d4e0500	0.050297737
9	0xbc16717d	-0.009182331
10	0x3c6c57cc	0.014425229
11	0x3cca9309	0.024728315
12	0x3d850b57	0.064963035
13	0xbcaa5bd6	-0.020795744
14	0x3d000372	0.031253286
15	0xbbfd0bb7	-0.007722344
16	0xbcd2f16c	-0.025749885
17	0x3c898b68	0.016790107
18	0xba0336bb	-0.0005005409
19	0x3c412213	0.011787909
20	0xbd0cb263	-0.03434981
21	0xbc298022	-0.010345491
22	0x3d6634cc	0.056202695
23	0xbc35a69f	-0.011087089
24	0x3a34bfa0	0.00068950094
25	0xbd0164bf	-0.03159022
26	0x3bf08bf8	0.0073409043
27	0xbc3a8bc9	-0.011385866
28	0x3c05fbf5	0.008177747
29	0x3becd89a	0.0072279694
30	0xbb5d6d26	-0.0033786981
31	0xbb5e4583	-0.0033915944
32	0xbb7195be	-0.0036862935
33	0x3c910cd2	0.017706309
34	0xbc90da25	-0.017682144
35	0xbbc95cf0	-0.006145112
36	0xbd43d806	-0.047813438
37	0xbd2e80f6	-0.042603455
38	0xbc5b824e	-0.013397766
39	0xbc3e2abb	-0.011606867
40	0xbbf7cd9d	-0.007562353
41	0x3b4a5998	0.0030876156
42	0xbcbe3c09	-0.023221986
43	0x3d213c09	0.039363895
44	0xbc8c8c77	-0.017156823
45	0xbce5b4ce	-0.028040316
46	0x3c8b8e15	0.017035523
47	0x3c7c04dd	0.015382019
48	0x3aae7d67	0.0013312519
49	0x3c9c4324	0.019074984
50	0x3c56b8c4	0.013105575
51	0x3c8a3e4e	0.016875412
52	0x3cc25567	0.023722364
53	0xbd4201c2	-0.047364958
54	0xbcdb646a	-0.02678128
55	0xbd18e7d5	-0.037330467
56	0x3d797b1d	0.060908426
57	0x3bf2bc5a	0.007407707
58	0x3acb30f4	0.001550226
59	0xbceb5592	-0.028727327
60	0xbb8f593b	-0.004374651
61	0x3aface11	0.0019134899
62	0xbb9b8f9d	-0.0047473446
63	0x3d13d080	0.036087513
64	0xbbc99d1c	-0.006152762
65	0xbc001f14	-0.00781991
66	0xbcf72ca4	-0.030172653
67	0x3c417b45	0.011809175
68	0xbb4e423d	-0.0031472587
69	0xbb757c8e	-0.0037458274
70	0xbbb27078	-0.005445536
71	0x3b637508	0.0034707207
72	0x3acb2efd	0.0015501674
73	0x3cf2cd22	0.02963883
74	0x3c8a4dcb	0.016882798
75	0x3cb15200	0.021645546
76	0x3b4cebd7	0.0031268501
77	0xbbf12e7b	-0.007360277
78	0xbd2ccc03	-0.04218675
79	0x3c656925	0.014002119
80	0x3b3e6ab2	0.0029055295
81	0xbd187df5	-0.037229497
82	0xbae68855	-0.0017588238
83	0xbd4166b1	-0.047217075
84	0x3c332416	0.0109338965
85	0x3d1c1bfa	0.038112618
86	0x3d88dd9a	0.06682892
87	0x3ce26dcd	0.027640248
88	0x3ad26a04	0.0016053324
89	0x3ccbf125	0.02489526
90	0x3c5735e4	0.013135407
91	0xbccef0eb	-0.025261363
92	0x3d262dc6	0.040570997
93	0xbd1c2911	-0.0381251
94	0xbbbab6be	-0.005698054
95	0x3d1498b4	0.03627844
96	0xbc10afd7	-0.008830986
97	0x3d8d8b30	0.069113135
98	0x3c8131e8	0.015770867
99	0xbd57a572	-0.052648015
100	0x3b043c26	0.0020177453
101	0xbc9dd8be	-0.01926839
102	0x3bf52584	0.007481279
103	0xbbfc8316	-0.0077060563
104	0x3cda1474	0.026621081
105	0x3cd1f88f	0.025631217
106	0xbd14335c	-0.036181793
107	0x3c12025b	0.008911694
108	0xbc2d2046	-0.010566777
109	0xbc25b775	-0.01011454
110	0x3c3bcd3f	0.011462509
111	0xbb727230	-0.003699433
112	0x3c9ee916	0.019398253
113	0x3bd2e7d9	0.00643633
114	0xbc155b0a	-0.009115944
115	0x3cb7a937	0.022419555
116	0xbc5737e2	-0.013135882
117	0xbc80d30a	-0.015725631
118	0xbc03ff73	-0.008056509
119	0x3abdfa29	0.0014494109
120	0x3bdf13a3	0.006807761
121	0x3c613259	0.013744914
122	0x3bc16fad	0.0059032054
123	0x3c62d408	0.0138444975
124	0x3c24a243	0.010048452
125	0x3d44b703	0.048026096
126	0xbce11e37	-0.027480228
127	0xbba93946	-0.005164298
128	0xbc7a62f5	-0.015282382
129	0xbc8d9991	-0.01728514
130	0xbd248812	-0.04016883
131	0xbcd7536a	-0.026284892
132	0xb9a12e79	-0.00030742938
133	0xbcc135ab	-0.023585161
134	0x3b1cffbc	0.002395614
135	0x3c9d0d7c	0.019171469
136	0xbc0964b1	-0.008385823
137	0x3c2ea155	0.010658582
138	0xbca6ee2e	-0.020377245
139	0xbce6a046	-0.028152596
140	0xbcfdfedb	-0.031005314
141	0x3cb5ff91	0.02221659
142	0x3cc1d00f	0.02365878
143	0x3c6a98c7	0.0143186515
144	0x3cd7d9b1	0.02634892
145	0x3c9f6e16	0.019461673
146	0x3b4a5a73	0.0030876666
147	0x3c19f0c9	0.009395787
148	0xb9d5ad71	-0.0004075575
149	0x3c70ebb4	0.0147046335
150	0x3b85c3e2	0.004082189
151	0xbd74c413	-0.059757303
152	0xbd3db6e1	-0.046316985
153	0x3d02881a	0.031868078
154	0xbd8228d1	-0.06355441
155	0x3c8ad511	0.016947301
156	0xbc0d962e	-0.008641763
157	0x3c66ce1a	0.014087224
158	0x3cf3abb6	0.029744964
159	0x3d21f884	0.039543644
160	0xbd3a9abf	-0.045557734
161	0x3c8e2470	0.01735136
162	0x3b9f6cc3	0.0048652603
163	0xbd907455	-0.070534386
164	0x3d91ff31	0.07128752
165	0x3d6da30f	0.058016833
166	0xbac9decf	-0.0015401485
167	0xbc6c728f	-0.01443161
168	0xbca3089b	-0.019901564
169	0x3cc419a1	0.023938002
170	0x3ccb5523	0.02482087
171	0xbd8c5c5b	-0.06853553
172	0x3d32790a	0.043572463
173	0x3c93fba4	0.018064328
174	0x3ab1bf55	0.001356105
175	0xbd7411d3	-0.05958731
176	0x3d121aa0	0.035669923
177	0xbc7ddf94	-0.0154952
178	0x3c4eba8c	0.012617718
179	0x3c849cea	0.016188104
180	0xbc5fec5c	-0.013667192
181	0x3c4d9f34	0.012550164
182	0x3c5afbbb	0.013365681
183	0xbce0343b	-0.027368655
184	0xbaa56869	-0.0012619618
185	0xbcc36ccf	-0.023855595
186	0xbc94d987	-0.018170131
187	0x3aabe89c	0.0013115588
188	0x3c9b3bad	0.018949354
189	0xbd286954	-0.041116074
190	0x3cf08d2c	0.029364191
191	0x3cd0ad7b	0.025473347
192	0xbc96da59	-0.018414663
193	0x3d8d6550	0.069040895
194	0xbca99114	-0.020699061
195	0xbd291caa	-0.0412871
196	0x3d8cb6c3	0.068707965
197	0x3c29d67d	0.010366079
198	0xbad5e906	-0.0016320057
199	0x3d490838	0.049080104
200	0x3c9fc7de	0.019504484
201	0x3d8295ea	0.0637625
202	0x3d0374ed	0.03209393
203	0xbd1c887b	-0.038216095
204	0x3cee6c7c	0.029104464
205	0xbd2c099e	-0.04200136
206	0x3d0a80f3	0.03381438
207	0xbcdb14c7	-0.026743306
208	0x3d00bd87	0.031430747
209	0xbb17729b	-0.0023109082
210	0xbd239940	-0.039941072
211	0x3bc44d8e	0.0059906906
212	0xbc855b55	-0.016278902
213	0x3d67802b	0.056518715
214	0xbd5073eb	-0.050891798
215	0xbcbf6f4d	-0.023368502
216	0x3c505b51	0.012717084
217	0xbcfc5ce8	-0.03080602
218	0x3c862c77	0.016378624
219	0x3ccc376c	0.024928771
220	0xbd46be39	-0.048521254
221	0x3aed587a	0.0018108033
222	0xbd43f05b	-0.047836643
223	0xbc9fad07	-0.019491686
224	0x3c950d16	0.018194716
225	0x3d31bf6f	0.043395456
226	0xbd466982	-0.048440464
227	0xbb7eb369	-0.003886426
228	0xbc8ee7a3	-0.017444437
229	0xbd2e4cf1	-0.042553846
230	0x3cfd06d1	0.03088704
231	0xbd48fcb2	-0.049069114
232	0x3b963087	0.0045834216
233	0xbc54beb1	-0.0129849175
234	0x3c06c9b7	0.0082268035
235	0x3ce049b4	0.027378894
236	0x3d0f2623	0.03494848
237	0x3d9e995b	0.07744094
238	0xbc5313a7	-0.012883103
239	0x3d5bf6cd	0.053702164
240	0x3d28f1f5	0.041246373
241	0x3c16223e	0.009163437
242	0x3ca3157a	0.019907702
243	0xbcbe781e	-0.023250636
244	0x3c814397	0.0157793
245	0x3ce6f14f	0.028191237
246	0xbc94873e	-0.018130895
247	0x3d5e1784	0.054221645
248	0xbce4aa91	-0.027913364
249	0xbdb1dfa6	-0.08685236
250	0xbb94cf57	-0.0045413184
251	0xbc8db012	-0.01729587
252	0xbc6d65ec	-0.014489632
253	0xbb8e223d	-0.0043375776
254	0xbc61c4ad	-0.013779801
255	0xbcd22cd1	-0.025656136

lin_apt_3.bias f4 [10]
0	0xbc18d7e6	-0.009328818
1	0x3c98f0d5	0.018669525
2	0xb96da2dc	-0.00022662751
3	0xbcc90db4	-0.024542667
4	0x3cc78683	0.024356132
5	0x3bd0e553	0.006374994
6	0xbc2d1ec9	-0.010566422
7	0xbc345ff8	-0.011009209
8	0x3c454206	0.012039667
9	0x3d31a19c	0.043367013

lin_pep_1.weight f4 [50, 160]
0	0x3e0ad6de	0.13558528
1	0xbd23ff6a	-0.040038504
2	0xbd655d23	-0.055997025
3	0xbce15578	-0.027506575
4	0xbdc4cfff	-0.096099846
5	0xbd0a5aaf	-0.03377789
6	0x3dd1edc6	0.1025043
7	0xbd2d6653	-0.042333912
8	0xbda05ae1	-0.07829834
9	0xbe42ba5e	-0.19016406
10	0xbd6c985e	-0.057762496
11	0x3d000016	0.031250082
12	0x3cb4274e	0.021991398
13	0x3b2fe48a	0.00268391
14	0xbc97a0d0	-0.018509299
15	0xbba53692	-0.0050419057
16	0x3e176121	0.14783145
17	0xbd7e30b2	-0.06205816
18	0xbcbc64bb	-0.02299725
19	0xbc1f25e0	-0.00971362
20	0xbe830806	-0.2559206
21	0x3d41b561	0.047292117
22	0xbdfe5d09	-0.12420089
23	0xbe228fca	-0.15875164
24	0xbd6122ba	-0.05496476
25	0x3e0e3dad	0.13890715
26	0x3d8b57b1	0.06803835
27	0xbcb1b1ed	-0.021691287
28	0x3e2894da	0.16463032
29	0x3dc687a0	0.09693837
30	0xbdc2a77c	-0.09504601
31	0x3e432591	0.19057299
32	0xbd89a3b1	-0.06720675
33	0xbc8aa92d	-0.016926372
34	0x3ddb94e3	0.10721757
35	0xbd8985a0	-0.0671494
36	0x3c355bb1	0.011069224
37	0xbc9b6573	-0.018969273
38	0x3d1cccbc	0.038281187
39	0xbdb818ab	-0.0898908
40	0xbd83e9df	-0.06441092
41	0xbd1f4a17	-0.038889017
42	0x3d119c67	0.035549548
43	0xbd5ab8d1	-0.05339891
44	0xbe1c946f	-0.15290998
45	0x3deb05bf	0.11475705
46	0x3dced6b6	0.100995466
47	0xbd88f3b1	-0.066871054
48	0x3d3052cc	0.04304771
49	0x3ced5586	0.028971445
50	0x3b9b81cb	0.004745697
51	0x3dd2ae58	0.1028716
52	0x3dd1f052	0.102509156
53	0xbb8a48b7	-0.004220094
54	0x3e55fd96	0.20897517
55	0xbd88db94	-0.06682506
56	0xbdb2cf59	-0.08730955
57	0x3db0a782	0.086256996
58	0xbe1f6990	-0.15567613
59	0x3c27e803	0.010248187
60	0xbe6a885d	-0.22903581
61	0x3cd24281	0.025666477
62	0xbd9674f4	-0.07346526
63	0xbe14a461	-0.1451583
64	0xbe76b8fa	-0.24094
65	0x3e226412	0.15858486
66	0x3e023388	0.1271497
67	0xbe812473	-0.2522312
68	0x3e2b8350	0.1674931
69	0x3e28e8ba	0.16495028
70	0xbe6d51cd	-0.23175736
71	0xbd02e614	-0.0319577
72	0xbd149d5c	-0.036282882
73	0x3e7fe016	0.24987826
74	0x3e465e47	0.19371901
75	0x3b1f2cda	0.0024288208
76	0xbe0c966d	-0.13729258
77	0x3dd1157c	0.10209176
78	0xbc931ae8	-0.017957166
79	0x3d0802ba	0.033205725
80	0x3d44e6b4	0.04807158
81	0x3a6b58cc	0.00089777703
82	0x3cdd227b	0.02699398
83	0x3c37d9d0	0.011221364
84	0xbe43dc97	-0.19127117
85	0x3e5ea62f	0.21743082
86	0x3e684f23	0.22686438
87	0xbe8e04ae	-0.27737945
88	0x3e062745	0.13100918
89	0x3def2fe6	0.11679058
90	0xbe2263d4	-0.15858394
91	0x3c98e4f5	0.018663863
92	0xbdcf335a	-0.101172164
93	0x3de54dff	0.11196517
94	0x3d31e01c	0.043426618
95	0xbd13abbb	-0.036052447
96	0x3de6e297	0.11273687
97	0xbd31da7c	-0.043421254
98	0xbe89aa75	-0.2688786
99	0xbd81fc43	-0.06346943
100	0xbd96a219	-0.073551364
101	0x3d9f2072	0.0776986
102	0xbcb7ed0e	-0.022451904
103	0xbdb1617f	-0.08661174
104	0xbe6fab70	-0.23405242
105	0x3e0bb783	0.13644223
106	0x3e313a9b	0.17307512
107	0xbd9e022e	-0.077152595
108	0x3dd354f7	0.1031894
109	0x3db32882	0.087479606
110	0xbc11245b	-0.0088587655
111	0x3dfbf87e	0.123032555
112	0xbe60af13	-0.21941786
113	0x3d931d8b	0.07183369
114	0xbb365ad5	-0.0027825136
115	0x3e28ccff	0.1648445
116	0x3bafb5e6	0.00536226
117	0xbd4546e8	-0.048163325
118	0x3c023a76	0.0079485085
119	0x3d6fc118	0.058533758
120	0xbcb26ac2	-0.021779422
121	0x3d215e2a	0.039396442
122	0x3d95d038	0.07315105
123	0xbd9a0768	-0.07520944
124	0xbdaf3d7e	-0.085566506
125	0x3d94eb2b	0.07271417
126	0x3e5f577d	0.21810718
127	0xbe1801bf	-0.14844416
128	0x3dda354f	0.10654699
129	0x3d9817d2	0.07426418
130	0x3e08c25f	0.13355397
131	0x3e23625a	0.15955487
132	0xbd6ad42b	-0.057331245
133	0x3e334e9b	0.17510454
134	0x3c82c745	0.01596416
135	0x3e0df765	0.13863905
136	0xbd9c0609	-0.076183386
137	0x3c9b904f	0.01898971
138	0xbeb1d039	-0.34729174
139	0x3ce04ba6	0.027379822
140	0xbe17dec8	-0.14831078
141	0x3e32de7d	0.17467685
142	0x3dd53a3e	0.104114994
143	0xbe25d792	-0.16195515
144	0xbe2b0803	-0.16702275
145	0x3d1d52b1	0.03840894
146	0x3e471ab6	0.19443783
147	0xbe03d199	-0.12872924
148	0x3e63e1d9	0.22254123
149	0x3ddc56c6	0.10758738
150	0xbd515a99	-0.05111179
151	0xbc155197	-0.009113691
152	0xbcc28616	-0.023745578
153	0x3deef04d	0.116669275
154	0x3e5cb7e0	0.21554518
155	0x3da588e4	0.080827504
156	0x3dc14a49	0.09437997
157	0x3d1cd577	0.038289513
158	0xbe626a1a	-0.22110787
159	0x3e11d826	0.1424261
160	0xbd964d05	-0.07338909
161	0xbd0e4a68	-0.034738928
162	0xbd5133a9	-0.051074658
163	0x3d8942bd	0.067021824
164	0xbdbd17b4	-0.09233037
165	0xbc92cf3a	-0.017921079
166	0xbd44ba65	-0.048029322
167	0xbdb34610	-0.08753598
168	0x3cb97ce0	0.022642553
169	0x3d698a98	0.05701694
170	0x3dd072a1	0.10178114
171	0x3c8f943f	0.017526744
172	0x3e0cd8aa	0.13754526
173	0x3c78a1e8	0.01517532
174	0x3de720c4	0.112855464
175	0xbd320cf5	-0.043469388
176	0xbe793695	-0.24337228
177	0x3db397c9	0.08769185
178	0x3d01cfc6	0.03169229
179	0x3badbb1e	0.005301847
180	0x3d8929a2	0.06697394
181	0xba5ca238	-0.00084165065
182	0xbc7bce04	-0.015368942
183	0x3debcc7b	0.11513611
184	0x3e813996	0.25239247
185	0xbe3c0925	-0.18362863
186	0xbe13f3ee	-0.1444852
187	0x3e325be1	0.17417862
188	0xbe9a0785	-0.30083862
189	0x3c49755a	0.012296045
190	0x3e65806d	0.22412272
191	0xbc3af7f1	-0.011411653
192	0x3e4f7244	0.20258433
193	0xbe8710a6	-0.2637989
194	0xbd740a43	-0.0595801
195	0x3e131527	0.14363538
196	0x3d6b6624	0.057470456
197	0xbe0a94ca	-0.13533321
198	0x3eb18982	0.34675223
199	0x3ceb43df	0.028718887
200	0x3de8a648	0.11359841
201	0xbcff7c8a	-0.031187315
202	0xbca4ea50	-0.02013126
203	0x3e4090d1	0.18805243
204	0x3e8cee2b	0.27525458
205	0xbdeae2a7	-0.11469012
206	0xbe437405	-0.19087227
207	0x3e923d89	0.28562573
208	0xbe8e51ba	-0.27796727
209	0xbe0b3660	-0.13594961
210	0x3d72ced8	0.059279293
211	0x3d389ab7	0.045069423
212	0x3e0daf63	0.13836436
213	0xbea37892	-0.31927925
214	0xbe2bd2d7	-0.16779648
215	0x3e267e07	0.16259013
216	0x3c3de545	0.011590307
217	0xbe677d89	-0.22606482
218	0x3e3738fe	0.17892835
219	0xbe5ed622	-0.21761373
220	0x3e0066bb	0.12539189
221	0x3d811890	0.06303513
222	0xbd69fa7f	-0.057123657
223	0x3de78c84	0.11306098
224	0x3ebd90b2	0.37024456
225	0xbe0258cc	-0.12729186
226	0xbdc74632	-0.097301856
227	0x3e58687e	0.2113361
228	0xbea69797	-0.3253753
229	0xbe3bfad1	-0.18357398
230	0x3c9a611b	0.018845132
231	0xbd5f5ed0	-0.05453378
232	0x3e01ec1a	0.12687722
233	0xbea5ba9f	-0.32368943
234	0xbe75b2ab	-0.23993938
235	0xbd93a726	-0.072096154
236	0x3e04fb74	0.12986547
237	0xbd644aa3	-0.05573524
238	0x3e2e5293	0.17023687
239	0xbea28760	-0.31743908
240	0x3ddde34e	0.108343706
241	0xbde5c608	-0.11219412
242	0xbe167fb3	-0.14697151
243	0x3d490af7	0.049082723
244	0x3ec3c55c	0.3823651
245	0xbea66a9b	-0.3250321
246	0xbe8f3b37	-0.27974865
247	0x3d1a8979	0.03772876
248	0xbe7568fa	-0.23965827
249	0xbd7a4ac1	-0.061106447
250	0x3dbaa9a6	0.09114389
251	0xbdbeab1c	-0.0930998
252	0x3e540f25	0.20708902
253	0xbe3f4267	-0.18677674
254	0xbe4a8bbf	-0.19779871
255	0xbd07bb8d	-0.033137847

lin_pep_1.bias f4 [50]
0	0x3dd2d804	0.10295108
1	0xbe8a02ae	-0.2695517
2	0x3e609bf1	0.21934487
3	0xbe0fc39f	-0.14039467
4	0x3e8ddd97	0.27708122
5	0xbdafe1a3	-0.08587959
6	0xbe0838ac	-0.13302869
7	0x3d4219cc	0.047387883
8	0x3dc44f52	0.09585442
9	0xbecb4ed5	-0.39708582
10	0x3d16212b	0.036652725
11	0x3ecdedd7	0.4022052
12	0x3daf3931	0.0855583
13	0xbe7a91fe	-0.24469754
14	0xb9fcc4c9	-0.00048211802
15	0x3e9aac52	0.30209595
16	0x3d9b6417	0.0758745
17	0x3dccc8c0	0.099992275
18	0x3d4fd5f8	0.050741166
19	0xbd225829	-0.039634857
20	0xbd61d38d	-0.05513339
21	0x3e063e3a	0.13109675
22	0x3db22573	0.08698549
23	0x3e19b478	0.1501025
24	0xbe91c707	-0.28472158
25	0x3c81eb9f	0.015859423
26	0xbdf7cea7	-0.12099963
27	0xbe33705f	-0.17523335
28	0x3e5aac72	0.21354845
29	0xbe07b1e0	-0.13251448
30	0xbe52085f	-0.20511006
31	0xbe2009cc	-0.15628737
32	0x3db071c1	0.08615447
33	0xbe398c1b	-0.18119852
34	0xbebe502e	-0.37170547
35	0x3ab82975	0.0014050441
36	0xbe70fc0e	-0.23533651
37	0xbdf58cbc	-0.119897336
38	0x3e8b9467	0.2726166
39	0x3e48cdfc	0.19609827
40	0xbe0a73ac	-0.13520688
41	0xbd8c4243	-0.06848576
42	0x3cd970da	0.02654307
43	0xbd1b283f	-0.03788018
44	0x3cc45ae9	0.02396913
45	0xbd3df123	-0.046372544
46	0x3d683c1a	0.056697942
47	0xbe88a481	-0.26688007
48	0xbd290410	-0.04126364
49	0x3e7ee269	0.24891056

lin_pep_2.weight f4 [10, 50]
0	0xbd39db00	-0.04537487
1	0xbd83671b	-0.0641615
2	0xbcd45ee7	-0.02592416
3	0x3d4434fb	0.04790209
4	0xbc359952	-0.011083918
5	0xbcfef015	-0.03112034
6	0xbd4005b6	-0.046880446
7	0x3d2fcf0c	0.042922065
8	0x3c385eb9	0.011253052
9	0xbd4ea36d	-0.050448824
10	0xbc50940e	-0.0127306115
11	0x3d9e625d	0.07733605
12	0xbbea6a9b	-0.0071538216
13	0xbc8c3352	-0.017114315
14	0x3c5651bf	0.013081013
15	0x3d34de3d	0.044157255
16	0xbcb3c0c6	-0.021942507
17	0x3dacab98	0.084311664
18	0xbab75d98	-0.0013989685
19	0xbd9d6b31	-0.07686461
20	0x3ce39b12	0.027783904
21	0x3cc1d3f4	0.023660637
22	0xbc1bbba9	-0.009505191
23	0x3cd87458	0.026422665
24	0xbdb25c1f	-0.08708977
25	0x3d2c31aa	0.04203955
26	0x3c6d56cc	0.014486026
27	0xbbccb126	-0.0062467037
28	0x3cf6b7a2	0.03011686
29	0x3d0a851c	0.03381835
30	0x3d6b72a5	0.05748238
31	0xbd981ec4	-0.07427743
32	0x3d777ed5	0.06042369
33	0xbd7d6e71	-0.061872903
34	0xbdd0e35f	-0.101996176
35	0x3d69bb51	0.057063404
36	0xbd01bd80	-0.031674862
37	0xbd1e44fe	-0.038640015
38	0x3d2a99b6	0.041650496
39	0x3d4dcdb0	0.050244987
40	0xbca8b3fd	-0.020593638
41	0x3d0cd645	0.03438403
42	0x3ca0465b	0.019564798
43	0xbc7f6020	-0.015586883
44	0x3cc593a8	0.02411826
45	0xbd56cfe2	-0.052444346
46	0x3cfcf3b9	0.030877935
47	0xbbbb0322	-0.0057071606
48	0x398eeee8	0.0002726235
49	0x3ccd2624	0.0250426
50	0x3d19a938	0.037514895
51	0xbcacdc47	-0.02110113
52	0x3b849dda	0.0040471377
53	0x3ccb45a0	0.024813473
54	0xbc79976f	-0.0152338585
55	0x3d243895	0.040093023
56	0x3cccdb71	0.025006982
57	0xbcf42007	-0.029800428
58	0xbd2d6f2a	-0.042342342
59	0xbdb3cf42	-0.08779766
60	0x3caa5649	0.020793097
61	0xbca8ac40	-0.020589948
62	0xbca9fcf6	-0.020750504
63	0xbdd168a1	-0.102250345
64	0xbbfbed00	-0.0076881647
65	0x3dda2249	0.106510706
66	0xbc4b87d7	-0.012422523
67	0xbbd9dfce	-0.006648994
68	0x3da35c9f	0.079766504
69	0x3c2a014e	0.010376288
70	0x3b472b50	0.0030390806
71	0xbd7214cb	-0.05910186
72	0x3dbdb3c0	0.092628
73	0x3ba3691f	0.0049868966
74	0x3d0b613a	0.03402827
75	0x3ccd80ca	0.025085825
76	0xba9d7c90	-0.0012015272
77	0x3ccae48e	0.024767186
78	0xbb1652e4	-0.002293759
79	0x3cdfab21	0.02730328
80	0xbc04bfcc	-0.008102369
81	0xbd932bba	-0.071860746
82	0xbb2e1c45	-0.0026567143
83	0xbbe7cf07	-0.00707424
84	0x3c6a1953	0.014288264
85	0x3c84d05a	0.016212631
86	0xbd553b41	-0.052058462
87	0x3d5fb287	0.054613616
88	0x3dda7101	0.10666085
89	0xbd22ed36	-0.039777003
90	0xbd3b777c	-0.045768246
91	0xbd10e1db	-0.035371643
92	0xbafe4580	-0.0019399375
93	0xbc91e8d9	-0.017811226
94	0x3cf96a2f	0.03044614
95	0xbd26a8b4	-0.04068823
96	0xbd257124	-0.040391102
97	0xbdc1c71b	-0.094618045
98	0x3c7b5270	0.015339479
99	0x3d7ca2bd	0.061678637
100	0x3db8f696	0.090314075
101	0xbd592ab7	-0.05301925
102	0x3da5a4b6	0.08088057
103	0xbc1cf12a	-0.009578982
104	0x3dc9720d	0.098362066
105	0xbc328141	-0.010895074
106	0xbc9aa192	-0.01887587
107	0x3d06d2e1	0.032915954
108	0x3c57ca57	0.0131708
109	0xbe1de3e4	-0.15418965
110	0xbbc91f7e	-0.0061377874
111	0x3e035112	0.12823895
112	0x3d97f94e	0.07420598
113	0xbdb99540	-0.0906167
114	0xbd349d9c	-0.04409562
115	0x3d93bd5a	0.0721385
116	0x3d856c89	0.06514842
117	0x3dc4a44a	0.09601648
118	0xbac9fbe8	-0.0015410157
119	0x3b82a21c	0.00398661
120	0x3c9962c4	0.018723853
121	0x3d30dfaa	0.043182053
122	0xbc85208d	-0.016250873
123	0x3d30ed36	0.043194972
124	0xbe54e123	-0.20789008
125	0xbcd03ad5	-0.025418678
126	0xbd4f5b37	-0.0506241
127	0xbd942f9e	-0.07235645
128	0x3bc624bd	0.00604686
129	0xbd8e7d67	-0.06957512
130	0xbdf28656	-0.11842029
131	0xbc36b41e	-0.011151342
132	0xbcb173c0	-0.02166164
133	0xbd0a6653	-0.03378899
134	0xbdbab665	-0.0911682
135	0x3d5cab95	0.05387457
136	0xbd982abe	-0.074300274
137	0xbcc8ff02	-0.02453566
138	0x3d85bac7	0.065297656
139	0x3d7309b5	0.05933543
140	0xbcc922f0	-0.024552792
141	0xbd411a3d	-0.047144163
142	0x3ca13eee	0.019683328
143	0x3a02fedd	0.0004997084
144	0xbd10654b	-0.03525285
145	0x3d6e795c	0.058221206
146	0x3c9fdbf6	0.019514065
147	0xbdd71854	-0.10502687
148	0x3cbe42ce	0.023225214
149	0x3da7bc95	0.08190266
150	0x3d360dea	0.044446863
151	0xbd2d8c8a	-0.042370357
152	0x3d74582b	0.059654396
153	0xbde377ae	-0.111068115
154	0x3db3e8aa	0.087846115
155	0x3cf3c255	0.02975575
156	0xbd318959	-0.043343876
157	0xbc163187	-0.009167082
158	0x3cf31a7f	0.02967572
159	0xbda6643c	-0.08124587
160	0x3cd1ebdd	0.025625164
161	0x3e0d4cea	0.13798872
162	0xbc2cdc49	-0.010550567
163	0xbd20c9e5	-0.03925504
164	0x3c7ec3f5	0.0155496495
165	0x3dfa0541	0.12208033
166	0x3b876288	0.004131619
167	0xbd17d761	-0.037070636
168	0x3cd30aa1	0.025761904
169	0x3bc87e21	0.0061185514
170	0xbca06180	-0.019577742
171	0xbd07d1ce	-0.03315907
172	0xbcf4a892	-0.029865537
173	0x3d48ce3f	0.049024817
174	0xbd2840de	-0.041077487
175	0xbcfe4b10	-0.031041652
176	0xbd5a58a0	-0.053307176
177	0xbe0422ff	-0.12903975
178	0x3dc37ad0	0.09544909
179	0xbda76ce7	-0.08175068
180	0xbda4e61d	-0.08051703
181	0x3c6d08ba	0.014467413
182	0x3d14d428	0.03633514
183	0xbdb93751	-0.09043754
184	0xbdc1a57d	-0.094553925
185	0x3ce3e910	0.027821094
186	0xbd7b6f3b	-0.061385375
187	0xbc89e855	-0.016834417
188	0x3db516b4	0.08842221
189	0x3db81d5f	0.08989977
190	0xbda5af98	-0.080901325
191	0xbd421d80	-0.047391415
192	0xbd175490	-0.03694588
193	0x3ccb8d21	0.024847569
194	0x3c6a97c6	0.014318412
195	0xbb20616e	-0.0024472135
196	0x3d91ef6b	0.071257435
197	0xbdb80804	-0.08985904
198	0x3c9087b6	0.017642837
199	0x3d38c771	0.045112077
200	0x3d01a3d0	0.031650364
201	0xbd651033	-0.055923652
202	0xbb13e834	-0.0022568824
203	0xbd2688e5	-0.040657897
204	0x3d3b84f3	0.045781087
205	0xbd64e6f4	-0.055884317
206	0xbd04e7d7	-0.032447662
207	0x3c88eec2	0.016715411
208	0x3bf742cd	0.007545805
209	0xbd392c06	-0.045208
210	0x3cda94f0	0.026682347
211	0x3cf9f824	0.03051383
212	0x3a87df9c	0.0010366323
213	0xbc1cfb10	-0.009581342
214	0x3c4c471c	0.012468126
215	0x3d075df4	0.033048585
216	0xbcfd537b	-0.030923596
217	0x3d8f8910	0.070085645
218	0x3b6c8995	0.0036092747
219	0xbcca1d70	-0.02467224
220	0x3d19039d	0.03735696
221	0x3cdb2193	0.026749408
222	0x3d889165	0.06668357
223	0x3d868632	0.065685645
224	0x3cead8e7	0.02866788
225	0x3d09c3e8	0.033634096
226	0xbb656bdd	-0.0035006918
227	0xbba39958	-0.0049926452
228	0x3cc8dd44	0.02451957
229	0xbd072aed	-0.03299992
230	0xbbc2d523	-0.005945818
231	0x3cad66d7	0.021167202
232	0xbd2e83d5	-0.042606194
233	0xbc3e3e1d	-0.011611489
234	0xbdb076bc	-0.08616397
235	0xbc9db075	-0.01924918
236	0xbd932f9c	-0.07186815
237	0xbcf91176	-0.030403834
238	0x3d37dbe5	0.044887442
239	0x3d277128	0.0408794
240	0x3cd1e497	0.025621695
241	0xbd56842e	-0.05237215
242	0xbc188020	-0.009307891
243	0x3bc28d13	0.0059372275
244	0xbcf9d098	-0.030494973
245	0x3d96965f	0.073529
246	0x3d9c45e9	0.07630522
247	0xbcc85998	-0.024456784
248	0x3d10ae40	0.035322428
249	0x3d750f6d	0.059829164
250	0xbc6a3e8e	-0.014297141
251	0xbd3837d5	-0.04497512
252	0xbd7a5b81	-0.06112242
253	0xbd600cbb	-0.05469964
254	0xbd5a03cb	-0.053226274
255	0xbda0bef5	-0.07848922

lin_pep_2.bias f4 [10]
0	0xbcbe0e94	-0.02320031
1	0xbc855248	-0.016274586
2	0xbd6629de	-0.05619227
3	0xbd4acd05	-0.049511928
4	0xbcd60892	-0.026127134
5	0x3bc13037	0.0058956402
6	0xbbc2c2cf	-0.005943633
7	0x3d1e8b2e	0.03870695
8	0x3d61a174	0.055085614
9	0xbc1d224e	-0.009590698

lin_apt.0.weight f4 [100, 160]
0	0x3d764063	0.060119998
1	0xbd35f3d0	-0.04442197
2	0xbd9cd806	-0.07658391
3	0x3dbb2652	0.091381684
4	0x3d3e637d	0.0464816
5	0x3c515cb7	0.012778453
6	0xbde85df3	-0.113460444
7	0x3c68d09b	0.014209892
8	0x3c3626aa	0.011117617
9	0xbdeabaa6	-0.114613816
10	0xbe005aeb	-0.12534682
11	0x3da25255	0.0792586
12	0xbcffa90c	-0.031208538
13	0x3d7dd496	0.061970316
14	0xbe57cf54	-0.21075183
15	0x3df00e59	0.117214866
16	0xbd8c3973	-0.06846895
17	0xbdc38596	-0.09546964
18	0xbda8f5b8	-0.08249992
19	0x3e1f3e12	0.15551022
20	0x3d87af8b	0.06625279
21	0x3d71b0e1	0.059006575
22	0xbe4587bc	-0.1929006
23	0x3d8f5e0e	0.070003614
24	0xbc1ddd07	-0.009635217
25	0xbdd545a5	-0.10413674
26	0xbe02f861	-0.12790062
27	0x3da58737	0.08082431
28	0xbcb2237d	-0.021745438
29	0x3deee9dc	0.11665699
30	0xbe0a94dc	-0.13533348
31	0x3bc18170	0.0059053227
32	0x3da52c7e	0.08065127
33	0xbdda79a6	-0.10667734
34	0xbda9693e	-0.082720265
35	0x3d390d5d	0.04517876
36	0x3cc987fe	0.024600979
37	0xbca5a570	-0.020220488
38	0xbe023223	-0.12714438
39	0x3de6cb02	0.112691894
40	0xbd128560	-0.035771728
41	0xbe1635b2	-0.1466892
42	0xbdcd548f	-0.10025894
43	0x3d7d9785	0.06191208
44	0xbcce8bba	-0.025213111
45	0xbd8d1a10	-0.06889737
46	0xbe20bfb7	-0.15698133
47	0x3d0c6da6	0.034284256
48	0x3d84ac1f	0.06478142
49	0x3dc838d2	0.097764626
50	0xbd482146	-0.048859857
51	0x3d4bd214	0.049760893
52	0x3e27ee50	0.16399503
53	0xbb6f545d	-0.003651879
54	0xbe6d869c	-0.2319588
55	0x3d89da4a	0.067310885
56	0xbca66065	-0.020309636
57	0x3d6c077d	0.05762433
58	0xbd9a3f11	-0.0753156
59	0x3e087b27	0.13328229
60	0xba866f4d	-0.0010256559
61	0x3d75786d	0.0599293
62	0xbd855e90	-0.06512177
63	0x3d137243	0.03599764
64	0xbdac9cb0	-0.08428323
65	0xbd26763b	-0.040640097
66	0xbdbca9d3	-0.09212079
67	0x3c294666	0.010331726
68	0x3bf56a13	0.0074894517
69	0xbdf110a3	-0.11770751
70	0xbc900615	-0.017581025
71	0xbe1781b8	-0.14795578
72	0x3e01544e	0.12629816
73	0xbd4b0707	-0.04956725
74	0xbd550603	-0.052007686
75	0xbd889510	-0.066690564
76	0x3dd492b7	0.10379546
77	0x3cb30e31	0.021857353
78	0xbe7fd7ac	-0.24984616
79	0x3dc6d65d	0.09708855
80	0x3e0a8ca2	0.1353021
81	0xbddbc1fe	-0.107303604
82	0xbe596c08	-0.21232617
83	0x3b2f16ff	0.0026716588
84	0xbca3d5df	-0.019999443
85	0x3e21ea31	0.15811993
86	0xbe212ce8	-0.15739787
87	0x3e61d857	0.22055183
88	0x3dd33995	0.10313717
89	0x3dc55001	0.096344
90	0xbe46d942	-0.19418815
91	0x3d2e4fbe	0.042556517
92	0x3d29741e	0.041370504
93	0x3e32ef4e	0.174741
94	0xbdfeea66	-0.12447052
95	0x3ddebcf3	0.10875883
96	0xbce9dbfe	-0.028547283
97	0xbddaef75	-0.10690204
98	0xbc5eb53c	-0.013593014
99	0x3e051c3f	0.12999056
100	0x3e0b1bda	0.13584843
101	0xbcf2cade	-0.02963775
102	0xbdd1b67a	-0.10239883
103	0x3db2876c	0.08717236
104	0x3d848398	0.06470412
105	0x3e0c97f7	0.13729845
106	0xbe0a242f	-0.13490365
107	0x3d04a9a3	0.03238834
108	0x3dddb865	0.10826186
109	0x3bd5986a	0.0065184133
110	0xbd3283b3	-0.04358263
111	0x3dec8285	0.11548332
112	0xbd0ced35	-0.034405906
113	0xbda9c383	-0.08289244
114	0xbe8be16f	-0.2732043
115	0x3dd60c9b	0.10451623
116	0x3d322701	0.04349423
117	0x3d0f2a70	0.03495258
118	0xbd588921	-0.05286515
119	0x3e3c52d2	0.18390968
120	0x3e86e685	0.26347747
121	0xbe075889	-0.13217367
122	0xbe388a5e	-0.18021533
123	0x3e4311ad	0.19049712
124	0xbc31298d	-0.010813129
125	0x3cd791df	0.026314674
126	0xbdc6b40f	-0.09702312
127	0x3e2251cc	0.15851516
128	0x3cb2458a	0.021761674
129	0x3c8ff519	0.017572926
130	0xbea667bf	-0.32501027
131	0x3e7c0ae9	0.24613537
132	0xbdc452dd	-0.095861174
133	0xbd12d366	-0.035846137
134	0xbd85a428	-0.06525451
135	0x3df7fdd2	0.12108959
136	0x3d084442	0.03326822
137	0x3ddfe167	0.10931664
138	0xbcecfbd4	-0.028928675
139	0xbdc3a01e	-0.09552024
140	0xbd6f9f1a	-0.05850134
141	0xbc800bb4	-0.01563058
142	0xbdc9f11d	-0.09860442
143	0x3b4bd636	0.0031103021
144	0xbda908ab	-0.082536064
145	0xbe3ca962	-0.1842399
146	0xbdd19c88	-0.10234934
147	0x3e367725	0.17818888
148	0x3d8960cc	0.06707916
149	0xbca84e79	-0.020545231
150	0xbd854e12	-0.06509031
151	0x3e061b69	0.13096394
152	0x3dba95e7	0.09110623
153	0xbe083e11	-0.13304926
154	0xbdbbde49	-0.09173257
155	0x3e11e4fd	0.14247508
156	0xbc73b515	-0.014874716
157	0xbd0ac67c	-0.033880696
158	0xbdc09770	-0.094038844
159	0xbd8fa2c1	-0.07013465
160	0x3cc75be0	0.024335802
161	0x3b6c6449	0.0036070517
162	0x3d9ecf0e	0.07754336
163	0xbd9f7cea	-0.07787497
164	0x3c9f24db	0.019426754
165	0x3e284dff	0.16436003
166	0x3db6a250	0.089176774
167	0xbe256054	-0.16150028
168	0xbd45bc20	-0.048275113
169	0x3d19e60f	0.037572917
170	0x3df2fae5	0.118642606
171	0xbde56ffe	-0.112030014
172	0xbdce60bf	-0.100770466
173	0xbcb9288d	-0.022602344
174	0x3e3788f5	0.17923339
175	0xbdec977c	-0.11552331
176	0xbd0110b2	-0.031510063
177	0x3d461fce	0.048370175
178	0x3e056a64	0.13028866
179	0xbe61cc97	-0.22050701
180	0xbd6d9869	-0.058006678
181	0x3d89b9b6	0.06724875
182	0x3e06cc46	0.13163862
183	0xbd0dec4c	-0.03464918
184	0xbbd1a91d	-0.0063983337
185	0x3d9d6fc4	0.07687333
186	0x3de367ea	0.111038044
187	0x3c77db5e	0.015127985
188	0x3cf5f83c	0.030025594
189	0xbd59eeef	-0.05320638
190	0x3ea99637	0.33122417
191	0xbd85a155	-0.06524912
192	0xbc317630	-0.010831401
193	0xbd78f969	-0.06078473
194	0x3d5ea8af	0.054360088
195	0x3c976dfb	0.01848506
196	0xbd2d7c47	-0.04235485
197	0x3def7dec	0.116939396
198	0xbd07f12d	-0.033188988
199	0xbdb3e0ac	-0.08783087
200	0xbe1ad87d	-0.15121646
201	0x3d7526cd	0.059851456
202	0x3c4acb05	0.012377505
203	0xbde4ae59	-0.11166067
204	0xbd2b2fd1	-0.04179365
205	0x3c91f040	0.017814755
206	0x3e4be9fb	0.19913475
207	0xbcf20bf0	-0.029546708
208	0x3e0a4105	0.13501365
209	0x3daf936e	0.08573042
210	0x3e21ee9d	0.1581368
211	0xbe01e2c8	-0.12684166
212	0x3dbca3f6	0.092109606
213	0x3cde947c	0.027170412
214	0x3d406d21	0.046979073
215	0xbd3b6190	-0.04574734
216	0xbdc2d3ab	-0.09513029
217	0xbd0375d8	-0.032094806
218	0x3e1b47b3	0.1516407
219	0xbdd95f68	-0.106139004
220	0xbc9b1c2f	-0.018934337
221	0x3caafa96	0.020871442
222	0x3de978d5	0.114
223	0xbd089449	-0.03334454
224	0xbc01cd75	-0.00792252
225	0xbd71da7c	-0.059046254
226	0x3b2ac149	0.0026055148
227	0xbd8e39fd	-0.06944654
228	0xbd8af3a2	-0.067847505
229	0xbd5308f4	-0.05152221
230	0xbc9defd2	-0.019279394
231	0xbe04f9b4	-0.12985879
232	0xbca2306a	-0.019798476
233	0x3dc7d1be	0.09756802
234	0x3d36fa05	0.04467203
235	0xbc93b1b0	-0.018029064
236	0x3dbfafcc	0.093597025
237	0xbd675aec	-0.056483194
238	0x3deb28cc	0.11482391
239	0xbd49c213	-0.04925735
240	0xbd9c045d	-0.0761802
241	0xbcf1b3a0	-0.029504597
242	0x3de8ec00	0.113731384
243	0xbdc21193	-0.09476008
244	0xbd73d5e8	-0.05953017
245	0x3d025230	0.03181666
246	0x3dd780c5	0.10522608
247	0xbd1750b5	-0.036942203
248	0xbd801de6	-0.06255703
249	0xbdf53a94	-0.119740635
250	0x3dd509da	0.1040227
251	0xbe0185d4	-0.12648708
252	0x3ba3e2d5	0.0050014057
253	0xbdb34820	-0.08753991
254	0x3e2380fe	0.15967175
255	0xbd251b8f	-0.040309485

lin_apt.0.bias f4 [100]
0	0xbbebd433	-0.007196927
1	0x3cd9cf0f	0.026587991
2	0x3bb4cef5	0.0055178353
3	0x3cb2bfa9	0.021819906
4	0xbc8830c4	-0.016624816
5	0x3d197a91	0.037470404
6	0xbcc8b937	-0.02450238
7	0xbd9f8ae5	-0.07790164
8	0xbd5653ec	-0.052326128
9	0x3a9eb3fd	0.0012108084
10	0x3c1f2ea2	0.009715708
11	0xbd06e0d2	-0.03292925
12	0xbd3824fd	-0.04495715
13	0x3d07fcf5	0.033200223
14	0x3954d919	0.0002029877
15	0xbb6f99d8	-0.0036560204
16	0x3c53eb7e	0.012934564
17	0xbd13e234	-0.036104396
18	0xba1ce73c	-0.00059853843
19	0xbc13d582	-0.009023072
20	0xbcf66096	-0.030075353
21	0x3d505c9a	0.05086956
22	0x3d3e8796	0.046516024
23	0xbd1f5ca1	-0.038906697
24	0x3d3dc454	0.04632981
25	0xbcd62435	-0.026140312
26	0x3c430f4d	0.011905503
27	0xbc0f0241	-0.008728565
28	0xbb7bdef9	-0.0038432463
29	0xbd58d778	-0.052939862
30	0x3c1be3c4	0.009514753
31	0xbd10349a	-0.035206415
32	0x3af14002	0.0018405917
33	0x3d600163	0.054688822
34	0x3d3cd4ae	0.046101265
35	0xbd880fc4	-0.06643632
36	0x3cf95aff	0.030438898
37	0xbd213e2c	-0.039365932
38	0xbd51cac5	-0.051218767
39	0x396c9582	0.0002256241
40	0x3d225f9e	0.03964197
41	0xbc7975d8	-0.01522585
42	0x3c945557	0.0181071
43	0x3cb5eaa8	0.02220662
44	0x3ca7b20d	0.020470643
45	0xbd0179df	-0.031610366
46	0xbbfe7c5a	-0.0077662887
47	0xbd64f3e1	-0.055896644
48	0x3d25a67d	0.04044198
49	0x3b56926e	0.0032741087
50	0x3d401e23	0.04690374
51	0xbccf6761	-0.02531785
52	0x3c2734e7	0.010205484
53	0xbceca211	-0.028885873
54	0x3bde2e81	0.006780446
55	0xbc9f86b2	-0.019473407
56	0x3b82cdf0	0.003991835
57	0xbd361341	-0.044451956
58	0x3d0503d3	0.03247435
59	0x3d057921	0.03258622
60	0x3d843254	0.06454912
61	0xbccdad6d	-0.02510711
62	0xbb685a8c	-0.003545436
63	0x3ce36de1	0.027762355
64	0x3c48e478	0.012261502
65	0xbd9e254a	-0.07721956
66	0x3c075d85	0.008262043
67	0x3c088dc7	0.008334584
68	0x3c988303	0.018617159
69	0x3c702007	0.014656073
70	0xbd69e08b	-0.057098906
71	0xbd73adab	-0.059491795
72	0x3b22465b	0.0024761173
73	0x3c47cf82	0.01219547
74	0xbd2cf05d	-0.042221416
75	0xbd7a403e	-0.061096422
76	0x3d39f649	0.04540089
77	0xbc5679f0	-0.013090596
78	0xbc2923b2	-0.010323452
79	0x3b9b0cec	0.004731765
80	0x3d30c57b	0.043157082
81	0x3d7eeffd	0.06224059
82	0x3d25bc46	0.040462755
83	0x3c9d4780	0.019199133
84	0x3c53bde8	0.012923695
85	0xbce3d03c	-0.027809255
86	0x3cdf398a	0.027249116
87	0x3d49774e	0.049186043
88	0xbcfb4a78	-0.030675158
89	0xbc4b1de9	-0.012397268
90	0xbb77e877	-0.0037827769
91	0xbcb5614e	-0.022141125
92	0x3c7c96a2	0.015416773
93	0xbd1cc6e4	-0.038275614
94	0x3d3e2963	0.04642619
95	0xbd1c5cc2	-0.0381744
96	0xbb39633e	-0.0028287913
97	0x3cb7a309	0.022416608
98	0x3c1811ec	0.009281617
99	0x3cccd884	0.025005586
