src/models/models_to_evaluate/04152020.pth (torch_old, 84172 bytes, 19 tensors)

cnn_apt_1.weight f4 [100, 40, 3]
00000000: c511 bbbe 1ee7 dd3d 0aff ee3b 622a 9bbf
00000010: f75b 4dbf 6005 423f e4d2 20bf c622 f9be
00000020: 746a 74be 6abb 2cbf cb17 fdbd 3c0f 183f
00000030: 8499 44bf 4554 ebbe 8d10 a33e 2557 8cbe
00000040: 02c2 e9be e798 d63b 087f 15bd 700e 4abf
00000050: 10cf 913f 2db3 c53d 3522 6bbe d853 95be
00000060: d001 39bf c88e 23bf f7f5 c53d 329d 3e3c
00000070: 815f 2fbf 9a24 423f 68e4 20bf 9896 52bf
00000080: 083c 6fbd d315 43bf 80f6 74bf 9031 203f
00000090: f9aa 30bf b40f 10be c008 803f 1207 72bf
000000a0: b9b9 ccbe 895e 923e 29b9 23bf 1016 f83e
000000b0: ba02 b13d 1fcd 4abf a2fc 21bf f72a 163f
000000c0: 63eb c9be 9e3b 32bf e975 f33e dad0 dfbc
000000d0: 5a60 a1bf 7e4e 243f b151 c9be 5b68 37bf
000000e0: 9b81 743f f3df a4bf 9d7d 59bf 732e 5a3f
000000f0: efb0 9abf 390a 71bf b61f b1be 25d7 97bf
00000100: 2e52 d5be ed60 72be edc4 a5be d371 7cbf
00000110: a2c3 a93f 681a 16bf 3b9f a2bf 92a5 843f
00000120: f882 d2be 58d1 e73d f6f5 0dbf b0ee 55bf
00000130: 06f3 8fbf e039 423c 1ffd 86bf 0a89 50bf
00000140: 3e2a 333e ea85 5cbe 103c 97be 6d9f 883f
00000150: 8834 0ebf 45b1 aabf dc79 c33f 3895 6bbf
00000160: f929 9ebf 6bf0 333f a0f7 8fbe b7e3 aebe
00000170: 5f44 813f e1ca dbbe f78c 7abf 57c0 963f
00000180: 071f 2abf 24ce 6dbf 8aa0 b33f 3f83 b63d
00000190: 89eb 2ebf d2ee 133f 3bb2 773e 0619 8fbf
000001a0: 64b1 9d3f cc97 62bf 1d7a 17bf 6604 8f3f
000001b0: 28e7 d0be 685e b03e 3cc0 3d3f d1e9 edbd
000001c0: 780d 8fbf dcf9 413f 5c1e 68bf 13a4 7cbf
000001d0: 2c97 ecbe 097f 3ebf c069 b9be 346d 9a3f
000001e0: 2d00 41ba 2307 da3d 8dd6 97be 5fc4 f6bd
000001f0: a49f 0dbe edfa cfbd 6079 5bbe f4a8 94be
00000200: 7d27 debe 0057 c3be b5b6 90be 24ec 0bbe
00000210: a6cc 9d3d 9e15 6dbe d3e2 ab3e bb9f 5abe
00000220: 1832 f7bd 252b 95be 685b a83e 3cd4 4dbd
00000230: d0d2 67be fabd 093f 2943 37bb 9644 603c
00000240: 7405 623d 5b3e 9cbd 0464 94be f1b3 d6be
00000250: 8ee8 f1be d698 44be 260d 30be 7ec6 a3be
00000260: aec9 833e f82e edbd 4f5d d1be 64c2 913e
00000270: d9aa 59be 0c67 2dbe 3814 1abe 4f20 3dbe
00000280: 69d7 78be 941c 0dbf baed f1bd 4bba 8a3e
00000290: 8328 7fbe 890c f1bd c2c1 37be d805 31be
000002a0: 25a6 3cbb 8158 a6be 8e24 923e 8be4 4a3e
000002b0: f12f 67be 7389 07be cb51 063e 2c79 c7be
000002c0: f45a be3e 0d93 46be ab6f 77be 4030 6cbe
000002d0: fd92 8bbe 780b 23bd e9c1 1bbe d824 89be
000002e0: d69d 283e f56c a0be 80f0 64be 9a9b 633e
000002f0: 8100 94be c7b8 06be c2f0 c2be 7acc b93e
00000300: b70b 56be 193b 30be df1b 17be c135 13be
00000310: 1dbe 08be 71f6 643e 1e9a 7bbd c076 4bbe
00000320: 1e10 c73d 5714 83be b94d 13be 80c7 703c
00000330: 5c3f ab3c 7e0d 92be 7323 c43e 5bae 73be
00000340: e5bc de3b 0f8c 813e 9cf5 2dbe a0c3 e3be
00000350: 5beb eb3e 17b3 b73d e24f ddbe f56b 6bbe
00000360: 512b 35be 1f5a 59be e8dc b03e aa38 94be
00000370: 239e a1be 863c 063f a6c0 bf3d c0ea d0be
00000380: e6f1 d2bd 4c11 e13e 2bdf ecbd 5720 76be
00000390: 23ab f5bd fa82 033f e922 0bbf ca25 1f3f
000003a0: 07e5 183d dfca 6f3c 7705 44be 3397 41be
000003b0: c31b 70be 0ecf eebd 66ed 47be ad1b 8e3e
000003c0: 0672 b6bd 0c01 043d 31cc 81bd cd0b 5fbe
000003d0: 9b8d b03d bbfd 74bd 9843 3fbc e18d 22bc
000003e0: 52b3 cb3b 6f81 18ba 7a0c 8dbd a485 4dbd
000003f0: f42f 05be 9159 33bc db34 a43d 28ad e7bd
-0.36536995 0.10835098 0.0072935866 -1.2122309 -0.8021845 0.7578945 -0.62821794 -0.48659343
-0.23868734 -0.6747347 -0.12358054 0.59398246 -0.76796746 -0.4596273 0.31848565 -0.27410236
-0.4565583 0.006548989 -0.0364981 -0.7892828 1.1391315 0.09653316 -0.22962268 -0.2916553
-0.7226839 -0.6388974 0.09666055 0.011634158 -0.685051 0.758371 -0.6284852 -0.8226104
-0.05840686 -0.76205176 -0.9568863 0.62575626 -0.69010884 -0.1406849 1.000267 -0.9454204
-0.39985445 0.2858775 -0.63954407 0.48454332 0.08643098 -0.7921924 -0.6327611 0.5865931
-0.39437398 -0.6962222 0.47550896 -0.027321268 -1.2607529 0.6418227 -0.39320138 -0.7164361
0.9551026 -1.2880844 -0.84957296 0.85227126 -1.2085246 -0.94156224 -0.34594506 -1.1862532
-0.4166426 -0.23669787 -0.32376805 -0.9861118 1.3262827 -0.5863404 -1.2704843 1.0363028
-0.41115546 0.11319226 -0.5545343 -0.83567333 -1.124604 0.011854619 -1.0545996 -0.81459105
0.17496583 -0.21535459 -0.29538012 1.0673653 -0.55548906 -1.3335348 1.5271564 -0.92024565
-1.2356559 0.70288724 -0.2811861 -0.34158108 1.009899 -0.42928222 -0.97871345 1.1777447
-0.66453594 -0.9289267 1.4033368 0.08911752 -0.6832815 0.57786286 0.24189083 -1.1179512
1.231976 -0.88512874 -0.59170705 1.1173217 -0.40801358 0.34447026 0.7412145 -0.116168626
-1.1175985 0.7577188 -0.90671325 -0.9868786 -0.46209085 -0.7441259 -0.36213493 1.2064576
-0.0007362392 0.106458925 -0.29655877 -0.120491736 -0.1383043 -0.10155282 -0.2143302 -0.2903515
-0.43389502 -0.38152313 -0.28264394 -0.13664299 0.07705049 -0.23152778 0.3357149 -0.21349995
-0.120701015 -0.2913448 0.32882237 -0.05025123 -0.22639012 0.53805506 -0.0027963615 0.013688227
0.05518098 -0.07629081 -0.28982556 -0.4193416 -0.47247738 -0.19198927 -0.17192516 -0.31987375
0.25739807 -0.11581224 -0.408915 0.2846862 -0.2125658 -0.1693384 -0.15046775 -0.18469356
-0.24300922 -0.5512173 -0.11812921 0.27095255 -0.24917798 -0.11769969 -0.17945006 -0.17287385
-0.0028785553 -0.32489398 0.28543514 0.19813745 -0.22576882 -0.13236026 0.13117139 -0.38959634
0.37178767 -0.19392033 -0.24163692 -0.23065281 -0.2726058 -0.03980586 -0.1521069 -0.26785922
0.1646646 -0.31333128 -0.22357368 0.22227326 -0.28906634 -0.13156424 -0.3807431 0.36288816
-0.20902906 -0.17210044 -0.14756726 -0.14375974 -0.13353772 0.22359635 -0.061426274 -0.19869518
0.09719871 -0.25601456 -0.14385118 0.014696002 0.020904236 -0.2852592 0.38308296 -0.2379698
0.0067974203 0.2530217 -0.16988224 -0.44485188 0.46078 0.089697056 -0.43225008 -0.22990401
-0.17692305 -0.21225785 0.34543538 -0.2894948 -0.3156596 0.524361 0.09362917 -0.408041
-0.10300045 0.4395851 -0.115660034 -0.24035774 -0.11995532 0.5137173 -0.54350144 0.62167037
0.037327792 0.014635771 -0.1914271 -0.18905334 -0.2344809 -0.11660586 -0.19524154 0.2775549
-0.08908467 0.03222756 -0.063377745 -0.21781845 0.08620759 -0.05981229 -0.01167383 -0.009921522
0.006216445 -0.0005817627 -0.06887145 -0.050176278 -0.13006574 -0.010946647 0.08017894 -0.11312324

cnn_apt_1.bias f4 [100]
00000000: 2246 7cbf 539e 53be 484c 39be 8c5f 02be
00000010: d36d c4bd a713 dbbe 9c61 f4bd 58a9 a1bd
00000020: 24b6 3d3c 326a f4be ba90 e8bf b5f0 69bf
00000030: b38f e5bf 7b87 36bf 0993 29bf 88c5 2cbe
00000040: 131e 11bf 6298 47c0 c5a2 fabd bc2b 0ebe
00000050: 7b95 abbd 1233 66bf ed9b 07be c150 cbbd
00000060: 9b85 e6bf f36e 7cbf d767 1dc0 536e 3fbf
00000070: 8f51 b2bd 194b ccbd f4c5 14bd 73f7 b7bf
00000080: 6b25 0ebe 5e7d 0ebe 5e56 e3bf 87fc e1bf
00000090: edab 15bf b22f bfbf ba5c 0ac0 f3a5 98be
000000a0: e027 87be a96d 72bf cafa 64c0 45bf c33d
000000b0: bb26 2fbe f3e3 1ebe ea43 39be 1560 32bb
000000c0: c132 39bf d8ac 11c0 5cb9 9dbd e718 cbbd
000000d0: d9f7 0abf 7df1 72bf 1dd8 6cbf 80f9 86bd
000000e0: 688f 9ebf 1d7b fbbd fddd 11be 48db 19be
000000f0: 00bd 5fbc 9675 25c0 06ee cfbd 1a6b c0bf
00000100: 2b53 d13c 0069 c7bf 2fa6 6cbf 76e6 05bf
00000110: 2b09 bcbf 94b2 2d3e 696d 9bbf 80e1 3cbe
00000120: 9430 14bd 9a7e aebf 9f9b 50bf 943e cebf
00000130: 210a 97bf 7d5a 3dbe 9564 4abf b9a4 e03d
00000140: e91e ecbe db55 15c0 1b1c 26be ca14 d0bd
00000150: e872 c1bf c778 08be 132b a4bf 8b62 1abf
00000160: 8f35 40bd 7df5 e5bd e150 34c0 c0cb 20bf
00000170: b5a1 4ebf 2570 55bf 9e59 fdbb b611 f6bd
00000180: 13c0 223c 2e04 05be 04e7 4abf a0de d3bf
-0.98544514 -0.20665865 -0.18095505 -0.1273176 -0.0959126 -0.4278843 -0.1193268 -0.07893628
0.01157907 -0.4773727 -1.8169167 -0.91382915 -1.7934479 -0.71300477 -0.6623998 -0.16872227
-0.56686515 -3.1186757 -0.12238077 -0.13883871 -0.083781205 -0.8992168 -0.13243075 -0.09927512
-1.8009523 -0.98606795 -2.459463 -0.74777716 -0.08706962 -0.09975261 -0.036321595 -1.437239
-0.13881461 -0.13915011 -1.7760732 -1.765519 -0.5846546 -1.493643 -2.1619096 -0.2981411
-0.2639761 -0.9469858 -3.577807 0.09557966 -0.17104618 -0.15516643 -0.18092313 -0.0027217914
-0.7234307 -2.2761745 -0.0770137 -0.09916859 -0.54284436 -0.9489973 -0.9251726 -0.06590557
-1.2387514 -0.12279341 -0.14244838 -0.15025055 -0.013655901 -2.5853019 -0.10152821 -1.5032685
0.025552353 -1.5578918 -0.92441076 -0.5230478 -1.4690298 0.16962653 -1.2142764 -0.18445396
-0.03617914 -1.3632386 -0.8148746 -1.6112847 -1.1799966 -0.1849155 -0.79059726 0.10968918
-0.46117333 -2.3333652 -0.16221659 -0.10160215 -1.5113192 -0.13327323 -1.2825645 -0.60306615
-0.046926077 -0.11228464 -2.8174365 -0.628109 -0.80715495 -0.83374244 -0.0077316305 -0.12015097
0.009933489 -0.12989876 -0.7925875 -1.6552315

cnn_apt_2.weight f4 [50, 100, 1]
00000000: 3724 703d 1a74 92be 00dc d93c 1a0c a2bc
00000010: 619e d8be 856d 00bf 7745 3b3d 7314 453d
00000020: 10db 33bd 6dce 94be b1df cfbe e8e5 023c
00000030: b01b 03be a1ab 17bf 31c3 973b 9c0d 1b3d
00000040: cd98 9d3c 8f8a 413e f584 8cbe 8029 eabc
00000050: 9b7e 4d3d e76a 3bbd f395 603d 616b f5be
00000060: 1119 a63d cc5f 25be f483 fdbd ea1b 313d
00000070: 2754 98bd 20ec cfbd b463 43bb 1cae 9b3a
00000080: 024f 5e3c 83e2 06bf 2536 b7bd e8af aebd
00000090: 5333 48bf e105 8b3e 458f b53d 93d2 0cbf
000000a0: 2692 1ebf 24f8 fb3d 46b2 c8be 950e d7bd
000000b0: 4509 e3bc 8820 9fbe 972f 80bd b6f0 8dbe
000000c0: b53e ab3d ebb9 1abe 43f4 bebd 1788 393c
000000d0: 1bfb a23d fb02 46bd 2070 8fbc 36d3 0fbe
000000e0: f7c1 8a3e 7206 03bf 2fe4 153d a363 9bbd
000000f0: ece4 9bbc 0b8b 613d 6a99 8abe 1728 54be
00000100: 4916 7abe 0734 a3be 8e3d eb3d 0e64 7abf
00000110: 3998 1abe e01e 1a3d 7cd6 5d3e f1ac c3be
00000120: 8f54 a9be a85e c1bd 9451 d53d 9366 503d
00000130: ebe0 f43d 7c25 323d 4903 70bd fa6e 903d
00000140: 4d41 76be ef5b 7bbd 8fc4 66be 475d bbbc
00000150: 1fbf cc3d ea11 563d d21b 8ebe 2336 10bb
00000160: 82fc 5cbd 534e 94bd 2cf8 dabe 81ce 49bd
00000170: 3e2e a5bf 1f3c b73d 05b1 27bd 77e6 8cbc
00000180: c572 5bbe 5fb2 d7bc 0cdb 91be d690 89be
00000190: 5ed3 50be cfb9 83bc 154d 88bd 7a0a 0abd
000001a0: 7b1c 1cbc d500 c5be 7043 04bc 8960 343d
000001b0: 7cda 73b6 ef05 9abc 2403 6fbe 8636 193d
000001c0: 4f6e b8be 5083 cbbe 3321 1ebc a6a3 7cbd
000001d0: a894 f33d 7075 65be 106e ae3d 5aee 4d3d
000001e0: 6c15 b23d b218 90bd 2e41 103d 62f9 1cbe
000001f0: 816c 48bf a155 8dbe e564 cdbc 89ff b6bd
00000200: c556 5cbd 529b 45bc 0822 f33c 4f1b 98be
00000210: 315b 5abc 3a24 9abd eed6 10bf 85df d5be
00000220: e282 a63e 89ca 963e 62aa 6abe 53e4 383e
00000230: 2b93 7c3b eda1 91be 0397 5ebf 6904 0d3e
00000240: 9750 aabd 0535 ae3d 7d21 843d 7769 0ebe
00000250: 6c82 ad3d 7ed3 aebe 9b85 2e3d 81f3 693d
00000260: a123 0abd 3cee 6fbd b0dc 82be 5f80 b1bc
00000270: 8ed2 67bd d420 3d3e c351 b63c 0c5c 92b9
00000280: 814b ea3c 5de9 eb3d 80c6 d03c c63c 5abe
00000290: 0bff 443d 6e68 78be 66e7 083e 790c 02be
000002a0: 74a1 60be 8e6c 4a3e 19a6 5bbd 18b0 0abd
000002b0: 2efe bebe f635 96be 43cf 043d 949e b9be
000002c0: 7428 a53b 236a 73bd 7345 c2bd a541 57be
000002d0: 6517 823e 4fcd 77be 4950 bb3e 7d21 9d3d
000002e0: 7e6a 04bf 3819 17bd a07a 8a3c 7760 ef3d
000002f0: c106 0b3d fee3 d9bd e958 b2bd bf95 4f3e
00000300: a8ff c8be a05b 0c3e acfd d33d 391f 81bc
00000310: fd71 553b f572 f5bc 81ed 6f3d 062b a4be
00000320: 8774 e73d 1a1d 0e3d 474c 133d 0ab4 e7bd
00000330: fff8 f83b 8393 91bd 7e4d 8bbc bc23 b93c
00000340: e154 d1bd 1c45 11bd bde3 873c e1b4 19be
00000350: 661c a7bd f50f 88be d0e2 9abd 31ce ff3c
00000360: 36dc 503d 30ea d6bd caff 1b3d 954f 6ebd
00000370: 333b 333b 93c6 c839 fb4e 8f3d 6e96 2ebd
00000380: 3c47 c4bd 2420 ffbd b677 6abc 1f3d 06be
00000390: 40e9 253c 09a7 80bd f1d1 98bd ea36 adbb
000003a0: f6eb bcbb f8b0 f8bd 34b2 d0bb a2af 8abd
000003b0: 2a3b 0cbe 39cb 27be 8cbe aebd fc8a c7bd
000003c0: 83ea cabd 2f5a 2b3d ebcc 36be eb20 acb8
000003d0: 60e6 e1bd d8c4 a6bd efd6 04bd 93ff 063d
000003e0: 4365 49be 2a81 febd 9f20 c13d f484 9d3c
000003f0: e031 ff3d 3837 d33d 1ea5 9b3d ce99 ba3d
0.058628287 -0.28604203 0.026594162 -0.019781161 -0.42308334 -0.50167114 0.045720544 0.048115205
-0.043910086 -0.2906374 -0.4060035 0.007989384 -0.1280353 -0.5924626 0.004631423 0.037854776
0.0192379 0.18900512 -0.27445188 -0.028584242 0.05016957 -0.045756247 0.054830503 -0.47933486
0.0811025 -0.16149825 -0.12378684 0.04323951 -0.07437926 -0.10152459 -0.0029814066 0.001187745
0.013568642 -0.5268938 -0.08945874 -0.08529645 -0.78203315 0.27152923 0.08865217 -0.5500881
-0.61941755 0.123031884 -0.39198512 -0.10500828 -0.027714381 -0.31079507 -0.06259077 -0.2772271
0.0836157 -0.15109985 -0.09323933 0.01132395 0.07958051 -0.048342686 -0.01750952 -0.14045414
0.27101108 -0.5118171 0.036594566 -0.075873636 -0.019030057 0.055064242 -0.2707017 -0.20718418
-0.24422564 -0.3187563 0.1148635 -0.9780892 -0.15097131 0.0376271 0.2166385 -0.3821788
-0.33072326 -0.09441882 0.104159504 0.050879072 0.11956962 0.04349278 -0.058596883 0.07052417
-0.24048348 -0.06136697 -0.22535919 -0.022871627 0.09997391 0.052263178 -0.277556 -0.0022004924
-0.053951748 -0.07241502 -0.42767465 -0.049269203 -1.2904737 0.08947014 -0.040940303 -0.017199738
-0.214305 -0.026330171 -0.28487432 -0.26868314 -0.2039313 -0.016079811 -0.06655327 -0.033701397
-0.009528275 -0.38477197 -0.008072719 0.044037376 -3.6336996e-06 -0.018801657 -0.23341042 0.037405513
-0.3602166 -0.3974862 -0.00965147 -0.061679505 0.11893588 -0.2240808 0.085170865 0.050276138
0.08695492 -0.0703596 0.03521841 -0.15329507 -0.78290564 -0.27604392 -0.025072524 -0.08935458
-0.053793687 -0.012060957 0.029679313 -0.29708335 -0.013327406 -0.07526441 -0.56577957 -0.41772094
0.3252173 0.29451397 -0.22916558 0.18055849 0.0038539867 -0.28443852 -0.86949176 0.13771214
-0.083161525 0.085062064 0.064517 -0.13907419 0.084721416 -0.3414573 0.042607885 0.05711699
-0.033725385 -0.058576807 -0.25558996 -0.021667657 -0.056597285 0.18469554 0.022255784 -0.0002791587
0.028600456 0.1151912 0.025485277 -0.21312246 0.04809479 -0.24258587 0.13369521 -0.1270007
-0.2193659 0.19767973 -0.0536252 -0.033859342 -0.373033 -0.29338044 0.032424223 -0.36253798
0.005040223 -0.05942739 -0.09485903 -0.21021135 0.25408474 -0.24199413 0.3658469 0.07672403
-0.51724994 -0.036889285 0.016904175 0.11688321 0.033941988 -0.10639189 -0.087083645 0.20271967
-0.3925755 0.13706827 0.103511184 -0.015761958 0.0032569163 -0.029962042 0.05857611 -0.32064074
0.11301523 0.034695722 0.035961416 -0.113136366 0.007598042 -0.07108214 -0.017004725 0.022600047
-0.102212675 -0.0354663 0.016588086 -0.15010406 -0.081597134 -0.26574674 -0.07562792 0.03122625
0.05099126 -0.104938865 0.038085736 -0.058181364 0.0027348518 0.00038294922 0.06997486 -0.04262393
-0.095838994 -0.12457302 -0.014310768 -0.13109253 0.010126412 -0.062818594 -0.07461918 -0.0052860873
-0.0057654334 -0.12143129 -0.0063688997 -0.067717806 -0.13694444 -0.16386117 -0.08532438 -0.09743306
-0.09908011 0.041834053 -0.17851608 -8.2077306e-05 -0.11030269 -0.08143014 -0.03243154 0.03295858
-0.19667535 -0.1242698 0.0943005 0.019228436 0.12460685 0.103132665 0.07599853 0.09111367

cnn_apt_2.bias f4 [50]
00000000: e80a ccbe 70b7 3cbf 5b05 38be 1ced 38be
00000010: e712 35bf b0e9 91bf 7a29 e4be bbb8 8bbe
00000020: a950 24c0 3316 5abe d61d 16be 5581 ddbd
00000030: b452 a83e e884 b2bf 747b 2cbe 742f 2bbf
00000040: f5a4 bb3e 378f babf b531 69bf 215b 4a3d
00000050: 7057 833c ec71 27bf de7b 5a3d 1568 0cbf
00000060: aa72 fabe 6e57 313f be8b 1bbe 876f 07be
00000070: f6d2 d3bd 80ec 11bc 479a 2bbd a572 81bf
00000080: 11ff 0fbf 409e 75bf 7aa7 4fbe 319b 5cbf
00000090: 17b7 a1bf 4560 d7bd cbab 36bf 86ba e1bf
000000a0: 4927 32c0 b72b 313e ecd2 e4bd 375d 3cbb
000000b0: e9cb 83bd df64 29be a407 50be b423 09bf
000000c0: 80e9 18be 5039 fbbe
-0.3985207 -0.73717403 -0.17970793 -0.180592 -0.7073197 -1.1399441 -0.44562894 -0.27289376
-2.567423 -0.21297531 -0.14659819 -0.10815684 0.32875597 -1.394681 -0.16843969 -0.6686928
0.3664929 -1.4574956 -0.9109147 0.049403314 0.016032904 -0.65408206 0.053340785 -0.54846317
-0.48915607 0.6927403 -0.15190026 -0.13226138 -0.10342972 -0.008906484 -0.041895177 -1.0113112
-0.56248575 -0.95944595 -0.20278731 -0.86174303 -1.2634 -0.10516409 -0.71355885 -1.7635047
-2.7836478 0.17301832 -0.11173043 -0.0028742084 -0.06435377 -0.16542386 -0.20315415 -0.53570104
-0.14932823 -0.49067163

cnn_pep_1.weight f4 [50, 8, 3]
00000000: 1df1 b2be 2727 133c cf2e ea3e ab8b 05bd
00000010: ba43 05bf c574 4abc 0dfa 433d 8c78 98be
00000020: cc94 053d 645d c8be c4c6 19be c717 66be
00000030: 0647 fbbd bea3 54be c77e 093b fc63 2e3e
00000040: 5471 283e 082c a2be c0f6 463e 9ac7 54be
00000050: 1e60 a6be 4c3d 67be 88f4 6cbe 1f95 2e3f
00000060: 39e6 b2bf 763d 21bf 0985 dbbf 94bb b4bd
00000070: 80c1 833f 456d 14bf 1e49 63bf 938b 893f
00000080: 68f4 85be 3fad 50bf 19fc b73f 12da 6fbe
00000090: 5e3f 5dbf efda b23f 97b6 2cbf 8874 47bf
000000a0: 672e cd3f 8f30 60bf db6a 33bf 67bc c53f
000000b0: 382a 5bbf 1886 0fbf 5d70 9f3f cfd4 30bf
000000c0: 89f5 40bf e949 ae3d bc98 a3be f9fc 3b3d
000000d0: c253 d1bc 5584 69bd 5379 81bd d6fb a43e
000000e0: 7458 65be 7444 c33c 8fb7 253f bc74 b1be
000000f0: 14ad dcbe 8c8c a73e d0d4 dbbe fdd0 82be
00000100: ef07 be3e 21cd bbbd 6a3e a5be cae7 15be
00000110: 27a9 a43b 2617 c8bd 40b7 adbe e021 28be
00000120: cae0 7dbf 6dbe c3be 3f5a d83f 029d 86bf
00000130: 2c84 3f3f 3693 5ebf 00bc 6abf 20ae 93be
00000140: 3bb3 cfbe de81 60bf 6d4e eabd 9bff d7be
00000150: e32e 8abf f861 8e3c 038e f4be d483 3fbf
00000160: 3e36 aa3d efb1 0dbf 9d20 43bf e63b 0fbe
00000170: 039b 74bf d7a1 71bb 420f 91be 4007 6cbf
00000180: 9375 64bf 0222 2fbf e8ce 4dbf 8841 8bbe
00000190: d761 003e ec73 76bd 55ac 5abd 9ec3 ccbc
000001a0: 1731 00be a8fc 1dbf ec7c c03d 5d81 6cbe
000001b0: 615c 56bc 5d93 2fbe 45cf 313d e518 63bf
000001c0: 4ffb 5d3e 1938 ff3d fb2b f9be d9a5 573f
000001d0: ff19 0abf f408 fdbe f22d c93f a389 2dbe
000001e0: ccd8 c3bd 0911 8c3d ea25 1abe 7c9b 5d3e
000001f0: 368c 8bbc 2583 643d f7fc 04bd 8fdf f1bc
00000200: 742d 10bd 7aac 7e3b 770e ac3c 1f4a 123e
00000210: da42 d9bd b8bf 22bd 2355 4f3e 7a07 e7bd
00000220: 339c 93bb 2249 90bd 8c63 34be d8c8 8d3d
00000230: 2b24 cbbd 0b23 533d 5599 0bbc e6da ed3d
00000240: 256e f4be 9550 243f 3919 f2be 3f3a 15bc
00000250: 473e a1be 9522 793e b9a4 8b3c 0f9d ad3f
00000260: 81f5 0abd 910d afbe 24e4 073f 29f8 563e
00000270: 5f68 413f 6cd3 8bbd decb 8cbe 794c 523f
00000280: 30ee 1fbf 66c7 9bbe 286a 6e3f 6750 47be
00000290: a66a 7dbe 385a 983f 8479 a4be d18b 343e
000002a0: cbc6 a9be a8b2 fb3c c5e1 adbd a5d0 7fbe
000002b0: 2eae ff3c 9160 9dbe 270c 1fbe c1cb aabd
000002c0: c45b a7bd c5e1 40be a145 7a3d b308 0bbe
000002d0: fa64 abbe 43e5 2d3c bb7f a6be 583a 8fbe
000002e0: b10b 523c ccdb 92bd 1f86 03be 54dc 293f
000002f0: c90c 07be 3c5e 3abe ee0c 8c3e d398 603e
00000300: 75cd fdbd 1fea 9e3d c0dc c33c 0164 83be
00000310: 23f2 ebbc 23f7 9f3e d510 15be 873b 37bd
00000320: 8c1d 163e cb3e 283d 93d1 a5bc bf43 8fbe
00000330: 9526 81be f6ab 9abb e7d2 403e 2afb 0ebe
00000340: 0621 89be 2fff cd3e 494b 4fbe 8a71 bc3d
00000350: 8115 cdbd cfa8 c9bd b0aa 243e da51 c9bd
00000360: c955 97be bb71 d93e 3d23 fcbe 6c6a ffbe
00000370: abfb 9cbe 6f4b 363e 975d 0c3f 900f 0abd
00000380: 2f76 7b3e 119a 743f b976 35bf 97fe d7be
00000390: cba2 8f3e 0f31 32bf cfa2 07be ac9b 3fbd
000003a0: 97b6 28bf fc1c 5d3e 97f6 57bd e20b 70bf
000003b0: a8be b2be d3f9 153f c84d 7bbf c0f9 81be
000003c0: e0d3 003e 2b8b f6bd 4e9c debd ebe4 c13d
000003d0: ccee 073e 8f2d 0dbd 182c 353e 1fc1 36be
000003e0: 59b8 cb3b 7250 94bd 56da b53d 2fd9 b33d
000003f0: 9607 803e f7a5 10be 301a 37be f778 35be
-0.3494958 0.008981503 0.45738837 -0.0326039 -0.5205647 -0.012356942 0.04784589 -0.2977947
0.032612607 -0.3913375 -0.1501723 -0.22470008 -0.12269406 -0.20765588 0.0020980106 0.17030329
0.16449481 -0.31674218 0.19430065 -0.20779267 -0.32495207 -0.22581977 -0.23140156 0.6819629
-1.3976508 -0.62984407 -1.7149974 -0.0882484 1.0293427 -0.5797923 -0.8878344 1.074572
-0.2616303 -0.8151435 1.4373809 -0.23423031 -0.86424816 1.3973063 -0.6746611 -0.7791219
1.6029786 -0.87574095 -0.70084924 1.5448121 -0.85611296 -0.56063986 1.2456166 -0.6907472
-0.75374657 0.08510191 -0.31952465 0.04589555 -0.025552634 -0.057010967 -0.06321969 0.32223386
-0.22397023 0.023836352 0.64733213 -0.34659374 -0.43100798 0.32724416 -0.429358 -0.2555007
0.37115428 -0.091699846 -0.3227418 -0.14639202 0.0050250473 -0.0977004 -0.3392887 -0.16419172
-0.99171126 -0.3823122 1.6902541 -1.0516665 0.74811053 -0.86943376 -0.91693115 -0.28843784
-0.4056643 -0.8769816 -0.1144074 -0.421872 -1.0795559 0.0173807 -0.47764596 -0.7481053
0.08311127 -0.5534963 -0.7622164 -0.13987693 -0.9554903 -0.0036870146 -0.28331953 -0.9219856
-0.89241904 -0.68411267 -0.8039384 -0.27198434 0.12537323 -0.060169145 -0.053387005 -0.024995621
-0.12518726 -0.6171365 0.09398827 -0.23096223 -0.013083548 -0.17146058 0.04341056 -0.8870986
0.21677898 0.12461872 -0.48666367 0.8423744 -0.53945917 -0.49420893 1.5717146 -0.16947035
-0.09562835 0.06839187 -0.15053526 0.21641344 -0.017034631 0.05578913 -0.03246781 -0.029525546
-0.035199597 0.0038860128 0.021002991 0.14286087 -0.10608454 -0.03973362 0.20247321 -0.11280723
-0.0045047044 -0.07045199 -0.17616099 0.069230735 -0.09919008 0.05154709 -0.008520444 0.11614017
-0.47740284 0.6418546 -0.47284868 -0.009108125 -0.31492826 0.24329598 0.01704632 1.3563555
-0.033925537 -0.34190038 0.5308249 0.20993103 0.7554988 -0.06827435 -0.27499288 0.8214794
-0.6247282 -0.30425566 0.9313073 -0.19464265 -0.24747714 1.1902533 -0.3212396 0.1763146
-0.3315948 0.030724838 -0.08490328 -0.24981935 0.031210985 -0.30737737 -0.1553198 -0.08339644
-0.081718 -0.18836124 0.06110156 -0.13577537 -0.33475477 0.010613742 -0.32519326 -0.279742
0.01282017 -0.07170829 -0.12844132 0.6635182 -0.13188471 -0.1820001 0.27353615 0.21933298
-0.123927034 0.07759499 0.023908973 -0.25662234 -0.028801983 0.31243238 -0.14557202 -0.044734504
0.14659709 0.04107551 -0.020241534 -0.27981374 -0.25224748 -0.0047202064 0.18830453 -0.13962999
-0.26783007 0.40233752 -0.20243563 0.09201343 -0.10013867 -0.09846651 0.16080737 -0.09830065
-0.29557636 0.42469582 -0.49245635 -0.4988588 -0.30660757 0.17802213 0.54830307 -0.033706248
0.24556802 0.95547587 -0.7088428 -0.42186424 0.2805389 -0.6960611 -0.132457 -0.04677932
-0.6590361 0.21593088 -0.0527254 -0.9376813 -0.34911084 0.58584327 -0.9816556 -0.25385857
0.12580824 -0.12038263 -0.108696565 0.09467491 0.13274688 -0.034467276 0.17692602 -0.17847107
0.0062170443 -0.07241906 0.08879535 0.08781659 0.25005788 -0.1412581 -0.17881083 -0.17721926

cnn_pep_1.bias f4 [50]
00000000: f3c5 6abf 5546 d4be ecb5 80bf e3c8 55bf
00000010: c785 63bf 5ee0 ccbe 2494 d3bf ef83 b5be
00000020: 94d5 f3be c6e7 aebf 9484 dbbe 4161 33bf
00000030: dd23 e1bf a557 81bf 3c35 71bf 1792 9bbf
00000040: 00d8 ecbe 297d 6bbf b3ac b5bf bddd 3b3d
00000050: bd73 43bf 33ee c6be 431d afbe a8c5 3abf
00000060: 7dac d5be ea49 93bf c2ba 45bf 0529 d9bf
00000070: bb82 94bf 011d a6bf f020 f9be f917 d9be
00000080: 10e1 bcbf 0107 823d 4fe8 1bbf f6b1 31be
00000090: c3be 56bf 774a c53e 4dc2 e8bf 65a3 92bf
000000a0: c94a 50bf 7863 91bf 1d26 d2bf 29e6 29bf
000000b0: b6a7 89bf 7108 babf bc43 f3be 6b44 e9be
000000c0: 7d2e 8bbf 2a25 d1be
-0.91708297 -0.4145991 -1.0055518 -0.83509654 -0.88876003 -0.4001493 -1.6529584 -0.3545222
-0.47623885 -1.3664482 -0.42874587 -0.7007027 -1.758907 -1.0104872 -0.94221854 -1.2153958
-0.46258545 -0.91987854 -1.4193329 0.045865763 -0.7634848 -0.38853607 -0.34202012 -0.7295785
-0.4173316 -1.1506932 -0.77238095 -1.6965643 -1.1602396 -1.2977601 -0.48657942 -0.42401102
-1.4756184 0.06348992 -0.6090135 -0.17353043 -0.8388483 0.38533375 -1.8184296 -1.1456114
-0.81364113 -1.135848 -1.6417881 -0.6636682 -1.0754306 -1.4533826 -0.47512615 -0.4556001
-1.0873562 -0.40848666

cnn_pep_2.weight f4 [25, 50, 1]
00000000: 35fb dfbd 9a0c c6bd 4202 59bd c904 f2bd
00000010: 1c84 60bd 135e 923d 129d 4abe c221 dbbd
00000020: 94e0 49bd e4c9 81bd a93b cbbc fe1f fa3d
00000030: f469 00be 06e3 b9bd 56e6 c43b 62d8 6dbd
00000040: 3657 e63d 3830 893d d782 7e3d 0426 a83c
00000050: 8789 dcbc 9b4a 9b3c 9c23 083d b8b4 6cbd
00000060: a3e8 da3c 8f42 83bc c3ff 063e 5e05 933d
00000070: 4189 073e 359a 24be 2415 93bc 8dd0 15be
00000080: 2464 72bd 6d47 67bc 7c2a af3d 984b b1bd
00000090: 9fce 2bbe 7179 5dbc 821a cc3c 56aa f8bc
000000a0: bf17 d3bd e619 18bc bd2b debc 12e0 e1bc
000000b0: 1ac9 483c 6812 c3bc 13e4 05bd fc6e 05be
000000c0: f6e5 d5bd b7cc 3c3c dc0f f9bd 3f09 03be
000000d0: 15fc b93d 24c9 773e 171e 65be 80f1 56bd
000000e0: 2604 8c3e af6c 643e 4555 b73d 8ab6 01be
000000f0: a6b5 8a3d edff d73d cca2 683d f5f3 20be
00000100: 96fd 47bb 35fd e43c 96cc 953e a6c5 28bf
00000110: 3207 a7bd ccb7 c7bf 7092 04bf a0d9 6cbe
00000120: 8b91 b93d 8b3f 1a3e fc4e aebd a6d6 cb3b
00000130: 923b 85bc 6f1a b13d d840 59be fb52 b0bd
00000140: 0548 46be 9622 2e3e 77c1 76bd 2dfc 67be
00000150: 1b9e d33d 6dcc 033d f220 a1be dca6 123d
00000160: 6b26 77be 2987 7e3e af9a 023e e84b a03d
00000170: 78c0 bfbe eaf7 1fbf 38d2 0a3e bb2b 40be
00000180: 63ab 68be 42e2 bcbe 80a7 00bf 7693 a7be
00000190: ed11 a6bd 765e 12be 6bac 3cbd 6af3 163d
000001a0: a712 963d 6130 0a3e b384 bdbd e408 06be
000001b0: 1d57 453c 05f9 fabd ef5d 49bd 28bc 733d
000001c0: dcd9 55be 248e b9bd 0953 993d 2594 a13d
000001d0: 34aa 9ebd 1c20 35be ef2a fbbd e13d bcbb
000001e0: 6b89 98bd f6f5 0e3e d1fb 82bd aedf 973d
000001f0: a329 dbbb 7179 1abe da97 ec3d b976 84bb
00000200: fda3 3c3d 900c bc3c 6262 3ebe 7a95 4e3d
00000210: ecd9 2cbd 7153 a2bd 66ad b7bb 8f81 0bbe
00000220: 3b08 b5bc 8100 e5bb 087a 26be 46a4 e63c
00000230: 0e62 6fbd 9559 05bd 33e7 fd3d 60e5 0e3d
00000240: 086e 99bd 69ff 2b3c 55c5 eabd aa9d 9dbd
00000250: 8c98 883d 392c 07be c16f f4bd d2e6 f7be
00000260: 4070 9ebd 9488 24bd 2a3d b7ba b640 003e
00000270: 48a7 67be ab0e 123d 5269 99bd 6d01 42be
00000280: cd4b 2d3c 6e5a 08be b59e 8dbd afd4 423e
00000290: cf1e 0fbc 015f 20be 8da6 e03c d846 ddbd
000002a0: 41bd 1fbd c9fd 0a3e 9f56 a33d 60d4 e73c
000002b0: 16bf dc3d 90d4 7d3d 96e5 bebd eab9 b8bd
000002c0: 9a9d febb c481 7cbd 1181 c2bd b022 0ebd
000002d0: 7c67 c5be 7e95 1f3d fc02 f4bd 8a62 22be
000002e0: c0c3 103e 88e8 ab3d f363 61be 09af a93b
000002f0: a81d 4bbe 6250 96bc 3e1d 72bd 0789 8abb
00000300: ff6b 6b3d af0f 28be b3a7 733e 0b23 aabd
00000310: a83c 873d 51ff 88bd b21f 743e f7c9 403c
00000320: 4925 a23d f8fb 88bd 6395 79bd 2646 eebd
00000330: f8c5 56bc 18c9 acbd 8714 79ba 80a1 833c
00000340: a2d6 d43d 75e8 12be cf76 31bc f27e 773d
00000350: a467 d0bd 40e7 0dbe 5b5f b4bd 5066 d8bd
00000360: afa4 fcbd a6c2 26bd 22a0 91bd 351d d4bd
00000370: 4fae 823b c8df 06be 8e25 033e b806 f7bd
00000380: f45b 303d de50 13bd ecff e63c 5afc 03be
00000390: b337 c8bd c009 bcbd 7eeb 15bd 42c3 0ebe
000003a0: 63c5 203d 246a 79bd 9471 dfbd 2663 2abd
000003b0: 7ef0 afba 42b8 613c 6699 dfbd a702 ecbd
000003c0: fa4d ac3c 3982 00bc a0c7 50bd eaaa 6a3c
000003d0: aa50 dcbd 8f27 47bd 7cc3 083e 6013 bcbd
000003e0: 3dc3 a4bc e6ae b93c c92e 9c3c 3a3a 16bf
000003f0: 1c91 06be 5389 a6be a095 a6bd 3e76 f83c
-0.10936586 -0.09670372 -0.05298067 -0.11817319 -0.05481349 0.071468495 -0.1978648 -0.10699798
-0.04928644 -0.06337336 -0.024808722 0.12213133 -0.12540418 -0.090765044 0.0060089035 -0.058067687
0.11247103 0.0669865 0.062136497 0.02052594 -0.026921047 0.018956473 0.033237085 -0.057789534
0.026722258 -0.016022949 0.13183503 0.07178758 0.13235952 -0.1607445 -0.017954417 -0.14630337
-0.059177533 -0.01411615 0.08553025 -0.086569965 -0.16778038 -0.013517723 0.024914984 -0.03035466
-0.103072636 -0.009283518 -0.027120465 -0.027572665 0.012254978 -0.023812488 -0.03268821 -0.13030618
-0.10444252 0.011523417 -0.12161228 -0.12796496 0.09081284 0.24197823 -0.2237476 -0.052476406
0.27346915 0.22307085 0.08951811 -0.1266729 0.06772928 0.10546861 0.05679588 -0.15718062
-0.003051614 0.02795277 0.2925765 -0.6592659 -0.08155669 -1.5602965 -0.51785946 -0.23129892
0.09060963 0.15063302 -0.08511159 0.0062206564 -0.016263757 0.0864762 -0.21216142 -0.08609577
-0.19363411 0.17005381 -0.060243096 -0.22654791 0.103328906 0.032177377 -0.31470448 0.03580366
-0.24135749 0.24856247 0.1275432 0.07826978 -0.3745153 -0.6248766 0.13556755 -0.18766682
-0.22721629 -0.3689137 -0.50255585 -0.3272969 -0.08108888 -0.14293846 -0.046062868 0.03685323
0.073277764 0.13495018 -0.09253826 -0.13089329 0.012044695 -0.12254528 -0.049161848 0.05950561
-0.20883888 -0.09060314 0.07486541 0.078895845 -0.077473074 -0.1768803 -0.12264048 -0.005744681
-0.074480854 0.13961014 -0.063956864 0.074157104 -0.006688313 -0.15085389 0.11552401 -0.004042473
0.04605483 0.022955209 -0.18592218 0.05043552 -0.042200014 -0.079260714 -0.0056053875 -0.13623641
-0.022098651 -0.0069885855 -0.16257489 0.028154504 -0.05844312 -0.032556135 0.123976134 0.034886718
-0.0749169 0.010497906 -0.11463419 -0.07696088 0.06669721 -0.13200463 -0.11935378 -0.4841829
-0.07736254 -0.040169314 -0.001398002 0.12524685 -0.22622406 0.03565852 -0.074907914 -0.18945856
0.010577154 -0.13315746 -0.069150366 0.19026445 -0.008735373 -0.15661241 0.027423168 -0.10804528
-0.038998846 0.13573374 0.07975506 0.02829951 0.10778634 0.061970294 -0.09321134 -0.09019835
-0.0077702524 -0.06164719 -0.09497274 -0.03470105 -0.38555515 0.038960926 -0.11914632 -0.15857902
0.14137173 0.08393961 -0.22010784 0.0051783365 -0.19835532 -0.018348876 -0.05910992 -0.0042277607
0.05747604 -0.16412233 0.23794441 -0.08307465 0.06603366 -0.06689323 0.23840216 0.011766902
0.07917268 -0.06688684 -0.060933482 -0.116344735 -0.013108723 -0.08436793 -0.0009501655 0.01606822
0.103925005 -0.14346488 -0.010831549 0.0604238 -0.10176018 -0.13857746 -0.0880725 -0.105663896
-0.123360984 -0.040712975 -0.07110621 -0.10357133 0.0039880644 -0.13171303 0.12807295 -0.120618284
0.043056443 -0.035965793 0.028198205 -0.12889233 -0.09776249 -0.09181547 -0.036601536 -0.13941672
0.039250743 -0.06089224 -0.10910335 -0.04159846 -0.0013423113 0.013776841 -0.1091793 -0.115239434
0.021033276 -0.0078435475 -0.050971627 0.014322976 -0.10757573 -0.04862171 0.13355821 -0.09183383
-0.020112628 0.022666406 0.019065278 -0.58682597 -0.13141292 -0.32526645 -0.081340075 0.03032982

cnn_pep_2.bias f4 [25]
00000000: b73c 5abe 0c9c 39bf c391 94be 6d54 cfbe
00000010: 9d67 25be 5bbc 57bf 5ceb 85be 2a0b d8be
00000020: 5793 a4be 37a3 3bbf 714d a7be 35f7 32be
00000030: 326e 10be a8f2 1cbe edca 65be 59a6 dc3c
00000040: bf5f 9cbe 6c98 26bf d9ff d53e 1903 0bbf
00000050: 6f67 9bbe 8cf1 5dbe f009 8fbe e6de f7be
00000060: b6e6 22bf
-0.21312223 -0.72503734 -0.29017457 -0.404941 -0.16152807 -0.8427178 -0.26156127 -0.42196018
-0.3214366 -0.7329592 -0.3267627 -0.17477114 -0.14104536 -0.15326941 -0.22440691 0.02693479
-0.30541798 -0.6507633 0.4179676 -0.543016 -0.3035235 -0.21674174 -0.2793727 -0.48412246
-0.63633287

cnn_pep_3.weight f4 [10, 25, 1]
00000000: b8f5 08bd 5026 10bc eaf0 d4bd c085 8b3b
00000010: 1875 e33c ad8c 28be c0ba 9cbc bb19 193e
00000020: 5006 a23c f4bf 433d d360 d1bd 7eb3 813d
00000030: 1d7b 4abe 006d 08ba e797 b2bd 0061 58bd
00000040: 5b6c 4c3e 3a00 ccbd f1a5 3d3e bd64 0bbe
00000050: 49ad 4c3e 426c e53d ea7f 21be d01e 0a3c
00000060: 151c 30be 18e2 253d 1099 ea3c 9ff8 463e
00000070: bfd9 143e d08d da3c 5043 d0bd 0069 ed3c
00000080: 0bf2 083e 140f 013d de3c 1fbe 00ad f4ba
00000090: 80c5 bcbc d06c ae3c 9b15 3c3e 4057 cfbd
000000a0: 0a95 8fbd 2d86 cbbd e8f8 833c ac19 23bd
000000b0: 0638 8e3d 3fe4 2c3e 1bb1 21be 5292 0bbe
000000c0: 18f4 d0bc 825f b43d b0f2 fdbc 98d7 d13c
000000d0: 2ccb 6e3d 9a9a d2bd 7317 c7bd 16f1 c63d
000000e0: 246d 86bd 9810 e3bc 80c4 61bc 7353 393e
000000f0: d3de f9bd af12 33be 8c7a 60bd 6833 bebc
00000100: c66e a63d ecd3 5dbd 304b 21be 7adf f1bd
00000110: 8c67 42bd 286d a63c 1a2e 8e3d 4b1a 363e
00000120: 4398 363e 1b04 22be ec16 793d e0fb 5dbc
00000130: f8b1 16bd c0ab db3b 98a4 c7bc c0a9 a43b
00000140: 9db6 463e a248 1ebe c3b5 1bbe 1915 353e
00000150: 72c2 fa3d 310d 303e e567 4b3e 30b4 e33c
00000160: 6917 393e bdbc a2bd a55e 3d3e 1aa6 a93d
00000170: a094 41bd 60c1 64bc 43a5 12be d48c 363d
00000180: c024 c6bc 6938 413e 5d65 9abd 2057 17bc
00000190: 706e debc 74cf 00be 62c7 30be 6014 02be
000001a0: 6525 43be d78d f1bd abff 11be 6372 163e
000001b0: 18b0 3abe 031e d2bd 556a 0c3e 28a1 2ebe
000001c0: e83e 12bd 6463 543d 31f0 2c3e ac89 18bd
000001d0: 6a9d d5bd 89b0 133e b373 2dbe 8654 c93d
000001e0: 4906 0e3e d0d3 02bc e373 2cbe f818 423d
000001f0: 408f 213d fe5d b13d 55b7 0c3e 8214 813d
00000200: 628e ae3d 3898 11be 4151 403e 02e1 c03d
00000210: 3abb 3ebe 3711 fdbd 7223 b23d a7f2 b5bd
00000220: d017 423c 1938 2b3e 0f34 243e eab4 8c3d
00000230: f9ec 403e ed84 3b3e fd66 babd 33d2 b5bd
00000240: 18db 9d3c 8877 123d c0f8 ffbb 027b 2ebe
00000250: 0eb9 b03d 8bd4 18be d232 40be e98c 2b3e
00000260: e169 183e a77c b5bd 90bc 933c 621c a43d
00000270: 79a5 043e eb42 213e 1b15 013e be09 d43d
00000280: d877 413d 6849 823c 0240 27be 249d 723d
00000290: b630 e73d 3037 2bbe a8c9 5dbd 6de6 33be
000002a0: 8b10 1abe 2706 ccbd 3063 46bc 8a08 20be
000002b0: 134b dcbd 9097 cebd 02cf d83d b2cd 923d
000002c0: 613c 243e f6b9 e03d 428c 36be 82f4 c93d
000002d0: a01d 2dbe c78a efbd a8ee 51bd a08e 43bd
000002e0: 725b 943d 3096 843c fd2b 303e 2487 773d
000002f0: e4bb 04be 9167 113e 524f 9f3d 80f0 90bd
00000300: d2cd 913d f2b4 bf3d 617a 3c3e 97bf d6bd
00000310: b863 213d 2bfb 40be 8039 1b3c 80db 19be
00000320: 0c8e 1e3d 3d64 bdbd 529a f63d cd71 a9bd
00000330: 697c 203e f002 b9bc 908e 96bc 40d3 b2bb
00000340: b0d4 20be bb21 3c3e 6372 4c3e fe65 fc3d
00000350: f42b 573d f88b 2abd dd06 f1bd e248 c03d
00000360: 1dda 1bbe 9803 8cbc 67e3 163e ea80 f53d
00000370: 1adb b3bd f3b2 423e 3deb 30be b297 44be
00000380: ae70 a63d 2a81 48be 0269 d93d 776c efbd
00000390: 3104 113e a082 273d 1aeb 21be 358e 1ebe
000003a0: c02c 65bb 8aa9 cf3d 6051 f1bd 4a8d c93d
000003b0: 665b f33d 008a b9bb ccd1 67bd 2f61 39be
000003c0: c09e 2cbe 009d bebc 7290 8b3d 4889 01bd
000003d0: 6a6a e5bd e07d 073c 71e2 013e 6c2d 7e3d
000003e0: a9a1 123e 00ef 0dbe
-0.03343746 -0.008798197 -0.10397513 0.0042578876 0.027765796 -0.16459914 -0.019132018 0.14951222
0.0197784 0.047790483 -0.10223546 0.063330635 -0.19773526 -0.00052042305 -0.08720379 -0.05282688
0.1996321 -0.09960981 0.18520333 -0.13612647 0.19987978 0.11202289 -0.15771452 0.008430198
-0.17198212 0.040498823 0.028637439 0.19430779 0.14536189 0.02667895 -0.10169089 0.028980732
0.13373582 0.03150852 -0.15550563 -0.0018667281 -0.023043394 0.02129212 0.18367617 -0.101240635
-0.07010849 -0.099377014 0.016109899 -0.039819404 0.069442794 0.16883944 -0.15790217 -0.13630036
-0.025507018 0.08807279 -0.030999511 0.025615498 0.05829923 -0.10283394 -0.097212695 0.09713952
-0.06563786 -0.027717873 -0.013779759 0.1809824 -0.122007035 -0.17487596 -0.05480437 -0.023217872
0.08126597 -0.054157183 -0.15751338 -0.11810203 -0.04746203 0.020315722 0.06942387 0.17783467
0.1783152 -0.15821879 0.060812876 -0.013548821 -0.036790818 0.006703824 -0.024370477 0.0050251186
0.19405599 -0.15457395 -0.15206055 0.1768383 0.12244119 0.17192532 0.19863851 0.027795881
0.18075337 -0.07946155 0.18493135 0.082836345 -0.04726088 -0.01396212 -0.14320855 0.044567898
-0.024187446 0.18869175 -0.07538865 -0.009237081 -0.02715227 -0.12579137 -0.17263559 -0.12703085
-0.19057234 -0.11794632 -0.14257686 0.14692073 -0.18231237 -0.102596305 0.13712437 -0.17053664
-0.035704523 0.0518526 0.16888501 -0.03724067 -0.10430415 0.14422812 -0.16938667 0.09830575
0.13869585 -0.00798507 -0.16841082 0.047387093 0.039443254 0.08660506 0.1374181 0.0630274
0.08523251 -0.14218223 0.18780996 0.09417917 -0.18626109 -0.12356799 0.08698167 -0.08884173
0.011846498 0.16720618 0.16035484 0.06870444 0.18840398 0.18312426 -0.09101675 -0.08877983
0.019269511 0.035758525 -0.0078116357 -0.17039111 0.086290464 -0.14924829 -0.18769386 0.16752972
0.1488414 -0.08861666 0.01803425 0.08013226 0.12953748 0.15748183 0.12605707 0.10353421
0.047233433 0.015904143 -0.16333011 0.059231892 0.11288588 -0.16720271 -0.054147393 -0.17568369
-0.15045373 -0.09962111 -0.012108609 -0.15628257 -0.10756507 -0.10087502 0.105863586 0.071681395
0.16038658 0.10972969 -0.17826942 0.09861089 -0.16905832 -0.116963916 -0.05125299 -0.04774344
0.07244004 0.016184896 0.1720428 0.060431615 -0.129623 0.14199664 0.07778801 -0.07077122
0.07119335 0.093606845 0.18406059 -0.104857616 0.03940174 -0.18845813 0.009474158 -0.15025139
0.038709685 -0.092476346 0.12041153 -0.08273659 0.15672459 -0.022584409 -0.018378526 -0.005457312
-0.15706134 0.18372242 0.1996551 0.12324141 0.05253215 -0.04163739 -0.11768887 0.09388901
-0.15219922 -0.017091557 0.14735185 0.11987479 -0.08782025 0.19013576 -0.17277236 -0.19198492
0.08126961 -0.19580522 0.10615732 -0.1169061 0.14161755 0.040896058 -0.1581234 -0.15483935
-0.00349693 0.10139759 -0.11783099 0.09841402 0.11882667 -0.005662203 -0.056596562 -0.18103479
-0.16857433 -0.023268223 0.0681466 -0.031625062 -0.112019375 0.008269757 0.12684037 0.062055036
0.14319481 -0.13860703

cnn_pep_3.bias f4 [10]
00000000: 219b 0a3e d015 743c 3002 df3c f158 1a3e
00000010: 98a6 31bd da92 a8bd b1ff 033e f036 90bc
00000020: 4bf7 20be ad2a 363e
0.1353574 0.014897779 0.027222723 0.15072991 -0.043371767 -0.08231135 0.12890507 -0.017604321
-0.15719335 0.17789717

cnn_apt.0.weight f4 [100, 40, 3]
00000000: c511 bbbe 1ee7 dd3d 0aff ee3b 622a 9bbf
00000010: f75b 4dbf 6005 423f e4d2 20bf c622 f9be
00000020: 746a 74be 6abb 2cbf cb17 fdbd 3c0f 183f
00000030: 8499 44bf 4554 ebbe 8d10 a33e 2557 8cbe
00000040: 02c2 e9be e798 d63b 087f 15bd 700e 4abf
00000050: 10cf 913f 2db3 c53d 3522 6bbe d853 95be
00000060: d001 39bf c88e 23bf f7f5 c53d 329d 3e3c
00000070: 815f 2fbf 9a24 423f 68e4 20bf 9896 52bf
00000080: 083c 6fbd d315 43bf 80f6 74bf 9031 203f
00000090: f9aa 30bf b40f 10be c008 803f 1207 72bf
000000a0: b9b9 ccbe 895e 923e 29b9 23bf 1016 f83e
000000b0: ba02 b13d 1fcd 4abf a2fc 21bf f72a 163f
000000c0: 63eb c9be 9e3b 32bf e975 f33e dad0 dfbc
000000d0: 5a60 a1bf 7e4e 243f b151 c9be 5b68 37bf
000000e0: 9b81 743f f3df a4bf 9d7d 59bf 732e 5a3f
000000f0: efb0 9abf 390a 71bf b61f b1be 25d7 97bf
00000100: 2e52 d5be ed60 72be edc4 a5be d371 7cbf
00000110: a2c3 a93f 681a 16bf 3b9f a2bf 92a5 843f
00000120: f882 d2be 58d1 e73d f6f5 0dbf b0ee 55bf
00000130: 06f3 8fbf e039 423c 1ffd 86bf 0a89 50bf
00000140: 3e2a 333e ea85 5cbe 103c 97be 6d9f 883f
00000150: 8834 0ebf 45b1 aabf dc79 c33f 3895 6bbf
00000160: f929 9ebf 6bf0 333f a0f7 8fbe b7e3 aebe
00000170: 5f44 813f e1ca dbbe f78c 7abf 57c0 963f
00000180: 071f 2abf 24ce 6dbf 8aa0 b33f 3f83 b63d
00000190: 89eb 2ebf d2ee 133f 3bb2 773e 0619 8fbf
000001a0: 64b1 9d3f cc97 62bf 1d7a 17bf 6604 8f3f
000001b0: 28e7 d0be 685e b03e 3cc0 3d3f d1e9 edbd
000001c0: 780d 8fbf dcf9 413f 5c1e 68bf 13a4 7cbf
000001d0: 2c97 ecbe 097f 3ebf c069 b9be 346d 9a3f
000001e0: 2d00 41ba 2307 da3d 8dd6 97be 5fc4 f6bd
000001f0: a49f 0dbe edfa cfbd 6079 5bbe f4a8 94be
00000200: 7d27 debe 0057 c3be b5b6 90be 24ec 0bbe
00000210: a6cc 9d3d 9e15 6dbe d3e2 ab3e bb9f 5abe
00000220: 1832 f7bd 252b 95be 685b a83e 3cd4 4dbd
00000230: d0d2 67be fabd 093f 2943 37bb 9644 603c
00000240: 7405 623d 5b3e 9cbd 0464 94be f1b3 d6be
00000250: 8ee8 f1be d698 44be 260d 30be 7ec6 a3be
00000260: aec9 833e f82e edbd 4f5d d1be 64c2 913e
00000270: d9aa 59be 0c67 2dbe 3814 1abe 4f20 3dbe
00000280: 69d7 78be 941c 0dbf baed f1bd 4bba 8a3e
00000290: 8328 7fbe 890c f1bd c2c1 37be d805 31be
000002a0: 25a6 3cbb 8158 a6be 8e24 923e 8be4 4a3e
000002b0: f12f 67be 7389 07be cb51 063e 2c79 c7be
000002c0: f45a be3e 0d93 46be ab6f 77be 4030 6cbe
000002d0: fd92 8bbe 780b 23bd e9c1 1bbe d824 89be
000002e0: d69d 283e f56c a0be 80f0 64be 9a9b 633e
000002f0: 8100 94be c7b8 06be c2f0 c2be 7acc b93e
00000300: b70b 56be 193b 30be df1b 17be c135 13be
00000310: 1dbe 08be 71f6 643e 1e9a 7bbd c076 4bbe
00000320: 1e10 c73d 5714 83be b94d 13be 80c7 703c
00000330: 5c3f ab3c 7e0d 92be 7323 c43e 5bae 73be
00000340: e5bc de3b 0f8c 813e 9cf5 2dbe a0c3 e3be
00000350: 5beb eb3e 17b3 b73d e24f ddbe f56b 6bbe
00000360: 512b 35be 1f5a 59be e8dc b03e aa38 94be
00000370: 239e a1be 863c 063f a6c0 bf3d c0ea d0be
00000380: e6f1 d2bd 4c11 e13e 2bdf ecbd 5720 76be
00000390: 23ab f5bd fa82 033f e922 0bbf ca25 1f3f
000003a0: 07e5 183d dfca 6f3c 7705 44be 3397 41be
000003b0: c31b 70be 0ecf eebd 66ed 47be ad1b 8e3e
000003c0: 0672 b6bd 0c01 043d 31cc 81bd cd0b 5fbe
000003d0: 9b8d b03d bbfd 74bd 9843 3fbc e18d 22bc
000003e0: 52b3 cb3b 6f81 18ba 7a0c 8dbd a485 4dbd
000003f0: f42f 05be 9159 33bc db34 a43d 28ad e7bd
-0.36536995 0.10835098 0.0072935866 -1.2122309 -0.8021845 0.7578945 -0.62821794 -0.48659343
-0.23868734 -0.6747347 -0.12358054 0.59398246 -0.76796746 -0.4596273 0.31848565 -0.27410236
-0.4565583 0.006548989 -0.0364981 -0.7892828 1.1391315 0.09653316 -0.22962268 -0.2916553
-0.7226839 -0.6388974 0.09666055 0.011634158 -0.685051 0.758371 -0.6284852 -0.8226104
-0.05840686 -0.76205176 -0.9568863 0.62575626 -0.69010884 -0.1406849 1.000267 -0.9454204
-0.39985445 0.2858775 -0.63954407 0.48454332 0.08643098 -0.7921924 -0.6327611 0.5865931
-0.39437398 -0.6962222 0.47550896 -0.027321268 -1.2607529 0.6418227 -0.39320138 -0.7164361
0.9551026 -1.2880844 -0.84957296 0.85227126 -1.2085246 -0.94156224 -0.34594506 -1.1862532
-0.4166426 -0.23669787 -0.32376805 -0.9861118 1.3262827 -0.5863404 -1.2704843 1.0363028
-0.41115546 0.11319226 -0.5545343 -0.83567333 -1.124604 0.011854619 -1.0545996 -0.81459105
0.17496583 -0.21535459 -0.29538012 1.0673653 -0.55548906 -1.3335348 1.5271564 -0.92024565
-1.2356559 0.70288724 -0.2811861 -0.34158108 1.009899 -0.42928222 -0.97871345 1.1777447
-0.66453594 -0.9289267 1.4033368 0.08911752 -0.6832815 0.57786286 0.24189083 -1.1179512
1.231976 -0.88512874 -0.59170705 1.1173217 -0.40801358 0.34447026 0.7412145 -0.116168626
-1.1175985 0.7577188 -0.90671325 -0.9868786 -0.46209085 -0.7441259 -0.36213493 1.2064576
-0.0007362392 0.106458925 -0.29655877 -0.120491736 -0.1383043 -0.10155282 -0.2143302 -0.2903515
-0.43389502 -0.38152313 -0.28264394 -0.13664299 0.07705049 -0.23152778 0.3357149 -0.21349995
-0.120701015 -0.2913448 0.32882237 -0.05025123 -0.22639012 0.53805506 -0.0027963615 0.013688227
0.05518098 -0.07629081 -0.28982556 -0.4193416 -0.47247738 -0.19198927 -0.17192516 -0.31987375
0.25739807 -0.11581224 -0.408915 0.2846862 -0.2125658 -0.1693384 -0.15046775 -0.18469356
-0.24300922 -0.5512173 -0.11812921 0.27095255 -0.24917798 -0.11769969 -0.17945006 -0.17287385
-0.0028785553 -0.32489398 0.28543514 0.19813745 -0.22576882 -0.13236026 0.13117139 -0.38959634
0.37178767 -0.19392033 -0.24163692 -0.23065281 -0.2726058 -0.03980586 -0.1521069 -0.26785922
0.1646646 -0.31333128 -0.22357368 0.22227326 -0.28906634 -0.13156424 -0.3807431 0.36288816
-0.20902906 -0.17210044 -0.14756726 -0.14375974 -0.13353772 0.22359635 -0.061426274 -0.19869518
0.09719871 -0.25601456 -0.14385118 0.014696002 0.020904236 -0.2852592 0.38308296 -0.2379698
0.0067974203 0.2530217 -0.16988224 -0.44485188 0.46078 0.089697056 -0.43225008 -0.22990401
-0.17692305 -0.21225785 0.34543538 -0.2894948 -0.3156596 0.524361 0.09362917 -0.408041
-0.10300045 0.4395851 -0.115660034 -0.24035774 -0.11995532 0.5137173 -0.54350144 0.62167037
0.037327792 0.014635771 -0.1914271 -0.18905334 -0.2344809 -0.11660586 -0.19524154 0.2775549
-0.08908467 0.03222756 -0.063377745 -0.21781845 0.08620759 -0.05981229 -0.01167383 -0.009921522
0.006216445 -0.0005817627 -0.06887145 -0.050176278 -0.13006574 -0.010946647 0.08017894 -0.11312324

cnn_apt.0.bias f4 [100]
00000000: 2246 7cbf 539e 53be 484c 39be 8c5f 02be
00000010: d36d c4bd a713 dbbe 9c61 f4bd 58a9 a1bd
00000020: 24b6 3d3c 326a f4be ba90 e8bf b5f0 69bf
00000030: b38f e5bf 7b87 36bf 0993 29bf 88c5 2cbe
00000040: 131e 11bf 6298 47c0 c5a2 fabd bc2b 0ebe
00000050: 7b95 abbd 1233 66bf ed9b 07be c150 cbbd
00000060: 9b85 e6bf f36e 7cbf d767 1dc0 536e 3fbf
00000070: 8f51 b2bd 194b ccbd f4c5 14bd 73f7 b7bf
00000080: 6b25 0ebe 5e7d 0ebe 5e56 e3bf 87fc e1bf
00000090: edab 15bf b22f bfbf ba5c 0ac0 f3a5 98be
000000a0: e027 87be a96d 72bf cafa 64c0 45bf c33d
000000b0: bb26 2fbe f3e3 1ebe ea43 39be 1560 32bb
000000c0: c132 39bf d8ac 11c0 5cb9 9dbd e718 cbbd
000000d0: d9f7 0abf 7df1 72bf 1dd8 6cbf 80f9 86bd
000000e0: 688f 9ebf 1d7b fbbd fddd 11be 48db 19be
000000f0: 00bd 5fbc 9675 25c0 06ee cfbd 1a6b c0bf
00000100: 2b53 d13c 0069 c7bf 2fa6 6cbf 76e6 05bf
00000110: 2b09 bcbf 94b2 2d3e 696d 9bbf 80e1 3cbe
00000120: 9430 14bd 9a7e aebf 9f9b 50bf 943e cebf
00000130: 210a 97bf 7d5a 3dbe 9564 4abf b9a4 e03d
00000140: e91e ecbe db55 15c0 1b1c 26be ca14 d0bd
00000150: e872 c1bf c778 08be 132b a4bf 8b62 1abf
00000160: 8f35 40bd 7df5 e5bd e150 34c0 c0cb 20bf
00000170: b5a1 4ebf 2570 55bf 9e59 fdbb b611 f6bd
00000180: 13c0 223c 2e04 05be 04e7 4abf a0de d3bf
-0.98544514 -0.20665865 -0.18095505 -0.1273176 -0.0959126 -0.4278843 -0.1193268 -0.07893628
0.01157907 -0.4773727 -1.8169167 -0.91382915 -1.7934479 -0.71300477 -0.6623998 -0.16872227
-0.56686515 -3.1186757 -0.12238077 -0.13883871 -0.083781205 -0.8992168 -0.13243075 -0.09927512
-1.8009523 -0.98606795 -2.459463 -0.74777716 -0.08706962 -0.09975261 -0.036321595 -1.437239
-0.13881461 -0.13915011 -1.7760732 -1.765519 -0.5846546 -1.493643 -2.1619096 -0.2981411
-0.2639761 -0.9469858 -3.577807 0.09557966 -0.17104618 -0.15516643 -0.18092313 -0.0027217914
-0.7234307 -2.2761745 -0.0770137 -0.09916859 -0.54284436 -0.9489973 -0.9251726 -0.06590557
-1.2387514 -0.12279341 -0.14244838 -0.15025055 -0.013655901 -2.5853019 -0.10152821 -1.5032685
0.025552353 -1.5578918 -0.92441076 -0.5230478 -1.4690298 0.16962653 -1.2142764 -0.18445396
-0.03617914 -1.3632386 -0.8148746 -1.6112847 -1.1799966 -0.1849155 -0.79059726 0.10968918
-0.46117333 -2.3333652 -0.16221659 -0.10160215 -1.5113192 -0.13327323 -1.2825645 -0.60306615
-0.046926077 -0.11228464 -2.8174365 -0.628109 -0.80715495 -0.83374244 -0.0077316305 -0.12015097
0.009933489 -0.12989876 -0.7925875 -1.6552315
