src/models/model_checkpoints/binary/LinearConv1d/05032020.pth (torch_old, 203547 bytes, 38 tensors)

cnn_apt_1.weight f4 [100, 4, 3]
000000 51 23 92 be df fc 42 ba ac ab 56 be 97 0a 2e be
       -0.2854257 -0.00074381934 -0.20963925 -0.16996227
000010 d3 0e 81 be d7 57 74 be ce df 87 3d 91 00 22 3e
       -0.25206622 -0.23861633 0.06634484 0.15820529
000020 62 8e 84 be 5d 70 81 be b9 96 1a 3e 18 0c 96 3d
       -0.2588988 -0.2528104 0.15096559 0.073265254
000030 2c 60 81 be 09 77 3d be e0 f7 40 3e 79 5e 84 3e
       -0.25268686 -0.1850244 0.18844557 0.25853327
000040 09 7f 62 3e 6a 3a 42 be 60 bb 30 be f6 b8 aa 3d
       0.22118773 -0.18967596 -0.17258978 0.0833606
000050 ce 43 ea bd 8e a1 f5 3d bc 74 75 be 98 51 8f 3e
       -0.11438714 0.11993705 -0.23970312 0.2799194
000060 09 0e eb 3e 6d b6 42 be 30 e5 c7 bc 89 fd 06 bf
       0.45909145 -0.19014902 -0.024401277 -0.52730614
000070 dc 0e 18 bf b0 0e 13 bf 47 5e fa be 8e 8e e4 be
       -0.59397674 -0.57444286 -0.48900053 -0.4464001
000080 a7 60 66 3c 6a f7 c4 3d 15 ca e4 3e 29 a0 40 3d
       0.01406113 0.09617503 0.44685426 0.04702774
000090 c1 32 97 be 1f d1 f1 bd f1 6b 38 3d 86 8f 63 be
       -0.2953091 -0.11807465 0.045024816 -0.22222719
0000a0 02 a3 9e bc 16 5d a9 3d 69 28 84 bd 33 86 e0 3d
       -0.019364838 0.08269708 -0.0645302 0.109630965
0000b0 fb 61 0d be 81 fd 35 3e 5e 7d 5e be 96 ed 07 3d
       -0.13806908 0.17772485 -0.21727511 0.033185564
0000c0 f1 79 bf 3c 46 4e 04 be f6 0e 54 3b 60 2e 0d be
       0.023373576 -0.12920484 0.003235755 -0.13787222
0000d0 b3 92 47 3e c0 0a 48 be d9 a3 99 3e 29 49 95 3d
       0.19489555 -0.19535351 0.30007818 0.07289345
0000e0 61 04 80 3d 27 eb 9a be eb f9 0a be 47 9d 4a be
       0.06250835 -0.30257532 -0.13571899 -0.19786559
0000f0 76 95 8e be 79 66 43 be a6 51 1a 3d 21 04 80 be
       -0.27848405 -0.19082059 0.037675522 -0.2500315
000100 8d fd 07 3e 86 35 32 3e f6 48 57 3e e7 53 aa bc
       0.13280316 0.1740323 0.21023926 -0.02079196
000110 6e a3 1d 3e 35 26 61 be 4a 5e ba be 6c cc 82 bd
       0.15394375 -0.21987231 -0.36400062 -0.06386647
000120 f5 af b3 be b6 72 38 3e 19 7d 94 be 12 82 59 be
       -0.35095182 0.18012509 -0.29001692 -0.21241024
000130 bc 5a 54 be 7a c5 38 be cc 73 d2 3e 2e b4 d5 3c
       -0.20737737 -0.18044081 0.4110397 0.026086893
000140 e5 7c be 3d 8b 6f 26 be 67 1c 49 be de c6 d2 be
       0.093011655 -0.16253488 -0.19639741 -0.4116735
000150 5f c4 98 be d7 8c 80 3d 65 a8 3f be 13 1b d7 be
       -0.2983732 0.06276863 -0.18716581 -0.42012843
000160 b7 40 be be 6c 72 d5 3b 99 56 2f 3f 0b 5f 8f 3e
       -0.37158749 0.0065138843 0.6849151 0.280022
000170 f0 74 3f 3f 45 eb 0c bf 6a 4d 1b bf 6e 49 12 bf
       0.7478781 -0.5504649 -0.60665 -0.57143295
000180 a7 9d 69 be fb e9 58 3e a6 ae d9 3e 2b 7c 40 be
       -0.22814046 0.21183006 0.4251606 -0.18797366
000190 43 ed 05 3e 59 52 71 be b5 ec 47 be e2 b0 41 3e
       0.1307879 -0.2356657 -0.1952389 0.18915132
0001a0 92 41 fb be d3 53 1e 3f 10 c0 94 3d 51 71 88 3c
       -0.49073464 0.61846656 0.072631955 0.016655596
0001b0 81 6b d3 3d 69 60 16 3c 15 35 1b be ff 36 4b be
       0.10323239 0.009178259 -0.15156968 -0.19845198
0001c0 10 bf 50 3d f0 81 f1 bd 5a 7d fa bd 51 b0 be bd
       0.05096346 -0.11792362 -0.1223094 -0.093109734
0001d0 dd c5 1e 3d 56 17 d9 bd 4b b5 b2 3d 6d 68 4f be
       0.038762916 -0.10600154 0.08725985 -0.20254679
0001e0 d2 0e d7 bc 58 f2 cf be df c1 0d be ba e2 83 3e
       -0.026252184 -0.4061458 -0.13843487 0.25758916
0001f0 b4 c7 f3 be 1d b7 9f 3e 15 b9 98 3e 0c 77 4c 3f
       -0.476133 0.31194392 0.29828706 0.7986915
000200 f0 cd d8 3b 73 37 8d bf ae ca d9 be f1 21 e7 be
       0.0066163465 -1.1032547 -0.42537445 -0.45143083
000210 40 dc 5f be a9 40 11 bd a8 11 fc bd 29 38 95 bd
       -0.21861362 -0.035462055 -0.12308055 -0.07286102
000220 17 44 30 be 39 a2 16 3e 42 6f ca 3d ba d5 4c 3f
       -0.17213474 0.1471032 0.09884502 0.8001362
000230 4c 45 da 3e 63 2f 33 bf cc 21 f3 be d2 3b 1c bf
       0.42630994 -0.6999418 -0.47486722 -0.6102878
000240 6d 33 a4 3e d2 dd 99 be 9f a8 03 3e 80 59 b9 be
       0.32070485 -0.30052048 0.12857293 -0.36201096
000250 74 91 85 be 5a 6a 1e be 55 46 b9 be f6 01 6e be
       -0.26087534 -0.15470257 -0.36186472 -0.23242936
000260 f0 2c c3 3d 7f 6d 57 3e 78 b1 db 3e 66 a9 5f bd
       0.095300555 0.21037863 0.42908835 -0.05460491
000270 ac 68 0c bd 57 bc 56 bd f7 fe bf 3e ca a2 85 be
       -0.03427951 -0.05242571 0.3749921 -0.2610076
000280 bc c6 3b be 3c 82 8a 3c 9b 9b a3 be bc f6 95 be
       -0.1833753 0.016907804 -0.31954655 -0.29289806
000290 24 d0 8a be 98 b9 dc 3e 98 2c 09 be 27 db ca 3e
       -0.27111924 0.43110347 -0.13395917 0.39620325
0002a0 2c f3 72 bc 06 37 8d be 77 8c 88 be 15 c5 5c be
       -0.0148284845 -0.27581042 -0.26669666 -0.21559556
0002b0 dd e6 75 3d 78 b5 91 bd 54 79 90 3e 12 e8 6d be
       0.06003462 -0.071146905 0.28217566 -0.23233059
0002c0 f2 9f 0c bd d0 60 c6 bd 08 28 16 be bb 6f ed bd
       -0.034332223 -0.09686434 -0.14663708 -0.115935765
0002d0 3c b6 6f be f5 b7 21 be 02 2f 90 be 81 4e a2 be
       -0.2340936 -0.1579283 -0.28160864 -0.3170052
0002e0 a9 ba ba bc 4f c2 47 3d f9 27 4e 3e 33 e6 a8 bc
       -0.022794085 0.04876929 0.20132436 -0.02061758
0002f0 ee 63 16 be 7f e6 3a be 6c c1 05 bd 97 42 3c bd
       -0.14686558 -0.1825199 -0.032655165 -0.045961943
000300 d3 51 ae 3e d8 f6 6e be d0 d0 d2 be 96 a3 35 be
       0.34046802 -0.23336351 -0.41174936 -0.17738184
000310 15 d7 e7 be 82 f2 b4 be b1 e6 a6 be cf d4 e3 be
       -0.45281282 -0.3534127 -0.3259788 -0.44498298
000320 20 d5 96 bc 17 c4 95 bc 9e 0d e6 3e 28 be f1 3e
       -0.018412173 -0.01828198 0.44932264 0.4721539
000330 8d c8 36 3e c6 e4 be bd 7c e8 75 be 28 fe 71 bd
       0.17849942 -0.09320979 -0.24014467 -0.059080273
000340 d8 c1 e3 bd d5 77 f6 3d cc fd 61 be 21 cf 91 be
       -0.11120957 0.12034575 -0.22069472 -0.2847834
000350 61 87 f9 3d be 25 af bd dc a8 e0 bd db d5 8d 3e
       0.121840246 -0.085521206 -0.10969707 0.2770222
000360 ef c0 a9 be 36 69 71 be ba 25 06 bf 63 d2 86 bd
       -0.3315501 -0.23575291 -0.52401316 -0.06583097
000370 14 62 17 bf f5 f6 74 3d 2c 21 a8 3e 2c 98 4c 3f
       -0.5913403 0.05980583 0.32837808 0.79919696
000380 49 35 58 3f c4 79 8f bf a0 07 9e bf 65 b6 59 bf
       0.84456307 -1.1209035 -1.2346077 -0.85043937
000390 e6 8f e6 3c 60 d9 04 3d 3d 85 b5 3d db 6e 22 bc
       0.028144788 0.032433867 0.08863304 -0.009914125
0003a0 44 6a 21 bd a6 38 2a be fa 33 01 be 41 ee 25 be
       -0.039407983 -0.16623172 -0.12617484 -0.16204168
0003b0 89 cd 4f 3e 68 03 0f 3d da 5f 93 3d c4 5c 58 be
       0.20293249 0.034915358 0.071960166 -0.21129137
0003c0 e1 b3 0a bd 0b c8 29 be 90 ac 39 bd 7f 08 5c be
       -0.033862952 -0.16580217 -0.045330584 -0.21487616
0003d0 1f 7c e8 be c0 ad 3a 3e de 6d 12 3e 5d b0 8d 3e
       -0.45407197 0.18230343 0.14299724 0.27673617
0003e0 0b 0a 60 be ec 95 c1 be 2b 87 6d be ab 1f 9d be
       -0.21878831 -0.37809694 -0.23196094 -0.30688223
0003f0 93 f9 09 be e6 94 52 be 82 e6 7e be 97 c3 9f be
       -0.13474111 -0.20564613 -0.24892619 -0.3120391

cnn_apt_1.bias f4 [100]
000000 48 6c 02 be 35 c6 a0 be 92 a7 1d bf 1f 1a c1 be
       -0.12736619 -0.3140122 -0.61583817 -0.3771524
000010 b9 7b 96 be eb e1 5b be be 4e b1 be 17 6d 3b bf
       -0.29391268 -0.214729 -0.34630388 -0.7321333
000020 b5 73 09 bf 7e 19 a1 bd c0 d6 f5 be e6 c1 1b bf
       -0.5369218 -0.078661904 -0.48015404 -0.6084274
000030 08 50 b7 be 3c 4e eb bd 89 53 69 39 e7 91 6b be
       -0.35803246 -0.114895314 0.00022251731 -0.23004876
000040 43 84 c8 be c7 11 7b be 2e 14 3b bf e8 a2 6d be
       -0.39163408 -0.245185 -0.73077667 -0.23206675
000050 37 ac 7a be 7e f5 a6 be 23 7f 23 be 94 e8 b2 3d
       -0.24479757 -0.3260917 -0.15966468 0.08735767
000060 78 68 f7 be f4 ea 54 be 79 c2 28 3d f7 64 cf bd
       -0.4832189 -0.20792753 0.04120109 -0.101266794
000070 6f 82 90 be bb ac 95 be 13 63 86 be 4f 11 45 be
       -0.28224513 -0.29233345 -0.26247463 -0.19244884
000080 1c db 20 be 68 9f 79 be c6 9d c9 bd 1a 72 b2 be
       -0.15708584 -0.24377215 -0.09844546 -0.34852678
000090 96 22 78 be 35 e0 b5 be 85 28 bd bd 12 f9 87 be
       -0.24231943 -0.3552262 -0.09236244 -0.26557213
0000a0 e9 df 5e be 9a 60 41 be 37 67 cd be dc 74 df bd
       -0.21765102 -0.18884507 -0.4011781 -0.10910961
0000b0 ba 5e f4 3d 4f 91 de be fd 4a 00 be 23 b1 06 bd
       0.1193213 -0.43470237 -0.12528606 -0.032883774
0000c0 17 5d eb be 61 f0 9f be 8e bf b1 be e3 45 89 be
       -0.4596946 -0.31238082 -0.34716457 -0.26811132
0000d0 5c bd 1f bf ec 68 73 be 32 7d 08 bf 2a 47 82 be
       -0.62398314 -0.23770493 -0.5331603 -0.2544492
0000e0 70 5d 1c be 7f 71 38 be ed 00 16 3d 72 4a df 3c
       -0.15270019 -0.18012045 0.036621977 0.027257178
0000f0 00 2a 0b bd a6 99 a0 be 45 7b 0d bd a3 cf bd 3e
       -0.0339756 -0.31367224 -0.034541387 0.37072477
000100 ba f0 29 bf 4d 38 c7 be 7d 8b 07 bf b4 d1 52 3f
       -0.66382945 -0.38910142 -0.5294722 0.8235123
000110 b8 54 cf be f2 6a b8 bd af 04 d4 be 7c d5 8e be
       -0.40494323 -0.09004773 -0.41409823 -0.2789725
000120 b7 ac 90 be 9a 5a 9c be 69 04 b5 be 91 68 9c be
       -0.2825677 -0.30537874 -0.35354927 -0.30548528
000130 2e e5 c4 be 24 25 9b be 66 a9 32 bd 9b 74 0f be
       -0.384561 -0.30301774 -0.043618582 -0.14009325
000140 11 bb 75 3c 47 78 27 be 14 50 6d 3d b2 75 28 be
       0.014998213 -0.16354476 0.057937697 -0.16451147
000150 f6 3b 17 bf ce d8 a2 be 9f 9d 48 bd a5 2c 3c bf
       -0.5907587 -0.31806034 -0.048978444 -0.7350562
000160 ab 04 f9 be d3 95 ee be 83 61 da be 06 de 8a be
       -0.48636374 -0.46598682 -0.4265252 -0.27122515
000170 97 ed 91 be 5b e3 12 bf 86 75 80 3e 71 f3 63 bd
       -0.2850158 -0.57378167 0.25089663 -0.055652086
000180 ab 94 1e bf c7 56 a1 be 94 fe 8a be b2 c2 5c bd
       -0.619456 -0.31511518 -0.27147353 -0.053896613

cnn_apt_2.weight f4 [50, 100, 3]
000000 11 79 0a bd be 2b 55 bb 75 1e e4 bc 55 cb 71 3c
       -0.033806864 -0.0032527293 -0.027846554 0.014757951
000010 2c ab 15 3d 98 95 cb bc 79 e8 08 3d 9b c7 77 bb
       0.036540195 -0.024851605 0.03342483 -0.0037808183
000020 2d ad 20 bd 27 95 9a 3c 30 ca 59 3c 1e 0d 36 3b
       -0.039227653 0.01886995 0.013292834 0.0027778815
000030 83 6a 14 bc e8 c8 5e bd 99 b8 5c 3c 2c 00 10 3d
       -0.0090585975 -0.054390818 0.013471746 0.035156414
000040 bb b9 1e bd ea 7c 42 bd eb ad 31 bd d0 8d 61 bd
       -0.038751345 -0.04748241 -0.04337875 -0.055066884
000050 f8 58 11 b9 e6 40 a6 3c 7e 5f e5 bc 9c 70 e7 3c
       -0.00013861421 0.020294618 -0.027999636 0.028251939
000060 d3 cc 70 bd 60 a4 1f 3d b8 9c 89 bd 59 a5 c3 bc
       -0.058789086 0.03897512 -0.06719345 -0.023882555
000070 3b 95 bf bc be e7 fc bc 54 2d 9f bc 61 1b a5 3c
       -0.023386588 -0.030872222 -0.019430794 0.020154657
000080 fd 95 5a bd ec 7a e4 3c 04 32 51 bd e2 04 85 3c
       -0.053365696 0.027890645 -0.05107309 0.01623768
000090 14 ec 0d 3d 49 4d 49 bc 4f cf b3 3c a6 3b 66 3c
       0.03464897 -0.012286493 0.021949438 0.014052307
0000a0 bf 2b 53 bc 09 3c 83 bd 00 c0 86 bd f7 9e d0 3b
       -0.012888848 -0.06407935 -0.0657959 0.0063666063
0000b0 57 d1 e3 bc 94 a4 0c 3d bb 4b 21 3d 27 a2 93 3c
       -0.027809782 0.03433664 0.039378863 0.018021656
0000c0 26 e7 68 b9 54 f6 e4 3c c3 9e 42 3d bd 4c 0b 3c
       -0.00022211354 0.02794949 0.04751469 0.008502183
0000d0 fa 6a 39 3c 99 8b 08 3d 17 cb 86 3c 8a 3b 6b bc
       0.011317009 0.033336256 0.016454263 -0.014357457
0000e0 0e a7 50 bd f7 25 60 bd 8d 6d c8 3c cd 10 ca bc
       -0.050940566 -0.054723706 0.0244663 -0.024666214
0000f0 e0 7b 6a bc eb d6 a3 3c 52 3c 47 bd 6f 49 ca bc
       -0.014311761 0.019999942 -0.04864151 -0.024693219
000100 51 aa 64 bb e3 db e4 bc a9 8c 21 3d 0f c4 13 bd
       -0.0034891556 -0.027936881 0.039440785 -0.036075648
000110 2c d1 23 bd 16 c1 32 bc 60 3b 36 3d 0e b7 da 3c
       -0.039994404 -0.010910293 0.04449022 0.026698615
000120 2e de 1d 3c be 4f 4f bd 71 f7 b5 bc 92 db fa bc
       0.009635491 -0.050613157 -0.022212716 -0.030622277
000130 c2 47 57 bd 4f 6c d5 bc b2 66 3f 3d 38 fb 10 3c
       -0.052558668 -0.026052622 0.046728797 0.008848958
000140 6e f1 3d bd 9a 27 a2 bc 5d e9 dd 3b b8 cc ff 3c
       -0.046372823 -0.019794274 0.006772204 0.031225547
000150 74 20 df 3c d0 d1 b8 3c 80 c8 bb b9 5c da 70 bd
       0.027237155 0.022560984 -0.00035816804 -0.058801994
000160 f2 c6 14 bc 2c fd 16 bd 14 10 d5 bc a1 90 72 bc
       -0.009080635 -0.036862537 -0.026008643 -0.01480499
000170 c5 cd 1e bd 24 32 06 bb 80 c4 47 3d 3e 04 d9 3b
       -0.038770456 -0.0020476663 0.04877138 0.00662282
000180 89 06 36 3d 45 58 3e bd ec 32 95 3c 4f a5 00 bb
       0.044439826 -0.0464709 0.018212758 -0.0019629782
000190 0f 55 62 bb d9 27 50 bd ab 10 d7 bc af f8 49 3d
       -0.0034535562 -0.05081925 -0.026253065 0.04930943
0001a0 2e 8b 1d bd b4 bf 34 bd 0c ff 0a bd a2 de 27 bd
       -0.03846281 -0.044128135 -0.033934638 -0.040983804
0001b0 3a 13 b5 bc 8c 0a 91 bc f2 db 98 3c 14 1c 60 bd
       -0.022103895 -0.017705224 0.018659566 -0.054714277
0001c0 35 a9 00 3d cb 71 86 3a a7 c8 64 bd 93 50 1e bd
       0.03141137 0.0010257302 -0.05585542 -0.03865106
0001d0 30 90 31 3c 33 e8 5e bb 2e 56 39 3d 65 b8 34 bd
       0.0108376 -0.0034012913 0.045248203 -0.044121165
0001e0 97 dd 03 3d 95 f1 47 3d 1b dd 87 bb 84 bc 77 3b
       0.032193746 0.048814375 -0.004146231 0.0037801573
0001f0 ff 5c 41 bd 47 58 45 bc 25 00 83 bd c1 34 63 bd
       -0.04720783 -0.012044973 -0.06396512 -0.055470232
000200 8d 52 a4 bc 21 ee c7 3c 6d 1d af bc 12 e7 38 3c
       -0.020058895 0.02440554 -0.021376336 0.01128556
000210 6c 9a 43 bd 58 2f 05 bd 42 60 e1 3c 15 f0 31 3c
       -0.04775469 -0.032515854 0.02751172 0.010860463
000220 93 f4 95 3c 1c c5 a6 3c 74 e9 73 3b 65 41 09 3d
       0.018305099 0.020357661 0.0037218006 0.03350963
000230 b8 fc 20 bd 4b e2 37 bb 94 6f 8b bd fc 8c 0a 3d
       -0.03930351 -0.0028058465 -0.06808391 0.03382586
000240 be df b3 bd 12 d6 ed 3b 5e 25 b9 bc b8 cc 72 bd
       -0.0878291 0.007258185 -0.022600826 -0.059277266
000250 1b 69 29 3c 6d 8e 4c 3d d5 82 8c bc eb 30 07 bd
       0.0103400005 0.049940515 -0.01715223 -0.033005636
000260 a8 0b 16 bb 70 45 54 bd 6a c3 4f bd 1a 70 81 3c
       -0.0022895131 -0.051824033 -0.05072347 0.015800525
000270 19 2e ff bc f9 51 13 bc 3a 18 3c bd 77 5c bf bb
       -0.03114991 -0.008991712 -0.04592154 -0.00583988
000280 61 af 21 bd cd 2f 2f bd b4 ad 03 bd bc 80 f9 bc
       -0.039473895 -0.042770196 -0.032148078 -0.030456893
000290 85 b1 4e bd 94 03 11 3d 21 80 36 bd f4 ba 11 3b
       -0.050462265 0.035403803 -0.044555787 0.0022236677
0002a0 20 d5 55 bd a4 81 1f 3d e3 12 19 bd fc cd 90 3c
       -0.052205205 0.038941994 -0.037371527 0.017676346
0002b0 0e 7d c2 bc 7b cd f9 bc b9 3c 41 3d d2 d9 0d bb
       -0.023741271 -0.030493489 0.04717705 -0.0021644724
0002c0 65 6b 01 bd dc 15 3c bd 25 36 2f bd 77 96 10 bc
       -0.03159656 -0.045919284 -0.042776246 -0.008824936
0002d0 18 c9 3c 3d 84 e7 43 bb 0d 27 73 bd e3 16 ee bc
       0.046090215 -0.0029892633 -0.059363414 -0.029063648
0002e0 d8 83 85 bd d7 86 c8 bb 7f ca d5 ba 38 66 f3 bc
       -0.06519288 -0.00611959 -0.0016310959 -0.029711828
0002f0 a1 cc 46 bd 2c b0 28 ba 09 51 25 3d 33 26 69 bd
       -0.048534993 -0.0006434943 0.040360484 -0.056921195
000300 f3 3a 50 bd 28 e7 16 bc 19 15 b6 3b 46 8b 29 ba
       -0.05083747 -0.009210385 0.0055567143 -0.0006467592
000310 c0 82 e9 3a eb 6a a9 3a 8a e9 83 3c 39 78 50 3d
       0.0017815456 0.0012925541 0.016102571 0.050895903
000320 d8 4d fd 3c 4b f1 8a bd 95 20 0f 3d 84 d0 a1 bd
       0.030920908 -0.06784304 0.034943182 -0.07901099
000330 94 76 72 bd 65 93 78 bc 25 38 da 3c 9c 87 2f bd
       -0.059195116 -0.01517186 0.0266381 -0.042853937
000340 99 a7 68 bc 47 cc 4c ba be 02 e2 bb 8a 81 4e 3d
       -0.014200115 -0.0007812422 -0.0068972996 0.050416507
000350 fd 34 5c bd 86 92 58 bd 6c 67 48 bb 63 41 d8 3b
       -0.05376147 -0.05287411 -0.0030579222 0.0065995916
000360 c3 26 42 bd 6e 81 03 bd 3b b6 9e bc ec 86 22 3c
       -0.047400247 -0.032105856 -0.019374004 0.009919863
000370 9f c5 9d bc e3 ed b4 3c 79 57 75 bd 30 11 4c bd
       -0.019259272 0.02208609 -0.059897874 -0.04982108
000380 0c 1b b4 bb c8 e2 3f bd fb e8 1e 3c 04 d5 ee 3c
       -0.0054963883 -0.046847135 0.009699102 0.029154308
000390 18 95 42 bd ae 1d 86 bb 73 c1 4b bd 8c d3 6e bd
       -0.047505468 -0.0040928936 -0.049745034 -0.058307216
0003a0 c3 5a 04 bd 4c cf 5f bc 24 48 68 bb 74 0d 85 bc
       -0.03231312 -0.013660263 -0.003544339 -0.016241767
0003b0 86 d7 1f bd 5d d0 65 bb 96 cd c9 3c ba 77 33 3d
       -0.0390239 -0.003506682 0.024634164 0.043815352
0003c0 14 89 7b bb 5a ff e7 bb af 9f c3 3c e7 d0 b4 3c
       -0.0038381265 -0.007080001 0.023879854 0.022072269
0003d0 a9 e4 b6 3c 2b 2b 69 3c 92 ec 38 bd f9 37 65 bd
       0.02232583 0.014231483 -0.045147486 -0.055961583
0003e0 a6 52 21 3d 7a 77 78 bd d6 cd 0d 3d 26 5d 9e bc
       0.03938546 -0.060660817 0.03462013 -0.019331526
0003f0 e9 eb 6d bd 9d e1 0f 3d f9 b6 0c 3d ac 5d 53 3d
       -0.05808631 0.03512727 0.034354184 0.051603004

cnn_apt_2.bias f4 [50]
000000 86 2a e3 bc d1 6a 52 be 31 c8 07 3c 41 36 91 bc
       -0.027730238 -0.2054856 0.008287475 -0.017726066
000010 2b 7a cb bd 50 d8 c6 be 71 7d ba bd f1 85 52 be
       -0.09935411 -0.38836908 -0.09105957 -0.20558907
000020 27 16 09 bd 9e 1e 68 3e 1e 81 b5 bd 26 25 a7 bd
       -0.03346839 0.2266793 -0.08862518 -0.081613824
000030 c4 28 a3 be 02 2a 45 bd ca 98 b1 bd a9 2a da 3d
       -0.3186704 -0.048135765 -0.0867172 0.10652668
000040 1d 5d 84 bd 0d 56 b1 bd 9c da 80 3c 82 1f 84 bc
       -0.064630724 -0.08658991 0.015729241 -0.016128305
000050 72 d1 b3 be 55 0c a6 bd 33 27 be bd 4f 08 a0 bc
       -0.35120732 -0.08107821 -0.092848204 -0.019535212
000060 4d fb 93 bd 8b 8f 06 bd 42 34 90 bd 96 f5 5c bd
       -0.07225666 -0.032851737 -0.070412174 -0.053945147
000070 d8 66 88 be 84 1e ec bc a4 a4 3a be 26 88 58 bd
       -0.26640964 -0.028823145 -0.18226868 -0.052864216
000080 0f 67 97 bd 38 0b 84 bd 43 f8 37 bf 4d ba cb bd
       -0.07392704 -0.06447452 -0.7186319 -0.099476434
000090 01 b3 b8 bd a6 9c 48 3c 8f 73 86 bc d6 21 7e be
       -0.09018517 0.012244379 -0.016412525 -0.24817595
0000a0 af 48 3e bd 17 4e 95 bd 26 6c d7 be 4c 4d 97 be
       -0.046456035 -0.07290285 -0.42074698 -0.2955116
0000b0 1b e3 78 bd f0 8c 20 bc b5 ba 34 3d 1e 47 63 bd
       -0.06076346 -0.009799227 0.04412337 -0.055487745
0000c0 c0 59 88 bd 8d c9 e9 bd
       -0.066577435 -0.11415396

cnn_apt_3.weight f4 [25, 50, 3]
000000 d2 94 87 bd 59 54 70 bd b4 1d c4 bc dd 0d 53 bd
       -0.06620182 -0.05867419 -0.023939945 -0.051526893
000010 5b 94 48 be 07 fd 6e 3e 15 73 04 3c da b8 9f 3d
       -0.19587843 0.2333871 0.008084078 0.077989295
000020 f8 60 9e bc b9 ec 99 3d 7a 4b 5b 3d 35 10 17 bd
       -0.019333348 0.075158544 0.053538777 -0.03688069
000030 db f4 8f bd fa 85 c7 3c e9 36 4f 3c c7 19 44 bd
       -0.07029124 0.024355877 0.012647369 -0.047876146
000040 8e 5a d5 3d f2 3b c2 3e 84 c0 c9 bd 08 69 94 3d
       0.104176626 0.3793636 -0.098511726 0.072465956
000050 60 c9 1c 3d a0 c7 e5 bd ea c7 04 bd ff d3 46 3e
       0.038277984 -0.11219716 -0.032417215 0.19416808
000060 fc 81 06 3d c7 8c 39 3d da b9 a0 3d e0 a0 be 3d
       0.032838807 0.04530027 0.07847948 0.09308028
000070 1e f6 88 bc a4 b8 cb bd cd 1a 0f bd d1 8c 00 3c
       -0.01671892 -0.09947327 -0.03493767 0.007846073
000080 39 cf ba 3b 21 20 39 bd c6 94 51 3d 58 11 e2 3b
       0.0057009724 -0.045196656 0.051167272 0.00689904
000090 1c 62 59 3c ed 00 27 bd 89 24 85 3d be 5f ee 3c
       0.01326802 -0.040772367 0.06501109 0.029098388
0000a0 8e 07 29 bc fd 93 44 3d 84 60 83 bd da 86 4f 3c
       -0.010316743 0.047992695 -0.06414893 0.012666428
0000b0 ae fe 54 3d 4b eb 98 3e 58 2d 47 3c 35 ff 56 bd
       0.052000694 0.29867014 0.012156807 -0.05248948
0000c0 5a 5f bb 3c bb fb eb bc ac 04 1d bb 21 d7 1a bc
       0.022872616 -0.028806558 -0.0023959083 -0.009450705
0000d0 47 81 4a 3c 20 ce 50 3d 17 45 08 bd c9 43 44 3c
       0.012359924 0.050977826 -0.033269014 0.011979052
0000e0 eb 29 88 bb 8e 38 4e 3c bc 32 15 3d ff 99 9e bd
       -0.0041553876 0.012586726 0.036425337 -0.07744216
0000f0 4c 0b 1a 3e 2f cc 0a bd 79 6a d2 bc d3 d9 a5 3d
       0.15043372 -0.03388613 -0.025685536 0.08098187
000100 03 b8 8c bc f4 a1 5d bc ef ec 42 3a df 3e a8 bd
       -0.017177587 -0.013527382 0.00074358186 -0.08215117
000110 d4 1d b5 bd 06 dd 60 bc 68 6d 85 3d 6d 79 cf 3c
       -0.0884358 -0.013724571 0.06515008 0.025326455
000120 32 69 bb bb 5b 55 bc bb 69 59 90 bc d5 bd c0 bb
       -0.0057193274 -0.00574748 -0.01762076 -0.0058820047
000130 fb ce 52 bd cb 6d 0c bd 84 2a 22 be f4 89 14 be
       -0.051466923 -0.034284394 -0.15836531 -0.1450575
000140 28 61 37 be fc 4d 4e bd ab 32 b6 3c fb 92 3e 3d
       -0.17908156 -0.05036734 0.022240957 0.04652689
000150 9d b7 85 3d f5 86 9b 3d 39 92 94 3c 63 8a 5c bb
       0.06529162 0.075941004 0.01813613 -0.003365182
000160 68 38 68 bd 6e ab 82 bd 0b cc 0b be e9 bd 92 bd
       -0.05669442 -0.06380354 -0.13652055 -0.07165129
000170 14 32 7b bd 29 39 4d 3d a0 36 ae bc 68 4a 90 bd
       -0.061327055 0.05010334 -0.021266282 -0.07045442
000180 05 36 50 bd ce 82 69 bc 1f e5 f9 3b 6c 67 ae b9
       -0.050832767 -0.014252378 0.0076261903 -0.00033264922
000190 8a 9e 0f bd b6 7c 27 3d 11 59 d6 3c 93 08 6d 3e
       -0.035063304 0.040890418 0.026165517 0.23147802
0001a0 89 cd a9 bd 1b f1 f8 bd 2f 3f 36 bd 02 e8 ca bc
       -0.08291156 -0.12155362 -0.04449385 -0.024768833
0001b0 9f 07 50 bd ba 9e d6 bd 17 c7 9e bc f5 7e e1 3d
       -0.050788518 -0.104794934 -0.019382043 0.11010543
0001c0 24 a5 1e bd 6e 8d 23 bc fb a5 f3 bc 22 bf 23 bd
       -0.03873171 -0.00998245 -0.029742232 -0.0399772
0001d0 d1 27 84 bd 8b 7d 3d 3d 18 db 11 3e 5b cf c0 3c
       -0.06452907 0.046262305 0.14243734 0.023536375
0001e0 3a 82 a6 bd 13 88 55 bd 10 b5 9f bc 3a dc 25 bd
       -0.081303075 -0.052131724 -0.019495517 -0.040493228
0001f0 a2 86 ab 3c 02 f3 f8 3c a5 77 0a 3e 9a fe a8 3d
       0.020938221 0.030389313 0.13522203 0.082516864
000200 55 d6 c3 3d 53 5e c7 bd a2 04 95 bd 8f 3f 46 bd
       0.09562365 -0.09734788 -0.07276274 -0.048400458
000210 86 4b 30 ba 64 cf 14 3d 30 5e 36 bc c7 6f 5b bd
       -0.0006725121 0.036330596 -0.0111308545 -0.053573396
000220 1f d3 c9 3b 20 ae ef bb ac eb 52 3d 9a 4c 90 3c
       0.006159201 -0.0073144585 0.051494285 0.017614651
000230 c4 00 c0 bc 8a e6 9e bb 6d 5c 8f bd 2e fa a9 bb
       -0.023437865 -0.0048492597 -0.07000051 -0.0051872944
000240 ed c2 4d bd 80 fe 5e bc f4 8a 99 3d 3e 61 b9 bd
       -0.050234724 -0.013610482 0.07497206 -0.090517506
000250 00 a4 4e 3d 35 ac 12 bd 0e 8e 9c bd bb 9c 49 3d
       0.05044937 -0.03580876 -0.07644282 0.049221735
000260 77 26 eb 3c 7b ee d0 bc 60 18 27 be 31 59 e8 3d
       0.028704865 -0.025504341 -0.16317892 0.11345137
000270 f8 55 8d 3d 45 94 16 3d a3 41 a0 bb 45 ac 44 3c
       0.06901163 0.036762495 -0.004890637 0.012003963
000280 3c cb ab 3c 3e a2 ad ba fb 53 80 bd 28 95 a5 3d
       0.020970933 -0.0013247204 -0.06266018 0.0808509
000290 62 9c 8c bd 9a ee 94 3c 51 79 f2 bd db a2 ed bb
       -0.06865765 0.01818018 -0.118395455 -0.00725208
0002a0 57 4f c6 bc c5 cb 1f 3d 70 e6 a6 3d 83 ce 73 bd
       -0.024207754 0.03901269 0.08149421 -0.059523117
0002b0 70 25 93 bd a0 70 57 3c 8f 8b 1a 3b ca 43 d2 3c
       -0.07184875 0.0131494105 0.0023581719 0.02566709
0002c0 11 2a 63 bc 99 b4 85 bd 5d 17 68 3c f3 70 77 3c
       -0.01386501 -0.06528587 0.0141657265 0.015102613
0002d0 de 07 93 3d 6e b1 8d bd fb 20 aa 3d 9b 57 10 bd
       0.07179235 -0.06918608 0.08307072 -0.035239797
0002e0 e0 4e 71 bd 67 59 c9 3a 10 b3 47 3d 68 8a 0c be
       -0.05891311 0.0015361727 0.04875475 -0.13724673
0002f0 d0 6e b2 bd 4b 74 60 3d ca c5 1e 3d dc fc 90 bd
       -0.08712542 0.054798406 0.038762845 -0.07079479
000300 56 32 f7 bc 1b 57 2b 3c 86 92 dc 3d 9e 12 b3 bd
       -0.03017537 0.010457779 0.10770135 -0.08743785
000310 29 b6 59 bd f3 9a 0d 3c fd ac 82 3d 7b fa fb bb
       -0.053152237 0.0086429 0.06380651 -0.0076897717
000320 96 4c 7a 3d 80 b5 02 bd f1 52 79 bd f8 55 2a bd
       0.061108194 -0.031911373 -0.060870115 -0.041585892
000330 18 ba 40 bd 1d 6f 87 3c bc 2d 10 3b 78 bb 85 3d
       -0.047052473 0.016532475 0.0021999916 0.065298975
000340 e2 1c a2 bd 89 a2 5e 3c ac 49 b5 bd a1 2d 9d 3b
       -0.07915665 0.013588556 -0.088519424 0.004796699
000350 9a a6 a0 bd c6 28 df bc e5 76 04 bd 38 08 88 bd
       -0.07844277 -0.027241122 -0.03233995 -0.066421926
000360 d9 d0 20 3d 38 f5 96 bd 26 90 b6 bc 85 0a 61 3d
       0.039261673 -0.073709905 -0.022285532 0.054941673
000370 1f c8 78 3d 35 9d 1a bd 41 2d 91 3d 26 93 88 3c
       0.060737725 -0.03774758 0.070887096 0.016671728
000380 b8 56 bc bb bb 2c 5d 3d 1b d8 b4 3c 16 91 7c bc
       -0.0057476424 0.053997736 0.022075703 -0.015415451
000390 d4 45 20 bd 7c 1d c3 bc 5f aa 8d 3d 25 36 09 bd
       -0.039129093 -0.02381777 0.06917261 -0.033498902
0003a0 3b 05 c0 3c 74 22 6b 3b f0 58 44 bd f7 e5 2f bc
       0.023439994 0.003587869 -0.04793638 -0.01073598
0003b0 1a b9 93 bd 4b f0 94 bd 19 16 de 38 ae ca 59 bb
       -0.0721304 -0.07272395 0.00010589901 -0.0033232379
0003c0 90 33 f6 3c 4b 53 7f bd 6c aa b3 3d a2 5b 46 bd
       0.030053884 -0.062335294 0.0877274 -0.04842723
0003d0 b6 1e 8c bd 3c 0a 67 bc 28 79 a4 3d 5b e1 5c bd
       -0.06841795 -0.014101561 0.08030921 -0.053925853
0003e0 ca 3e c6 bc 86 87 8f bd e1 aa 95 bb 37 98 d8 bc
       -0.024199862 -0.07008271 -0.0045674895 -0.02643977
0003f0 05 24 24 bb 4e 96 46 be 51 86 0e be 85 74 c0 3c
       -0.0025045883 -0.19393274 -0.13918425 0.02349306

cnn_apt_3.bias f4 [25]
000000 66 cb 06 bf 2b f9 92 bd 5d 4e 2d be d1 d4 5f bf
       -0.5265411 -0.07176431 -0.16924424 -0.8743411
000010 99 9a 1d bd ba 84 d6 bd 54 79 d4 bd 34 ea cf bd
       -0.038477514 -0.10474534 -0.10374704 -0.101520926
000020 85 10 38 be 08 d3 99 bd 93 e1 0e be af 03 81 bd
       -0.17975052 -0.07510954 -0.13953237 -0.06299531
000030 13 0d da be f9 28 15 be 41 ac 6a bf 26 84 a0 bd
       -0.425881 -0.14566411 -0.9166909 -0.07837705
000040 25 c1 14 be ae 77 63 be 93 a0 31 bf 7b 44 e6 bd
       -0.14526804 -0.22213623 -0.6938564 -0.1124353
000050 98 92 b4 bf 4d 8b 65 be 8a 9c 8d bc 75 72 81 3d
       -1.4107237 -0.2241642 -0.017286558 0.06320659
000060 fd c4 2b 3e
       0.16774364

cnn_apt_4.weight f4 [5, 25, 1]
000000 16 3e 37 be a6 05 0d 3e 37 94 57 3b 8f a1 2d bf
       -0.17894778 0.13771686 0.003289474 -0.67824644
000010 7e 04 01 bd e6 07 dc 3d 9f 22 e6 bd 5d be 23 3e
       -0.031498425 0.10743694 -0.11237072 0.15990587
000020 a4 2f 21 be a8 7c b5 bd 22 1d fb 3d 04 e4 24 bc
       -0.1574083 -0.08861667 0.12261416 -0.010064129
000030 a9 2e 21 be 60 cb 82 bd 62 31 26 be c5 c9 c4 3c
       -0.15740456 -0.06386447 -0.16229776 0.024021992
000040 61 9a 86 3c d8 f5 1e be ce af db be a7 a4 21 3e
       0.016431035 -0.1552347 -0.42907566 0.15785466
000050 7a 6f 06 bf 8c 06 20 3b 21 6f a8 bc 1a 80 2a be
       -0.5251385 0.0024417965 -0.020560803 -0.1665043
000060 1c 9c d3 3c 57 9f 1c be 6e 61 ab bd 22 1b 1c 3e
       0.025831275 -0.15295158 -0.083681926 0.15244725
000070 39 35 46 be 96 7d e1 3d 02 6f 0a 3e 3a d5 1c be
       -0.1935624 0.11010282 0.13518909 -0.15315714
000080 ea 9f 94 3d 02 5e 87 3d a1 45 26 be 02 51 d2 3d
       0.07257064 0.066097274 -0.16237499 0.10269357
000090 0f 7f 24 3e 64 3e b0 be a2 b2 41 3e 6e 38 80 bc
       0.16064094 -0.344226 0.189158 -0.015651908
0000a0 83 22 fe 3d 5e d4 39 be 7e d1 fb bc 46 eb a1 bd
       0.12408926 -0.18147418 -0.030739542 -0.07906203
0000b0 9d 40 82 3c 2c c7 30 bc 17 48 2c be 0b 24 1e bd
       0.01589995 -0.010789674 -0.16824375 -0.038608592
0000c0 ea 0f 91 bd c1 6e b8 bd b0 03 28 bd 49 54 b7 bc
       -0.070831135 -0.090055 -0.04101914 -0.022379057
0000d0 ca b3 72 3d a1 aa c7 be eb c8 25 be 00 eb 81 bd
       0.05925349 -0.38997367 -0.16189925 -0.06343651
0000e0 ad c0 ba bd cd 8c 2b be 32 65 58 be 78 17 71 bc
       -0.09118781 -0.1675293 -0.21132353 -0.014715068
0000f0 16 bc a8 3d d5 95 97 bc 14 23 d4 bd b6 ae 46 3d
       0.082389995 -0.018504063 -0.10358253 0.04850646
000100 1a 2d 0d bd 92 1b 0b 3e b4 98 95 3d 9b 3f e8 bd
       -0.03446684 0.13584736 0.073045164 -0.11340257
000110 8c b3 cc be 89 17 28 bc 9d 2c ce be 34 9b 10 be
       -0.39980733 -0.0102595175 -0.40268412 -0.14121705
000120 ec 9d b4 3d 11 a9 8d 3d 61 b0 53 3d 5e 9a 06 3e
       0.08819184 0.069170125 0.05168188 0.13144824
000130 78 ea 25 be 00 f4 05 3b 0e a2 62 bd 13 a7 57 bc
       -0.16202724 0.0020439625 -0.05533033 -0.013162392
000140 b2 6b 0d 3b 7d ed e0 3d 3a 8d af bd 9f 81 24 3e
       0.0021579084 0.10982797 -0.08571859 0.16065072
000150 b6 43 28 be 01 8b 05 3e c6 07 96 3d 2f 53 06 bd
       -0.1643208 0.13041307 0.073257014 -0.032794174
000160 96 aa 86 3d d1 4a 26 3c 72 0e d5 bd fe 0a 2c be
       0.065755054 0.010149674 -0.10403146 -0.16801068
000170 4d 8a b1 3c a2 da 98 be e3 27 bd bd df 38 e5 bd
       0.021672392 -0.29854304 -0.092361234 -0.11192488
000180 95 c9 4d be 3e 9b 26 be ff 09 55 bd d3 53 17 3d
       -0.20096429 -0.16270158 -0.052011486 0.036945175
000190 b9 e8 79 be b7 a2 e7 bb ac cd a2 be db 40 91 be
       -0.24405183 -0.0070689577 -0.3179754 -0.28369793
0001a0 de 26 19 3d 50 0c b1 3c d7 a5 48 3d 0a de 01 bc
       0.037390582 0.021612316 0.048986282 -0.007926473
0001b0 9d 8a 39 3d 0d 21 9d 3c 0b a2 1b 3e d4 42 11 bb
       0.045298208 0.019180799 0.15198533 -0.0022165077
0001c0 57 c0 54 be 91 19 74 3c 11 7a 6e 3a 72 7a 03 3d
       -0.20776497 0.014898674 0.0009097169 0.032099195
0001d0 ad 02 35 bc 4a 0e 39 be 1d b0 d5 be 1d 19 5c bc
       -0.011048001 -0.18071857 -0.41735926 -0.013433722
0001e0 90 fa a8 be b9 a9 d2 be c5 8a 65 bd be 59 4c be
       -0.33003664 -0.41145113 -0.056040544 -0.19956109
0001f0 b3 cc 1c bf
       -0.61249846

cnn_apt_4.bias f4 [5]
000000 d0 8a 57 be 89 ff 4e be 1f cc 55 be 0e a1 62 be
       -0.21049047 -0.20214666 -0.20878647 -0.2213175
000010 10 6f 2e 3f
       0.6813822

cnn_pep_1.weight f4 [50, 20, 3]
000000 9a 61 09 3c 6a 79 90 bd 4c 92 df bd fc 6d 6d 3d
       0.008385086 -0.07054408 -0.10916576 0.057966217
000010 89 7f eb 3d 20 b8 ad bb 3b 48 66 3c 79 7c b9 3d
       0.11498935 -0.0053014904 0.014055307 0.090569444
000020 be cf 06 3e 6e 1d b0 3d 0b 24 b1 bd 82 fc 67 b9
       0.13165185 0.08599363 -0.08649453 -0.00022123943
000030 81 cc 04 3d 0a 25 ea bd c6 5e 71 bd 5c ce 2a 3d
       0.032421593 -0.11432846 -0.058928274 0.041700706
000040 0e a1 00 be ab 05 19 be 51 e6 13 be c3 f6 b9 3b
       -0.12561437 -0.14943568 -0.14443327 0.0056751682
000050 14 e1 78 3d b5 87 e1 3d 71 a6 be 3c aa 40 8c 3c
       0.060761526 0.11012212 0.023272725 0.017120678
000060 7a 02 0b be b3 4b 01 3c 76 26 73 bd af e2 9b bd
       -0.13575163 0.007891583 -0.05936285 -0.07611596
000070 c2 15 0a 3e 1e ed 05 be a2 d5 9f 3d ba ca dd 3c
       0.13484862 -0.13078734 0.07804419 0.027074207
000080 97 d6 b4 bd 91 0b aa bd 0f c6 dc bd e5 3d af 3c
       -0.08829992 -0.08302987 -0.10779964 0.021391818
000090 6b 35 fe 3a d3 12 9d 3d 5c 89 32 3e 35 49 a7 bd
       0.0019394582 0.07669606 0.17435211 -0.0816826
0000a0 0f 3a 8a bd 77 d0 c9 ba 03 37 35 3d fc 2e d5 bd
       -0.06749355 -0.001539721 0.044241916 -0.10409352
0000b0 13 38 12 3e f3 c6 bc 3d f9 0c e3 3b fc 5d 82 bd
       0.14279203 0.09217634 0.0069290367 -0.06365582
0000c0 7b a6 be 3c c6 7a df 3d 15 fa 09 be d3 57 4e bd
       0.023272743 0.10912089 -0.13474305 -0.050376724
0000d0 b8 39 f0 3d 71 ee c2 3d 12 b3 2e 3d c3 cc ad bd
       0.11729759 0.09518135 0.042651244 -0.08486321
0000e0 01 d4 8b 3d 3e 41 a5 bd ac 1f 01 be be ff dd 3d
       0.06827546 -0.080690846 -0.12609738 0.108397946
0000f0 25 2d 4f bf 04 18 9c 3e 3c 03 1f bf b6 cf 5b bf
       -0.8092826 0.30487072 -0.6211431 -0.85863817
000100 1f a0 9e 3e 31 20 8c bf 6f f7 0b bf d2 7e 9e 3f
       0.30981538 -1.0947324 -0.5467443 1.2382452
000110 1f c4 33 3f 0e c3 f6 3e 65 d1 a0 bf 6b c8 b2 3c
       0.7022113 0.4819569 -1.2563902 0.021824082
000120 08 48 ee be 7a 80 15 c0 ab 9d 72 bd 28 78 42 bf
       -0.4653933 -2.3359666 -0.059232395 -0.75964594
000130 52 d2 f5 bf 46 c8 8c 3d 1c ad dd be b2 f8 00 bf
       -1.920481 0.068741366 -0.43296134 -0.5037948
000140 aa 17 1f be c4 59 6b bd 85 b6 1c 3f 68 42 5f bf
       -0.15536371 -0.057458654 0.61216 -0.872107
000150 34 fd f1 be c0 2a 90 bf 75 45 85 bf b3 8f 63 bf
       -0.4726349 -1.1263046 -1.0411822 -0.8889114
000160 71 5f 5b bf c7 23 5d 3e d2 95 1c bf 82 bb 80 3f
       -0.8569251 0.21595679 -0.6116611 1.0057223
000170 82 4a 1c be e4 49 c5 3e 21 a1 2e 3f d4 0f 98 bf
       -0.15262797 0.38532937 0.68214613 -1.187983
000180 aa 08 80 3e 12 84 9f 3e 2d f4 0b 3d 3a 06 90 be
       0.2500661 0.3115545 0.03416841 -0.2812975
000190 ce 52 9b bf 9d ac 8f bf a2 f6 cf be c1 8d d6 bd
       -1.2134645 -1.1224552 -0.40617853 -0.10476256
0001a0 9b 82 95 be 91 2c 34 be 03 69 23 bf 3e 53 a0 be
       -0.29201207 -0.17595126 -0.6383211 -0.3131351
0001b0 6d 4e e5 3f 1b 6b d3 3e d4 20 8f 3f 6b 59 ae 3e
       1.7914559 0.41292652 1.1181893 0.34052595
0001c0 ac aa ce 3e 5b 31 be 3e d0 e8 a8 be 4d 77 7b bc
       0.40364587 0.3714703 -0.32990122 -0.015348268
0001d0 86 53 88 3e 7c d6 1b bf f8 fb 2d 3f 9f 9f cc be
       0.26626223 -0.6087415 0.679626 -0.3996553
0001e0 94 91 25 3f c7 e5 e8 bd 27 9c 99 3f 1a 96 a9 be
       0.6467526 -0.113719516 1.2000779 -0.3312233
0001f0 56 e0 67 bf db 87 b4 bf 14 3a 85 be c6 1f 60 bf
       -0.90576684 -1.410396 -0.26020873 -0.8754848
000200 68 6e 3f bf 46 3e b8 3f 4d 4a 70 bf 26 34 83 3c
       -0.7477784 1.4394004 -0.93863374 0.016016077
000210 3f e6 87 be 65 3a 15 40 d1 a1 30 be 21 5c 84 bf
       -0.2654285 2.3316891 -0.17249228 -1.0340616
000220 57 b8 22 bf 94 9c 5f bf ef fd 7f bf 65 a8 53 bf
       -0.6356253 -0.87348294 -0.99996847 -0.82678825
000230 c2 a3 0d bf ad 32 97 be 2a 49 76 3f 28 be 9c 3f
       -0.55328 -0.2953085 0.9620539 1.2245531
000240 9c dc 82 bf 6e b9 f6 be 28 79 88 bf af 82 88 bf
       -1.0223575 -0.48188347 -1.0661974 -1.0664881
000250 25 fe 02 bf 6c b0 46 bf 67 af 0c 3f 9b 9d 3d be
       -0.51169044 -0.7761295 0.5495514 -0.18517153
000260 c2 d3 52 3f 68 4d b5 be 91 88 a0 bd 8b 42 fe be
       0.82354367 -0.3541062 -0.07838548 -0.49660143
000270 ae 6d 1f 3f bc b5 1a 3e 44 ee 43 be 8b 47 86 bf
       0.6227673 0.15108389 -0.1913386 -1.0490583
000280 0d e6 e7 be 8c 0e a5 3c 89 17 3e be 66 7c 19 bf
       -0.45292702 0.020148538 -0.18563665 -0.5995544
000290 e8 60 44 bf bb 50 f9 3e 49 d8 77 bf 8f 4b 11 bf
       -0.7671037 0.48694405 -0.968144 -0.5675592
0002a0 63 77 57 bf cf 2c b5 3e 91 12 9c bd 11 05 89 bf
       -0.84166545 0.3538575 -0.07620729 -1.0704671
0002b0 cc 8d 38 3d 25 58 42 3e fd 6d ca 3f f2 a8 e1 3e
       0.045057103 0.18978937 1.5814816 0.44074208
0002c0 00 c5 d0 3f 71 71 e2 be b0 c1 0a bf 3b f3 70 bf
       1.631012 -0.44227174 -0.54201794 -0.9412114
0002d0 6d b1 24 bf d2 f1 6c c0 17 af c1 bf ec e4 ce bf
       -0.6433323 -3.7022595 -1.5131558 -1.6163611
0002e0 a3 fd 67 40 bd 08 4b be e0 f6 cc be e7 27 c1 bf
       3.6248558 -0.19827552 -0.400321 -1.5090302
0002f0 62 b4 16 40 32 12 fd bf 6e 00 1d c0 dd bc 94 bf
       2.3547597 -1.9771178 -2.4531512 -1.1620136
000300 4b b2 14 c0 90 4b 85 c0 b1 66 58 c0 f4 02 f3 3e
       -2.3233821 -4.165474 -3.3812678 0.4746319
000310 a4 d8 ad 40 69 8e cf 3f c8 62 88 3f 7e 59 49 40
       5.4326954 1.6215335 1.0655146 3.1460872
000320 10 db 9b 3e 62 05 73 bf 2a c4 7a bf 2f f4 2a c0
       0.3044057 -0.9493009 -0.9795557 -2.6711538
000330 c4 88 3a 3f c2 01 31 40 d0 d6 d5 3f 51 40 ee 3f
       0.7286494 2.7657323 1.670618 1.8613378
000340 20 b7 aa 3f 21 94 54 3f eb 7d e0 bf cf 99 31 bf
       1.3337135 0.83038527 -1.7538427 -0.6937532
000350 25 f4 14 c0 cd a1 c2 bf 9d 9a 2d c0 34 93 cc bc
       -2.3274014 -1.5205628 -2.7125618 -0.024972536
000360 e5 2e 57 bf 4e b9 3c c0 9d 30 2d c0 35 42 31 3f
       -0.8405593 -2.94881 -2.7060921 0.6924165
000370 35 86 25 40 0f f8 43 3f 6b 39 65 bf b5 49 be 3f
       2.5863163 0.7655038 -0.8954074 1.4866244
000380 38 43 55 40 d8 4c 2b 3f d5 f9 53 c0 94 7b 89 be
       3.3322277 0.6691413 -3.3121235 -0.26852095
000390 09 d4 99 40 b3 63 e0 bf 6f f3 bf bf f9 66 f0 3f
       4.807133 -1.7530426 -1.4996165 1.8781425
0003a0 1d 9b 3e 40 fb 1a d9 be 7c 60 a4 bf 63 e3 7c c0
       2.9782174 -0.42403397 -1.2841945 -3.9513786
0003b0 f9 56 42 c0 cf df a8 bf 2e bb d7 3f a3 46 8f 40
       -3.0365584 -1.3193301 1.6853998 4.4773726
0003c0 c2 58 e0 3d e5 e4 a0 be 38 25 4f be 81 42 9d be
       0.10954429 -0.31424633 -0.20229042 -0.307148
0003d0 fc 25 9c 3f 27 1d 3a be a7 0a 3b bf 90 e6 8e 3f
       1.2199092 -0.18175183 -0.7306313 1.1164112
0003e0 7a ad 1a bd 14 7a fd 3d dd e3 27 bf 82 59 8d bf
       -0.037763096 0.123768 -0.65582067 -1.1042941
0003f0 a0 74 42 bf 11 9d 3b c0 ee 94 fb bf 7c c6 2c bf
       -0.75959206 -2.9314616 -1.9654825 -0.67490363

cnn_pep_1.bias f4 [50]
000000 f3 39 df be 82 60 8a c0 1d 17 5f c0 42 d3 53 c0
       -0.435989 -4.3242807 -3.4857857 -3.3097692
000010 5d 2c 8b c0 f9 89 67 c0 41 9b c5 bf ac e5 82 c0
       -4.3491654 -3.6177962 -1.5438005 -4.090536
000020 73 80 47 c0 4c 91 89 c0 04 87 a4 bf 1a 9a 92 c0
       -3.117215 -4.2989864 -1.2853703 -4.581311
000030 ee 6b 6a c0 a3 55 4f c0 f3 99 2a c0 9a 17 98 be
       -3.6628375 -3.2396019 -2.6656463 -0.29705507
000040 5b f3 4b c0 51 8e 3b c0 04 f5 35 c0 29 8f d6 bf
       -3.1867282 -2.9305613 -2.8430796 -1.6762439
000050 d6 41 3c c0 17 3f a9 be d8 79 55 c0 e8 7f 81 c0
       -2.9415183 -0.33055946 -3.3355618 -4.0468636
000060 0a ed 6d bf ed b4 80 c0 40 66 20 c0 76 f8 b8 bf
       -0.9293982 -4.0220857 -2.5062408 -1.4450824
000070 90 ce 84 c0 a6 af d0 be bd 71 dd be 58 2a 34 c0
       -4.150215 -0.4075901 -0.43250838 -2.8150845
000080 2d 89 6c c0 82 c2 32 be d9 c9 64 c0 a8 78 bd be
       -3.6958725 -0.17457011 -3.5748198 -0.37006116
000090 28 f9 7c c0 0a 2c 7d be 27 98 94 be c5 23 47 c0
       -3.9527073 -0.24723831 -0.29022333 -3.1115582
0000a0 78 35 27 c0 79 ce 5f c0 ac 43 95 be 46 2d 80 c0
       -2.6126385 -3.496977 -0.29153192 -4.0055265
0000b0 bb 99 22 c0 89 a2 14 bf 41 15 97 be 91 f2 20 c0
       -2.540633 -0.5806051 -0.29508403 -2.514805
0000c0 5a 0c 99 be bd 90 0c c0
       -0.29892236 -2.1963341

cnn_pep_2.weight f4 [25, 50, 1]
000000 a9 f3 05 bd 76 5d b9 bc 4d 1d 5f 3c c8 0f f4 3b
       -0.032703076 -0.022627573 0.013617826 0.0074481703
000010 97 9d 03 bd d8 71 16 3c 0b 5f 5a bd 1b 92 2a 3d
       -0.03213271 0.009182416 -0.053313296 0.041643243
000020 aa d6 28 3d 35 3e 96 3d 7a f5 2c bd 06 84 c1 ba
       0.041220345 0.07336084 -0.042226292 -0.0014764077
000030 86 01 11 bd b7 83 25 3d cf b4 46 bd 4c 15 0e be
       -0.035401843 0.040408816 -0.048512276 -0.13875312
000040 f2 0e b7 bb 5e 53 b7 bc 07 d0 ba bd 39 04 b6 bc
       -0.0055864984 -0.02237862 -0.09121709 -0.02221881
000050 52 c8 f0 bc c6 9a db 3d 82 b4 84 bc 6a f1 ba 3c
       -0.029392395 0.1072288 -0.016199354 0.022820193
000060 d0 3b 17 bd a2 96 1a 3d df e0 a0 bd db f0 5b 3b
       -0.036922276 0.03774131 -0.07855391 0.003356031
000070 14 ec 22 be aa e1 8f bd 12 98 c8 3d 01 43 78 bd
       -0.15910369 -0.07025464 0.0979463 -0.060610775
000080 c3 db e0 bd cb 9d c0 bd b7 4b 98 bd e5 96 03 3e
       -0.10979416 -0.094050966 -0.074363165 0.1285053
000090 3a bf bf bd ec 29 e6 3d 05 a6 b2 3d dc 62 0f 3c
       -0.093626454 0.11238465 0.08723072 0.008751597
0000a0 93 d4 0b be 8d e8 00 be 7a 54 92 bc 21 1e 1b 3c
       -0.1365531 -0.12588711 -0.017862547 0.0094676325
0000b0 51 c0 d4 3c 3f 19 ad bd 4a d9 86 bd f6 03 9d 3c
       0.02597061 -0.08452081 -0.06584413 0.019166928
0000c0 10 6c 9e 3d 8a b3 7a bd 0e a5 9e bd 76 8c 0e bd
       0.07735455 -0.061206378 -0.077463254 -0.034801923
0000d0 f0 dd 51 be cc ba 40 bf 53 da 84 bd a0 21 0f be
       -0.20494819 -0.7528503 -0.064869545 -0.1397767
0000e0 58 87 e6 3d 66 af 63 be eb fd c7 bd 93 94 32 bd
       0.112562835 -0.22234878 -0.09765228 -0.043598723
0000f0 80 57 17 bb d0 d8 67 3e ea 46 c8 be ca 9c 07 bf
       -0.0023092926 0.22641301 -0.39116603 -0.52973616
000100 0a a5 b5 be d6 b3 a1 bd ca c8 00 be 7b 80 db 3e
       -0.35477477 -0.07895629 -0.12576595 0.4287146
000110 aa 73 80 be c9 9a e6 3d 3e 74 3e be ea 82 ad 3d
       -0.25088245 0.11259992 -0.1859903 0.084722355
000120 2a 38 15 be 5b 45 49 be 64 46 48 bf ed 84 d2 be
       -0.14572206 -0.19655363 -0.7823241 -0.4111704
000130 9d 01 68 3f f3 3d 44 be 7a 09 80 bf 97 13 6a bd
       0.9062746 -0.19164257 -1.0002892 -0.05714759
000140 e3 c1 ca 3d 6a dd 11 bf a2 65 39 be b4 b4 78 be
       0.09900262 -0.56978476 -0.18105176 -0.24287683
000150 d4 4c 99 be 75 bc a8 bc b7 de 36 be 8f e2 e8 3d
       -0.29941428 -0.020597676 -0.17858396 0.113713376
000160 9c da 05 3d e9 45 ab bc b1 8a 58 be 54 46 b0 be
       0.032679185 -0.02090736 -0.21146657 -0.34428656
000170 73 53 ca bd 06 1a af be 7a 73 37 be 83 b7 d0 bd
       -0.09879198 -0.34199542 -0.17915145 -0.10191252
000180 2f 2a b7 3a f0 3c 68 bd 73 d9 7f bd 9e 64 c7 3e
       0.0013974364 -0.05669874 -0.062463235 0.38943952
000190 92 08 2e bd da 65 b3 bf cd f3 32 bf bd 00 ba be
       -0.042488642 -1.4015458 -0.6990326 -0.36328688
0001a0 39 5b 88 bf 95 38 00 bf f3 dc 0c be 7e 51 b0 be
       -1.0652839 -0.5008634 -0.1375616 -0.34437174
0001b0 79 16 d9 be da c9 71 be bc 30 bf 3d d7 28 0f bf
       -0.42399958 -0.23612157 0.09335467 -0.5592169
0001c0 cc 4a e4 be d7 e8 dc be ea c4 cd be d6 cb 9b bd
       -0.44588315 -0.43146393 -0.40189296 -0.07607238
0001d0 83 fb 3a bf 72 6a e6 be 04 5b 10 be 77 b0 a6 3e
       -0.73040026 -0.45003086 -0.1409722 0.32556507
0001e0 ee 95 4e bf 1c 75 79 3d 20 87 3e bf 58 95 5e bf
       -0.80697525 0.0609027 -0.74424934 -0.8694663
0001f0 d5 26 c0 be 1e 28 78 bf 02 a9 48 3e 9f a9 c2 be
       -0.37529626 -0.96936214 0.19595721 -0.38020036
000200 be 53 81 bf 67 3d b3 bb 0a 2e 8f 3d e5 c9 c6 3d
       -1.0103681 -0.005469966 0.06991203 0.09706477
000210 ae 49 16 bf 41 ea f4 bd 8e 83 11 bf aa 66 66 3d
       -0.58706176 -0.11958743 -0.5684136 0.05625025
000220 3d 66 84 bf df 03 1c bd c3 7c 56 bd 6a 4a 80 be
       -1.0343701 -0.03808963 -0.052365076 -0.25056773
000230 ce 8e 30 be 24 d6 25 3e e7 72 e8 bd 4a 0d 37 bf
       -0.17241976 0.1619497 -0.11350041 -0.7150465
000240 7e 7b 2c bf ac b6 3e 3e 9c 2a 8d bd 4f 1e 05 bf
       -0.67375934 0.18624371 -0.06892893 -0.5199937
000250 ca 06 b0 bd 6a cb 2e 3d 7d 24 8a 3d a3 37 54 be
       -0.08595045 0.04267446 0.06745241 -0.20724349
000260 93 2e 05 3d ef e2 45 bc 54 29 22 bf a8 37 ea be
       0.03251512 -0.012078031 -0.6334431 -0.45745587
000270 0d c4 bb bc 49 ee 97 be a5 50 3d bd 8a 5c fc bd
       -0.022920633 -0.29673985 -0.046219487 -0.12322338
000280 07 fd 8c be 14 9b ac 3c 40 f3 8d be 24 1d 84 bd
       -0.27536795 0.02107004 -0.27724648 -0.06450871
000290 f3 1b 51 bd 5a 48 07 3e 35 98 87 3d ac 58 71 3e
       -0.051052045 0.13211194 0.06620828 0.23568982
0002a0 42 fe 7b be 6a 06 ac 3e 89 29 68 bf 86 6a dd 3d
       -0.2460871 0.33598644 -0.9068838 0.10811333
0002b0 fb 31 2f be f4 fd 09 be 50 7b 37 bd aa d9 13 be
       -0.1710891 -0.13475782 -0.044795334 -0.14438501
0002c0 4a c6 17 3e de 45 46 3d a3 2d 14 bf 2b fd 9d 3d
       0.14821735 0.048406474 -0.57882136 0.077143036
0002d0 eb d1 ca bd d0 c8 1f be 33 ed 83 be 7c b6 21 be
       -0.0990332 -0.15603948 -0.25766906 -0.15792269
0002e0 75 2c 22 be 5f b1 05 be 91 1f 95 be 2f e7 c5 bb
       -0.15837272 -0.13055943 -0.29125646 -0.006039522
0002f0 5a 22 d3 3d 41 fb df be 05 77 67 be 64 48 ba be
       0.103092864 -0.4374638 -0.22603996 -0.36383355
000300 45 00 ee bd 9e 61 eb be e5 5a 37 be 9f e1 ea bd
       -0.11621145 -0.45972914 -0.17905767 -0.11468815
000310 40 e0 69 bc 91 1f 8c bc 7a e5 08 3e 67 37 28 be
       -0.014274657 -0.017104896 0.13368788 -0.16427384
000320 7c 08 d4 3c 4e 26 96 bf 1e 85 03 bc 29 29 91 bf
       0.025882952 -1.173044 -0.008027343 -1.1340686
000330 e3 c5 76 bf 30 6c 73 bd e3 eb 53 bf 65 b1 1a 3e
       -0.963957 -0.059429348 -0.8278181 0.15106733
000340 aa 51 d6 3e f9 85 30 3e a6 49 9b bf e5 00 1a 3e
       0.4185918 0.17238607 -1.2131851 0.15039404
000350 7f 87 5a 3e 34 99 2c 3f 3e c4 94 bf 67 2a 0f bd
       0.2134075 0.6742127 -1.1622388 -0.034952547
000360 61 e0 b1 3d bc 36 e7 be f7 0a a1 3d 45 52 20 bf
       0.08685375 -0.45158947 0.078634195 -0.62625533
000370 f4 63 54 3e e2 1b 1c be fc 69 fb 3d 52 b7 a5 3e
       0.20741254 -0.15245011 0.12276074 0.32366425
000380 53 0b 86 bf 69 04 e9 be 28 44 90 bf 6b d7 90 bd
       -1.0472206 -0.45511177 -1.12708 -0.07072338
000390 a2 dc b2 3d a7 35 78 bd e2 17 25 3e 04 93 84 bf
       0.087334886 -0.06059804 0.16122392 -1.0357366
0003a0 58 98 1b bf fa 3a 5b bf 32 af 6a be 96 0e 9f bc
       -0.60779333 -0.85636866 -0.22918394 -0.019416135
0003b0 cd 99 14 bf 20 6c 3c 3d 25 9b aa 3d 87 7d d9 bf
       -0.5804718 0.046001554 0.08330373 -1.6991433
0003c0 ef df 43 bf 63 1c 51 bf e0 54 74 3c 2c 54 ac 3e
       -0.7651357 -0.8168394 0.014912814 0.33657968
0003d0 2e 41 44 3e 8f 6d ca bd b2 4e 08 be 4f f6 f6 bd
       0.19165489 -0.09884178 -0.1331127 -0.120586984
0003e0 4d ca d4 3c 3a 1b 82 bf 2d f3 e5 bd 20 03 a9 bf
       0.02597537 -1.0164559 -0.11228023 -1.3204079
0003f0 2b 31 d5 3d cf b7 1f c0 a4 b8 40 bf a2 91 eb 3e
       0.10409769 -2.4955938 -0.7528174 0.46009547

cnn_pep_2.bias f4 [25]
000000 97 22 b1 be bc 3a 42 c0 2b 6c 73 bf 98 e0 aa bf
       -0.34596702 -3.0348349 -0.95086926 -1.334979
000010 24 9d b1 bf 5e ec 84 bf 38 50 d6 be 8b 82 b0 bf
       -1.387608 -1.0384634 -0.41858077 -1.3789839
000020 c2 eb 3b bf 11 6e 31 bf be 17 5c bf 20 8d 46 bf
       -0.7340661 -0.69308573 -0.8597373 -0.7755909
000030 3a 64 fa be ca b0 38 bf 29 61 38 bf 7a b6 a8 c0
       -0.48904592 -0.7214476 -0.72023255 -5.272275
000040 28 08 21 c0 50 43 93 bf eb 9f ad be 6c 43 cb be
       -2.5161228 -1.1504917 -0.3391107 -0.39699876
000050 fa 89 65 bf 30 87 8e bf 0b 81 7e 3f c0 00 e6 bf
       -0.8966366 -1.1135006 0.99415654 -1.7968979
000060 fd 5c 29 bf
       -0.66157514
