src/models/model_checkpoints/LinearNet/TrueLinearNet_lambda=5_gamma=0.001.pth (torch_old, 124280 bytes, 21 tensors)

lin_apt_1.weight f4 [100, 160]
00000000: 4fea 923d cf18 863d 2d92 a83d 4c3a 10bc
00000010: 5185 8abd 7b5e 39bd f3cb 71bc c3a6 663b
00000020: b51e acbc 8e6c 30bd 6f7b 95ba 0030 253d
00000030: 8460 713d 849e 05bd 1442 16bd 2fbf 13bc
00000040: 2a3e 0f3d 406b 173d 837d b0bc 1bfa a83c
00000050: de4b 4bbc 7ee2 35bc e1e6 6dbd 1c6e 5d3d
00000060: 5ba0 6dbd de3e 913c 819d eabc 654f 90bd
00000070: f940 f8bb 7a56 d03c 08f3 80bd efec 1a3b
00000080: 5f2a e2bc a55a 1ebc 324f 01bd e267 6bbc
00000090: 6192 7c3d dd38 8fbd 01bd f8bc 4c01 883d
000000a0: ddcc 96bb 45e2 95bc 34e9 053d 7b8a 0cbd
000000b0: 90b2 043d 2fb3 43bd 0cb0 89bc 3659 633d
000000c0: b84f 933a e5a8 6cbd 7a16 6c3d 6d43 6dbd
000000d0: 542f 6cbb a685 c63a 602a fcbc 3ea6 fd3c
000000e0: 077f 17bc 94eb 353d 46b6 433d 65f1 87bd
000000f0: 16f1 6f3d b673 4c3b 41fa 8d3d e436 363d
00000100: 3ebc cebc c657 5cbc 7ef7 b5bc 0ee0 29bd
00000110: 765e 613d a449 9c3d ba80 343d 792c 8c3d
00000120: b25d d63c 7f5f 853c a9d9 aebc 008a 813d
00000130: 7225 70bd cd84 6f3d bc7f 7bbb 4739 05bd
00000140: 062a 92b8 625b 2e3d f007 6bbd 64dd 85bd
00000150: 758f a3bc c82c 98bd b313 8b3c e81c 6dbd
00000160: b6e5 8dbd b89b 07bd 359d 21bd e863 92ba
00000170: dd4f 5b3d 4283 9dbc 938c bc3c 64b0 fb3c
00000180: 944c c83c ca68 823b b4fb 673c 98d0 373d
00000190: c622 9fbd 1707 efbc 5059 9d3d 51e1 a6bc
000001a0: b20a 3b3d 200e 7cbd 49e4 c73c 5bed 61bb
000001b0: 9d3c 9dbd cecd 9a3c a3a5 1aba 3678 a4bd
000001c0: 0268 c4bc 9fd5 853d 67a8 a63c fbc0 4fbd
000001d0: abc5 2dbd 6bd3 10bd ee3e 03bd fcbd 1f3c
000001e0: 28f4 03bd a069 583d 2b7a 4f3d ea98 503d
000001f0: 496a 9d3b 6786 8b3d 7ac8 74bd 199a 3dbd
00000200: b034 2ebd 4d83 143d 7b10 88bd 13be 38bd
00000210: 0f69 f93c b1b8 963d 49be 633d 379f 063d
00000220: eb69 5fbd 5b7c aa3c eea0 8ebc 49de 04bb
00000230: fe52 d6bb 020a 963d 79b3 653d ccc6 773b
00000240: d9f7 95bd 75f6 6f3d 2709 7c3d 7d81 b53c
00000250: d0ac 9fbd 445e 47bd fb27 483d 8b14 a9bd
00000260: dd3a 103d 68fa 4c3c c1d3 9c3d 3d2d aa3c
00000270: 417f 203d 7c61 e13c 60d7 ecbc a41c 44bd
00000280: 8c90 55bd 4ba0 dabc b1c5 b1bc f886 aabb
00000290: 387c ff3c b282 5f3d 9288 79bc 223d 22bc
000002a0: 85f4 54bd 2ee5 39bd 7173 aebb c78d 46bd
000002b0: 5f36 7abd a378 5dbb e5a4 02bd 441a f9bc
000002c0: c612 f03c c21d ea3c 5d31 a9bd f7d6 493c
000002d0: 199f 433d 89bf a03d a244 b7bd 71b8 1cbc
000002e0: bbc4 0bbd 4e98 1ebd 154f 9abd b741 a43d
000002f0: 7b07 893c 18f6 82bd 57b4 adbd a172 43bd
00000300: 9345 84bd 4020 0e3b 8952 b9bc ab4d 9d3d
00000310: 17b6 a53d 5327 4b3d 19df 3d3d 0f6f 23bc
00000320: 1a1b 5dbd c9c4 27bc 366b 21bd d2ab c13c
00000330: 4287 8b3c ba81 34bd 3871 ccbd a101 05bc
00000340: 95d9 e93c 46cf 053d 5bc9 c8bd cd83 2cbd
00000350: 6b7b 593b 16fc 04bd b542 86bd e9ac 28bd
00000360: fbea 273d e8db 32bc 5d60 123d 03fc c7bc
00000370: c67a 76bd 0895 34bb b922 16bc c8d9 923d
00000380: dd36 5ebb a2f7 7b3d 43ac 98bd 4f10 0ebd
00000390: 3e2e a6bc 861f 17bd 4d37 9939 3838 ad3d
000003a0: 825b a83d 4069 2fbd d640 41bd a939 a73c
000003b0: 70b7 1b3d 6cc7 e5bc 0de9 6ebd c092 3d3d
000003c0: 7dc7 f3bc d580 833d 48fb dcbd f71f 24bd
000003d0: 5003 983c 0776 3bbd 2c17 a0bd af39 833d
000003e0: 07b6 4a3c 3c5b 69bb 7ea3 dcbd 57df a8ba
000003f0: 2b01 05bc 3522 623d 830d bebb ed6d b43c
0.07173597 0.065477006 0.08231006 -0.008802962 -0.06763709 -0.04525612 -0.014758098 0.0035194613
-0.021010736 -0.043072276 -0.0011404584 0.04032898 0.058929935 -0.032621875 -0.03668411 -0.00901775
0.034971394 0.036967516 -0.021544224 0.020627072 -0.012408225 -0.011101363 -0.05808151 0.054060087
-0.058014255 0.017730173 -0.028639557 -0.07046393 -0.0075761047 0.02543186 -0.062963545 0.0023639759
-0.027608095 -0.009665166 -0.031569667 -0.014368029 0.061663035 -0.06993268 -0.030363562 0.06640872
-0.0046020583 -0.01829637 0.032693103 -0.034311753 0.032396853 -0.047778305 -0.016807579 0.055505
0.0011238968 -0.057778258 0.057638623 -0.05792563 -0.0036038952 0.0015146032 -0.030781925 0.03096306
-0.009246594 0.044414118 0.04778125 -0.06637839 0.058579527 0.0031196899 0.06932498 0.04448594
-0.025236245 -0.013448661 -0.02221274 -0.04147344 0.055021726 0.07631233 0.044068076 0.0684442
0.026167724 0.016280888 -0.021344023 0.063251495 -0.05862946 0.058476258 -0.0038375696 -0.032525327
-6.96965e-05 0.04256762 -0.057380617 -0.065363675 -0.019965867 -0.07430416 0.016977167 -0.057888895
-0.069285795 -0.03310749 -0.039456565 -0.001116869 0.05354296 -0.019227628 0.02301625 0.030723758
0.024450578 0.003979777 0.014159132 0.044876665 -0.077703044 -0.029178185 0.07683051 -0.020371111
0.045664497 -0.06153691 0.024400847 -0.003447375 -0.07677577 0.018896963 -0.00058993156 -0.08030741
-0.023975376 0.065348856 0.020343972 -0.05072115 -0.04242484 -0.035357874 -0.032042436 0.009749886
-0.032215267 0.052835107 0.050653618 0.05092708 0.00480393 0.068127446 -0.0597615 -0.046289537
-0.042530715 0.03625803 -0.066437684 -0.045103144 0.030445604 0.07359446 0.055601392 0.032866683
-0.05454437 0.02081125 -0.017410722 -0.0020274094 -0.006540655 0.073261276 0.05607936 0.00378077
-0.07322664 0.05858465 0.061532166 0.022156471 -0.07796633 -0.048673883 0.048866253 -0.082558714
0.035212386 0.012510873 0.07657576 0.020773524 0.03918386 0.027512304 -0.028911293 -0.047878876
-0.052139804 -0.026687762 -0.021700712 -0.005204078 0.031187162 0.054568 -0.015230315 -0.0099022705
-0.051991004 -0.04538458 -0.0053238203 -0.048475053 -0.06108701 -0.003379383 -0.031895537 -0.030408032
0.029305827 0.028578643 -0.082613684 0.012319318 0.04775915 0.078490324 -0.089486375 -0.009565459
-0.034123164 -0.038719468 -0.07534615 0.080203466 0.0167272 -0.06394595 -0.08481663 -0.04771674
-0.06458583 0.0021686703 -0.022622364 0.076808296 0.080913715 0.04959805 0.04635534 -0.009975209
-0.053980924 -0.010239788 -0.039408885 0.0236415 0.01703227 -0.04406903 -0.09982532 -0.008118064
0.028546134 0.032668374 -0.098040305 -0.042117883 0.0033185135 -0.03246697 -0.06555692 -0.041180525
0.04099558 -0.010916688 0.03573643 -0.02441216 -0.06017568 -0.002755465 -0.009163552 0.07170445
-0.0033907213 0.061515458 -0.07454731 -0.03468352 -0.020285722 -0.036895297 0.00029223636 0.084579885
0.08220579 -0.042824984 -0.047180973 0.020413237 0.038016737 -0.028049193 -0.058327723 0.04628253
-0.02975821 0.06421057 -0.107901156 -0.040069547 0.018556267 -0.045766857 -0.0781692 0.06407487
0.0123725 -0.0035607358 -0.10773371 -0.0012883943 -0.008117954 0.055208404 -0.0057999506 0.022025073

lin_apt_1.bias f4 [100]
00000000: 8b6b 17bd dcf4 3f3d de84 01bd d243 873d
00000010: 7a0c a73d fb27 193d 9558 113d 35e1 8cbc
00000020: bd21 023d edd7 32bd 0edc 16bd 951a 0bbd
00000030: 95c3 a1bd 3213 eebb f012 003c bb5f 1e3c
00000040: bae2 9ebc 85f5 8bbc da0a 67bd 0c8d a4bd
00000050: c5ea 963c df89 b1bc 8f9c 02bd f8f1 25bd
00000060: 4a5d 613c 0f4f 59bd 6d3f bf3c bc8c 86bd
00000070: 8e94 873d 7b6d 48ba 06a6 e1bc 9362 0abd
00000080: d149 0fbd 1e81 a03b b600 b93b d899 2ebb
00000090: eaf1 3d3d 34ed 733d 4bbd 0bbd 50f2 2639
000000a0: 45d5 b33d d247 873c 41d1 713d 923b 333c
000000b0: 441c 1fbd eeb3 37bc cfd6 8fbd 79c7 513a
000000c0: e7ab 27bd c880 3a3d 75a3 2fbd 95a4 0bbc
000000d0: ac5d 1fbd 943b e43c 0880 ca3b d8c1 b6bb
000000e0: adc2 66bb 4c2e 2e3d 0a70 833d 461d 67bd
000000f0: 33d3 f63c ef15 10bd 6f21 a73d e6da 3e3d
00000100: f284 b0bc 9869 dd3c 095e a83d fe01 32bd
00000110: 4313 2abd 302e 5a3d 6a5c 54bd 3f03 f8bc
00000120: d4fe d4bc cb02 153c 5b1a 08bd 9225 92bb
00000130: 2a3a 8abd 9a92 b43c 1f0f 553d de65 07bd
00000140: f158 6d3c 95fe 62bd 9b55 3ebd 85be 6a3d
00000150: a94b 80bd 253a 6ebd 166a 993d 9947 bf3c
00000160: 8345 cc3c 369d 7d3d 0cad 1abc b236 2abd
00000170: 41fe 983d c5c2 893d 3b45 7cbd c7e5 623d
00000180: 86c0 d3bc 19da aa3d f248 6abd d77a 13bd
-0.036967795 0.046864375 -0.031620853 0.066047326 0.081566766 0.037391644 0.03548487 -0.01719723
0.031770457 -0.043662954 -0.036830954 -0.033960897 -0.078986324 -0.007265472 0.007817015 0.009666379
-0.019395221 -0.017084846 -0.056406833 -0.08034715 0.018422494 -0.021672187 -0.031887587 -0.040513963
0.013755152 -0.05305391 0.023345673 -0.06569812 0.066201314 -0.00076457084 -0.027544986 -0.033785414
-0.034982506 0.0048982045 0.0056458367 -0.002664199 0.046373285 0.059552386 -0.03411607 0.00015921262
0.08780912 0.016513739 0.05903745 0.010939496 -0.038845316 -0.011212332 -0.07023393 0.0008002441
-0.040935423 0.04553297 -0.042880494 -0.008523126 -0.03890769 0.02786044 0.0061798133 -0.005577307
-0.003521125 0.04252462 0.06417854 -0.0564244 0.030130005 -0.035177168 0.08160674 0.046595477
-0.021547768 0.02702789 0.08221061 -0.04345893 -0.041522276 0.053266704 -0.051845945 -0.030274985
-0.026000418 0.009094904 -0.03322826 -0.004460045 -0.06749375 0.022042561 0.052016374 -0.033056132
0.014486537 -0.05541857 -0.04646836 0.0573106 -0.06264431 -0.05816092 0.074909374 0.02334957
0.02493549 0.061917506 -0.009440672 -0.041556068 0.0747037 0.067266025 -0.06158946 0.055394914
-0.025848638 0.0834238 -0.057198472 -0.03600582

lin_apt_2.weight f4 [50, 100]
00000000: 0614 9c3d ee10 08bc f788 1dbd d5d0 b83d
00000010: a08b 9b3d 0377 c23d 2856 b63c 7599 8c3b
00000020: d407 013d 448b c1bd 08a7 96bd ca44 9abd
00000030: 84fc 22bd 3de3 21bc aad3 e53c f55f b83d
00000040: 16e8 a73c 9d71 2d3c ff1b 9bbd 51ab 483d
00000050: 2667 6dbd b3ca 5c3d 9bcb 713b 21ab edbb
00000060: 0fdf 72bb 55a0 a9bd fbc5 4c3d 7c30 c73d
00000070: 00a9 5f3d 9a12 a5bd 14be 86bd 8bfd 063d
00000080: 7deb b1bd 89af adbd fa60 91bd 5918 853d
00000090: fc1c b63d f955 2e3d 5f62 2b3d 0ccb 5bbd
000000a0: 2965 153a d683 86bc ee6f 4fbd 2446 94bd
000000b0: c131 cebc 1f20 54bc b212 16bd db85 bf3d
000000c0: 272b ffbc f29e bebd 7fab af3d 621b 45bd
000000d0: dd1d 103c c571 733d d021 51bd 6f06 833d
000000e0: d435 93bd b15f c83c aaef c13d c5fc 9e3d
000000f0: 5189 b93c 32e8 9e3c aee4 a13d 5b61 0fbd
00000100: af62 8cbd bbb5 0c3c 848e cbbd 1787 8c3c
00000110: 7894 e9bc 068a c8bc db65 8e3d 830b 963b
00000120: ea71 0cbc 39ab f13c 1fe5 aabd 0a39 5bbd
00000130: 7247 1b3d a120 8a3d b6d8 b03b 4118 123d
00000140: 5dd5 293d 03b1 173d d09b 2d3d 74ad b3bd
00000150: 351f 54bd e146 93bd 09ec 69ba b3ad f43c
00000160: 5ada a4bd ba7d a33d b528 8fbd 51b2 ae3d
00000170: 65ae 843d fda4 9f3d cebd 54bd 5ce8 b53d
00000180: d95b d4bb 26d8 9cbd b776 643d 5d65 22bd
00000190: 44a4 393d 1f92 933d 7450 96bd f2e7 d03d
000001a0: e907 8bbc b66e e93c d931 b9bd 2e48 8fbd
000001b0: 08eb a2bd 7913 263d 6721 51bd a592 2e3a
000001c0: 4cff 80bd bde5 ccbc e555 e23c 8908 81bd
000001d0: dc97 713d 892f 75bc 5c0c 42bd 7873 90bc
000001e0: ee35 fd3c 6890 5abd 180c f33c b162 123d
000001f0: 2b9e f03c ac6a bf3c 3bd6 dc3d eeb5 c4bd
00000200: 7a4d adbc 9aef c93d c0d9 173d 0dfe bf3d
00000210: d442 d0bd ee10 ac3c be3a ef3c c83f 4b3d
00000220: efc3 9a3d 4380 7d3d 6708 a33d 0abc a53b
00000230: fc55 b33d 9a7f a03d d1ba c93d 10fb f13c
00000240: decf 803d 28c2 41bd 4b23 ccbd 885b 9bbd
00000250: 55c9 96bd c2ea 513d f961 25bd c800 a73c
00000260: c895 ba3d 0914 493d e14b 30bd c90c 833d
00000270: d4f6 8b3d 940a aa3d c942 c13d ec1d 813c
00000280: 9a59 223d a8c8 b73c ac05 b4bd 7869 c8bd
00000290: 85a7 b9bc 87b8 9abd dffb acb8 ad56 b53d
000002a0: b78e 1dbb 7d56 993d 77f9 99bd 4dca 93bc
000002b0: 2555 db3c 0da0 ffbc 9a8b a9bd 2f38 ca3c
000002c0: 3d6e ac3d 2532 7b3d 9495 ac3d 3ce3 283d
000002d0: 37e9 d2bc ff45 d9bd 1bcb b6bc b03a b03d
000002e0: 3b60 b8ba 013f 49bc 9141 9abd 76f9 f3bc
000002f0: f639 07bd f782 41bd 0fd6 f63c e422 933d
00000300: d6e6 89bd 15bd 933b 4d3a b23d abe9 d3bc
00000310: f038 c9bd 14a4 4e3d 2fd9 483d cd46 8b3d
00000320: 618d b83c de8c dbbc 644f 54bd 9467 c1bc
00000330: b407 673d 9f31 e0bc 5d23 1abd b9c4 2cbd
00000340: 0013 eb3c 39a9 bbbd e94a 9e3d 684e f7bc
00000350: 9217 f23c 4cca 87bd 8bce 94bd 73db 7fbd
00000360: 313b acbd 5acf 4aba c405 c1ba 00d6 cabd
00000370: 2eac 9fbd 6371 d93c c0a0 eabc a73c c1bd
00000380: d38f bb3d 3ed9 973d da3f 023b a6b7 543d
00000390: b43a b7bd 7061 a43b 7378 95bd f5a0 31bd
000003a0: 1117 efbc 1eee 15bd a4c9 abbd b0f2 723d
000003b0: 3c40 53bd 95bd 7cbb 08bf 83bd f714 cabc
000003c0: b0c3 bfbd 2e00 00bd 19b8 8c3c dc88 8ebd
000003d0: d16a 8e3d 4e50 4dbd 9f83 79bd 57e3 ae3c
000003e0: e41c 51bd feec 42bd dc6c adbb 98f7 453d
000003f0: 2b57 76bd 988c c8bd 1af6 a5bd 0dd5 fd3c
0.07621007 -0.008304818 -0.038460698 0.090242065 0.07594991 0.09495356 0.02225788 0.0042907544
0.031501606 -0.09450391 -0.073560774 -0.07532652 -0.0397916 -0.009880838 0.02805503 0.09002677
0.02049641 0.01058617 -0.07573699 0.048991505 -0.0579597 0.053904247 0.003689504 -0.007253066
-0.0037059223 -0.08282534 0.049993496 0.097260445 0.05460453 -0.080601886 -0.06579223 0.03295664
-0.08687494 -0.08480746 -0.07098575 0.064987846 0.08892247 0.04256246 0.04184186 -0.053660437
0.0005698973 -0.016420286 -0.050643854 -0.07239941 -0.025170209 -0.012947111 -0.036638923 0.09351703
-0.031148506 -0.0930766 0.08577632 -0.048121817 0.008796182 0.05943467 -0.051057637 0.063977115
-0.07188001 0.024459692 0.094695404 0.07763056 0.022648485 0.019397829 0.07904945 -0.035004955
-0.0685476 0.00858825 -0.09939292 0.01715426 -0.028513178 -0.024479877 0.06953021 0.004579009
-0.008572081 0.02950059 -0.08344483 -0.053521194 0.037909932 0.06744505 0.0053969277 0.03566766
0.041463245 0.037034046 0.042384923 -0.08773318 -0.051787574 -0.071912535 -0.00089234166 0.029867982
-0.0804946 0.07982965 -0.06990186 0.08530105 0.064785756 0.07795141 -0.051938824 0.0888221
-0.0064806757 -0.076584145 0.055777278 -0.03964745 0.04532267 0.07205605 -0.07339564 0.1020049
-0.016971545 0.028495174 -0.09042711 -0.06996189 -0.07954985 0.040545914 -0.051057246 0.0006659425
-0.06298694 -0.025011891 0.027628848 -0.06300456 0.058982715 -0.014964947 -0.047375068 -0.017633185
0.030909505 -0.053360373 0.029668853 0.03573865 0.029372295 0.023366295 0.10783049 -0.09605013
-0.021155108 0.098601535 0.037072897 0.09374628 -0.101689965 0.021004166 0.029202815 0.049621373
0.075569026 0.061889898 0.07960587 0.0050578164 0.087566346 0.07836838 0.098500855 0.029538661
0.062896475 -0.047304302 -0.09967669 -0.075858176 -0.0736262 0.051249273 -0.040376637 0.020386115
0.091106 0.049091373 -0.043041114 0.06398923 0.06834188 0.08302799 0.094365664 0.015761338
0.039636232 0.022434548 -0.08790144 -0.097857416 -0.022662887 -0.07554727 -8.248514e-05 0.08854423
-0.0024041364 0.074871995 -0.07518285 -0.0180408 0.026773999 -0.031204248 -0.0827858 0.024684994
0.08419464 0.06132712 0.08426967 0.041232333 -0.025745971 -0.10609054 -0.022313645 0.08604944
-0.0014066765 -0.012283088 -0.07532037 -0.029782038 -0.03301426 -0.04724404 0.030131368 0.07184389
-0.067334816 0.0045086243 0.08702526 -0.025868258 -0.09825313 0.050449446 0.049035247 0.068006136
0.022528352 -0.02680057 -0.051833525 -0.02360896 0.05640383 -0.027367411 -0.03763138 -0.042179797
0.028695583 -0.09163136 0.07729132 -0.030188754 0.029552255 -0.06630382 -0.072659574 -0.062465142
-0.08409727 -0.0007736586 -0.001472645 -0.099040985 -0.077965125 0.026543325 -0.028641105 -0.09435397
0.09158292 0.074144825 0.0019874484 0.051932953 -0.089467436 0.0050164983 -0.072983645 -0.04336639
-0.029185804 -0.03660404 -0.08388069 0.059313476 -0.05157493 -0.0038565148 -0.06432921 -0.0246682
-0.09363496 -0.03125017 0.017177628 -0.069596976 0.06953967 -0.050125413 -0.06091654 0.021348638
-0.051052943 -0.047589295 -0.005292518 0.048331827 -0.060141724 -0.09792441 -0.08103581 0.03098538

lin_apt_2.bias f4 [50]
00000000: 40a8 a6bd 1c33 bc3d 112d bf3c ad14 20bd
00000010: d8aa 7c3d 18de c13d 2d50 243c 3b91 9dbd
00000020: 7bec 9439 abdb 7e3d b595 16bd e7da 49bb
00000030: d2f0 093d df05 8dbc 515b 69bd 1f11 793c
00000040: abca c03d 8432 bb3c c7a1 1cbc c650 573c
00000050: ef99 dd3c e6d1 863d fbdb 67bd b9f9 87bd
00000060: 4df1 b13c 61c4 9ebd c10b 453c 2f13 9b3d
00000070: 3db4 2dbd fc6d d43a cdc5 7bbd 8f6b 213d
00000080: 3977 293d ddb1 32bc 3f62 7a3c 077b 6abd
00000090: c548 debd e532 843c bc6a 58bd f2fc 833c
000000a0: 8522 923d ec27 9ebd c05a 963c 0a16 023d
000000b0: 7e01 323d 73db 723c f03b cd3c 7ba6 c0bc
000000c0: a49a 78bc e444 f0bc
-0.0813756 0.09189436 0.023336919 -0.039082218 0.061686367 0.09466189 0.010028881 -0.07693716
0.0002840495 0.06222121 -0.036763866 -0.0030800642 0.03367693 -0.017214714 -0.05697185 0.015201836
0.09413656 0.022851236 -0.009560055 0.0131418165 0.02705094 0.06583004 -0.056606274 -0.06639428
0.021721506 -0.077523 0.012026728 0.07572018 -0.042408217 0.0016207094 -0.061467934 0.039409216
0.041373465 -0.010906664 0.015282213 -0.057246234 -0.108537234 0.01613755 -0.052836165 0.016111825
0.0713549 -0.07722458 0.01835382 0.0317593 0.043458454 0.014822829 0.025052994 -0.023516884
-0.015173588 -0.029329725

lin_apt_3.weight f4 [10, 50]
00000000: 4237 08be e9d3 fb3d a164 d6bc 1ad1 863d
00000010: 0582 533d 7f96 9d3d da3b 433d 8e05 bf3d
00000020: 44a9 b0bd ff5c b7bd 05c8 01be 72e6 9ebd
00000030: 3b79 5dbd 081c 15be 564d d93c 87f7 9dbb
00000040: c121 8abd 871b ad3d 2fa6 0d3b ea77 ffbd
00000050: 5161 b3bd b2f8 afbd cc25 de3d bb61 4a3d
00000060: 8b4d f3bd 1d0b bd3d 1b3a a3bd 08fe 863d
00000070: 382b d73c 7271 77bd 746d f5bd e997 a4bd
00000080: c289 4cbd 80b9 f63d e20b 7ebd cc25 acbc
00000090: 4496 453d c9b8 8bbc 4100 7cbd 2e21 ad3d
000000a0: 926c e03d 2f7a 7a3c 35be 0dbe d812 443c
000000b0: f3e6 a23d 829f b33d 43a1 e2bd 67c2 02be
000000c0: 5e74 0dbd d580 bebc a8fe c63d 59f3 80bd
000000d0: 5d07 df3d 68e0 c5bd 9c82 b8bd d77a b63d
000000e0: 5a07 103e ed1a 90bd 7395 e03c 13cd 783d
000000f0: 0f61 8dbd 84d4 a43d 5dc1 39bd 8272 d5bd
00000100: 7319 dc3c a4df 95bd 4d65 e0bd 9475 1ebd
00000110: 5fc9 dcbd 9dd0 81bc 906f eb3d 2b5f 9fbd
00000120: 0ca8 95bd ba57 5bbd d714 72bd cb65 72bd
00000130: 4f59 063d b8ab c9bd 0245 09be 0dcf 8c3d
00000140: ea30 58bd 24c9 7ebd b411 4d3d 8ff1 413d
00000150: f485 013e 9f85 3ebc cc6a 983d a4b8 4b3d
00000160: 6550 083e cb18 013e c4ad 79bd bf96 033d
00000170: ed3a 063d c667 a2bd 5eb5 f03d 98e1 aabd
00000180: bf54 103e b020 2ebd 2082 80bd 9dd3 86bd
00000190: 3fa8 863d 3be4 613d f7c4 5cbd af44 c53c
000001a0: bd8e dcbb cd85 17bd c661 46bb 3f7e 7a3c
000001b0: e2b6 01be b798 68bd ebf7 9d3b 4c6d b1bd
000001c0: 5eef cf3d b703 2abd e832 123d f21f efbd
000001d0: 203b f4bd 567e 3a3d 7532 d83b c458 ed3d
000001e0: 0ab0 053e c434 163d d0c8 ffbd 99f6 803d
000001f0: f83b c1bd 2c92 86bc e9f7 bebd 3bcc d7bd
00000200: c33e f83d 74a7 9fbc 8bd5 183d 84f4 38bd
00000210: e851 b8bd 8172 65bd b2fa dc3d 24a6 9d3d
00000220: 6391 90bd 025f 0cbd 8363 763d 9baf 1cbb
00000230: 4484 853d d35c ae3d eda8 c0bd 66eb e3bb
00000240: 8e39 ea3d 2b70 b4bd 51bf 833c eaf3 1ebd
00000250: 9356 74bd 8dce b2bd e671 f3bd c5d1 c1bc
00000260: 38eb 92bc fbed cabd 99bf 95bd 4d0c f9bd
00000270: 4f35 ddbd add8 96bd 5da0 ab3d 15b7 e2bd
00000280: 0a51 b3bd 601d 823d b72e d2bc 748c e33d
00000290: fc6a c0bc 3fec 653d 0cad f63d b363 26be
000002a0: 56e0 46bd 9c27 b2bc 53f0 123a 8495 cfbd
000002b0: b751 2c3d a903 b2bd 6b92 74bd 5fca 98bc
000002c0: 8b4b 963d 098e 3b3c 4ca6 333c 4276 9f3d
000002d0: 4bba 10be 1d18 633d 951e 28bb 7d79 a4bd
000002e0: 997e d0bd ce5a 2bbe 07db 98bd c252 0f3e
000002f0: 0c58 6dbd 906d db3d aa71 99bd 5ec8 d13d
00000300: b927 a2bd 13bd 5a3b 6b89 893d 09fa 5a3c
00000310: 289b 70bd fa32 ce3d 1e85 07be 314e 933d
00000320: 37fe 73bd 31c8 f03d 5228 023e 4329 82bd
00000330: 0096 b2bc 2805 0fbd 0891 e9bd 223d 673d
00000340: 23a6 bf3c 266c 09bd feb8 c13d 4a3c 933b
00000350: 3ee1 9bbd b205 013e 016f f13d 0dd7 e8bd
00000360: 8dda 3bbd 3f8f 0cbe 9200 f0bd 77d7 f7bd
00000370: 3e3a 50ba 5582 65bc cce4 32ba b03e ecbd
00000380: a05b b6bd f79c febd f357 d63d 5ffc 2abd
00000390: 3ce1 a8bd 1014 70bd f2fd 9b3d 7862 b13d
000003a0: 4663 093e 18e1 02be 5934 82bd a4db 9a3d
000003b0: 013f 773d b3d6 84bb 429a 4139 8557 95bd
000003c0: c53f 043e d347 063e 3bd2 21bd 11bc eb3c
000003d0: c96e e23d 4004 7ebd a830 923d a5c9 e4bb
000003e0: d663 24bd 3ec8 db3d d698 dbbd a82b 0fbd
000003f0: 5422 bbbd 6d6b b33d 5d50 d83c 9186 9ebd
-0.13302329 0.12296278 -0.02617103 0.06582852 0.05163767 0.076947205 0.0476645 0.09327231
-0.08626035 -0.089532845 -0.12673958 -0.07758798 -0.054070693 -0.14561474 0.026526134 -0.0048207673
-0.06744719 0.08452516 0.0021613946 -0.12474044 -0.08758796 -0.08592357 0.10847053 0.04940961
-0.118800245 0.09230635 -0.07970067 0.06591421 0.026265725 -0.060410924 -0.11983767 -0.08036787
-0.049936064 0.120471 -0.06202305 -0.021014117 0.048239008 -0.017055886 -0.06152368 0.08453594
0.10958208 0.01528792 -0.1384209 0.011967383 0.07954206 0.08770658 -0.110659145 -0.12769471
-0.034534805 -0.023254791 0.097165406 -0.06296415 0.10890076 -0.09661943 -0.09009287 0.089101486
0.14065304 -0.07036386 0.027415013 0.06074245 -0.06903278 0.08048347 -0.04535042 -0.10422231
0.026867604 -0.07318047 -0.109568216 -0.03868635 -0.10780596 -0.015846545 0.11495888 -0.07781824
-0.07307443 -0.05355046 -0.059101906 -0.05917911 0.032800015 -0.09847206 -0.1340523 0.06875429
-0.052781023 -0.06220354 0.05006571 0.04734951 0.12648755 -0.011628537 0.07442245 0.049736634
0.13311918 0.12607114 -0.06095673 0.032126185 0.03277104 -0.079299495 0.11753343 -0.0834381
0.14094828 -0.042511642 -0.062748194 -0.06583331 0.06575059 0.0551493 -0.053898778 0.024080602
-0.006730883 -0.036992837 -0.003027068 0.0152888885 -0.1266742 -0.056786265 0.004820814 -0.08663425
0.101530775 -0.04150745 0.03569308 -0.11676015 -0.1192534 0.04553064 0.006597812 0.11589196
0.13055435 0.036671415 -0.12489474 0.06297035 -0.09435266 -0.016427122 -0.09324629 -0.10537001
0.12121346 -0.019489028 0.037313025 -0.045155063 -0.089999974 -0.056017403 0.10790004 0.076977044
-0.0705898 -0.034270294 0.060153496 -0.002390838 0.06519368 0.085137986 -0.0940722 -0.006955552
0.11436759 -0.08810457 0.016082438 -0.038806833 -0.059652876 -0.08730803 -0.11886959 -0.023659596
-0.017934427 -0.099086724 -0.07311935 -0.12160549 -0.108011834 -0.073655464 0.08380196 -0.110700764
-0.08755691 0.06353259 -0.025657041 0.11110774 -0.023488514 0.056133505 0.12044725 -0.1624897
-0.048553787 -0.021747403 0.0005605269 -0.1013594 0.042070117 -0.08692104 -0.059709948 -0.018651186
0.073386274 0.011447438 0.010964941 0.07786228 -0.14133565 0.055442918 -0.0025652994 -0.080309846
-0.101803966 -0.16733858 -0.07463651 0.13996413 -0.057945296 0.10714257 -0.07492383 0.10243295
-0.07917733 0.0033376857 0.067156635 0.013365277 -0.05874172 0.10068317 -0.13234374 0.07192648
-0.05956861 0.117569335 0.12710693 -0.06355526 -0.021800041 -0.034917027 -0.11404616 0.056454785
0.02339465 -0.033550404 0.094591126 0.004493271 -0.07611321 0.12599829 0.117887504 -0.11369143
-0.045862723 -0.13726519 -0.11718859 -0.121016435 -0.0007943249 -0.014008124 -0.00068242545 -0.11535394
-0.08904195 -0.124322824 0.10465994 -0.041744586 -0.08246085 -0.058612883 0.076167956 0.086613595
0.13416776 -0.12781179 -0.06357641 0.075614244 0.06036282 -0.0040539145 0.0001846338 -0.07292084
0.12914951 0.13113336 -0.039507132 0.0287762 0.11056287 -0.062015772 0.07138187 -0.0069820457
-0.040134273 0.107315525 -0.107225105 -0.034953743 -0.09137407 0.08760724 0.026405508 -0.0774051

lin_apt_3.bias f4 [10]
00000000: 705d 75bd 53fd 05be e918 bfbd 93e1 1e3e
00000010: 9a5a 123e e100 01be 662a adbd 185e 11be
00000020: 7745 e83d c4ee afba
-0.059903562 -0.13084917 -0.09330923 0.15515737 0.14292374 -0.12597992 -0.084553525 -0.1419605
0.11341374 -0.0013422598

lin_pep_1.weight f4 [50, 160]
00000000: 1307 9a3d 60fd 023d 38dc 14bc 7076 923b
00000010: b8a7 94bd a0df 55bb 0a69 3c3d b51d 8cbd
00000020: 6258 6bbd 18fe 283d 043a 053d cfc4 853d
00000030: 45fe 65bd c2cc 5f3d a82c 8cbd f64b 6cbd
00000040: 5f67 d83d 7e8b 3c3d 3a2e 403d 1ee0 d3bc
00000050: 714f b4bc 6bfb 1ebd 790b 793d 58dd d3bd
00000060: c66b e8bd d12a 053e f9f4 ed3d d08d c6bd
00000070: eba7 3b3e 0c4f 9a3d 49e6 d13b a8bc 533d
00000080: 39b0 a7bd 5bd8 933d 422d 323e 377d 41bd
00000090: 4d9c b73a ead2 0b3e 8c54 1ebe 9480 303d
000000a0: 79e0 a9b9 99ab 4a3b 4926 343c 5a41 e7bd
000000b0: 5f27 02be 767c d33d bb32 c43c c0f4 15be
000000c0: 7262 243e cda2 293d 3c21 38bc fa98 03bd
000000d0: 6a4c a3bd b896 223e 8cf5 d23c 948f 153c
000000e0: 54e6 04bd 0981 1b3d 1eff 8dbd cf8e ed3c
000000f0: 86f1 96bd ab36 7a3d 83c2 3bbd f7ab 92bd
00000100: aa28 45be 2a1a d63c e398 033e 202f bdbd
00000110: 79ac 103e 11d4 cd3c 9f00 64bd daf8 30bd
00000120: 312e 40bd a23d 843d e0c9 223e d92c 973d
00000130: f771 8fbd b3ae e63d 51c5 0dbe 5bec da3d
00000140: f1c8 2cbe d943 353d 48b9 903d 1087 59bd
00000150: c296 7fbe dc65 233e 2425 e83d 9eca 05bd
00000160: 080f 463e 46ac 863d 79bf 673c a135 93bc
00000170: 75a9 0abe c76d 063e e099 bc3c 263f debb
00000180: 68c6 483d c5a7 acbc 33f8 42be 8ac9 f53d
00000190: 010e 3abd f682 e43c 6237 a73d 1d41 30bd
000001a0: 9344 e9bd 435d eb3d 7967 b43d dbfa a9bd
000001b0: 2540 c03d 0182 9f3d 2c23 b5bd e6a7 523c
000001c0: 214e 9ebd 0a67 b13d ae2d f93d 9278 8c3d
000001d0: bee0 7b3b f2cd f63c bf03 5ebe d4ee d53d
000001e0: e281 12bd f65f 8f3d b92c 703c b4c8 eebd
000001f0: 8655 9abe ee18 9b3d c6f1 a23d 6309 ccbd
00000200: 6b0a 883e 27c3 d3bc 2f21 bebd 04ca e83d
00000210: 4230 99bd ceb2 1e3e cd38 943d 3073 ea3c
00000220: 670d 51bd 4308 b33d c5e5 50be 344b bd3d
00000230: 6231 1dbd ecf4 a43d 288f 683d aac9 9c39
00000240: 893e 9ebe 240e 043e 6363 003e 7a44 dbbd
00000250: 9891 cb3d b81a 143c 45c5 94bd 394a ee3d
00000260: 015c 07be 79a0 d33d b806 7f3d 853c d03d
00000270: ef88 863d 040e b93c 9e59 50be 7a8c 183d
00000280: 9660 703d f2a1 5b3d a9cd 913d 0667 513d
00000290: e620 0b3d 8410 a3bc 4808 83bc a007 ee3c
000002a0: 088e 1a3c 4beb 883d a715 8e3d 20f5 51bc
000002b0: b56c 7fbd f02e 5e3c d6c7 b1bc cc9c a5bc
000002c0: 1a3e 8fbc 2c2f b4bc 31fe 5dbd 0ef6 453d
000002d0: 1ab8 423d 333c 92bd cf69 f0bc dafe ffbc
000002e0: 5246 da3c 0f87 633d b07b 473c 8a26 32bd
000002f0: 92fd c9bd ab0c c33c 3845 07bc 8eca 81bd
00000300: 888e 18bd b28c dabb bae5 c6bc f3d3 c93a
00000310: d8ac 3e3d c868 1a3d dce7 be3c 27ad f43c
00000320: aebb 583c 6685 1d3d 8ff5 403d c3a9 983d
00000330: 4d34 0dbc 7e31 f9bc 344f a8bc eedf c63d
00000340: 312f 653b 00da 79bd 756d 3dbd b5bd 91bd
00000350: f736 c63c c871 61bd 9b93 3bbd 2747 783c
00000360: 38a0 ad3c 19dc ddbc f95d cc3c d3ef 2ebd
00000370: 1af1 55bd a9d5 833c c091 0abd 607e debc
00000380: 56ea 023e 371a 6c3b fc03 ddbc 137d ff3c
00000390: d420 d0bd cdcd 243a 8577 833d 429f 0a3d
000003a0: 662d 26ba d60a 183d 182d 25bb 5a41 fdbb
000003b0: 5f7e 583d ab09 89bd 9864 da3d c296 3cbd
000003c0: a211 2d3c c2d0 4fbd 8173 95bd 806a 7a3c
000003d0: 6f18 bb3d 7233 4abd 6361 a1bd 869b 883d
000003e0: e4d4 1ebd be3f 233c 3c42 9bbb d110 813d
000003f0: c0ed 213d 17c0 b13b 0624 6a3d 42fe 973c
0.075208806 0.03197992 -0.009085707 0.0044696853 -0.07258552 -0.0032634512 0.04599861 -0.06841604
-0.057457335 0.041257948 0.03252603 0.06531679 -0.056150693 0.05463863 -0.06844455 -0.05768963
0.105665915 0.046031468 0.046919085 -0.025863703 -0.022010537 -0.03881399 0.060801957 -0.10344952
-0.11348681 0.13004614 0.116189905 -0.09695017 0.18325774 0.07534608 0.006405626 0.05169359
-0.08187909 0.07219001 0.17400077 -0.047238555 0.0014008373 0.13654676 -0.1546194 0.04309137
-0.00032401437 0.0030925034 0.010995456 -0.11291762 -0.12710331 0.103264734 0.023949971 -0.14644146
0.16053179 0.041415025 -0.011238392 -0.03212831 -0.07973559 0.15877807 0.025751851 0.00912847
-0.03244622 0.037964854 -0.06933425 0.02899876 -0.07370286 0.06108729 -0.045839798 -0.07161706
-0.19253793 0.026135523 0.1285129 -0.09237504 0.14128293 0.025125535 -0.055664655 -0.043206073
-0.04691905 0.06457068 0.15897322 0.07381601 -0.07004159 0.1126379 -0.13844801 0.106896125
-0.16873528 0.044254158 0.070665896 -0.05310732 -0.24959853 0.15956825 0.11335209 -0.032663934
0.19341671 0.06575827 0.014144772 -0.017969908 -0.13541205 0.13127814 0.023022592 -0.00678243
0.04901734 -0.021076092 -0.19039993 0.12001331 -0.04542351 0.027894478 0.0816486 -0.043030847
-0.113900326 0.11492398 0.08808798 -0.082998 0.093872346 0.07788468 -0.08844599 0.012857413
-0.07729746 0.08662231 0.12166916 0.068589345 0.0038433517 0.0301275 -0.21681117 0.104459435
-0.035768397 0.07000725 0.0146591 -0.11659375 -0.30143374 0.07573114 0.07956271 -0.09962728
0.26570448 -0.025849892 -0.09283673 0.113666564 -0.074799076 0.15497896 0.072373964 0.028619379
-0.051038172 0.0874181 -0.2040015 0.092428595 -0.038377173 0.08054528 0.05677715 0.0002990489
-0.30907086 0.12896019 0.12537913 -0.1070642 0.09939879 0.009039573 -0.07264189 0.116352506
-0.1321869 0.10333342 0.062262267 0.10167793 0.06569087 0.022589691 -0.20346686 0.037243344
0.05868586 0.05362124 0.07119305 0.05112364 0.03396692 -0.019905336 -0.01599516 0.02905637
0.009433277 0.066855036 0.069377236 -0.01281479 -0.06235953 0.013560995 -0.021701735 -0.020216368
-0.017485667 -0.02199515 -0.054197494 0.04833036 0.047538854 -0.07140388 -0.029347328 -0.031249452
0.02664486 0.055548724 0.0121754855 -0.043493785 -0.09862818 0.023809751 -0.008256249 -0.06337462
-0.037245303 -0.006669604 -0.024279464 0.0015398249 0.046551555 0.037697583 0.023303919 0.029867722
0.01322834 0.038457297 0.047109183 0.074542545 -0.0086184265 -0.030419108 -0.02054558 0.0971068
0.0034970755 -0.060998917 -0.046246964 -0.07116262 0.024196131 -0.05504015 -0.045795064 0.015153683
0.021194562 -0.02708249 0.024947153 -0.042709183 -0.052231885 0.016093092 -0.033830404 -0.02715987
0.12784705 0.0036026367 -0.026979439 0.03118757 -0.101625115 0.000628677 0.06419281 0.033843286
-0.00063391624 0.03711971 -0.002520388 -0.007728738 0.052854892 -0.06691297 0.10663718 -0.04604221
0.010563286 -0.050736196 -0.07297421 0.015284181 0.0913552 -0.04936547 -0.07879903 0.06670289
-0.038777247 0.009963928 -0.0047381204 0.063020356 0.039533377 0.00542451 0.05716326 0.018553857

lin_pep_1.bias f4 [50]
00000000: 5a10 d83d 033d 92bd b94f 583d 2c56 01be
00000010: 6ed3 863c 7acd 34bc 921e d2bd 9cc0 d33c
00000020: 4812 62bd 08f6 75bd 0593 9cbc f59e c6bd
00000030: 1227 6d3d 4296 3b3d ae19 493c 7efb 7abd
00000040: 93d9 bc3c 7dc9 283d f7a3 d5bd ef3a 0c3e
00000050: 9c65 72bd 1c38 39bd dbcd cd3d a9e7 b6bc
00000060: a3ef 13bd d776 483c 16e1 d7bb 8562 883d
00000070: e4fd 643d 7b1b 7abd 6cb5 4cbd 7a95 28bd
00000080: 92e0 153c f4b8 c53c 0014 b53d 5a10 6abd
00000090: f9bb 4c3d 9efa 27bc e278 a4bd 5f64 3dbd
000000a0: a524 a2bd 5b3f 9dbd 8a1e 9cbd cf6a 973c
000000b0: ae33 413d 469b a8bd 3722 db39 543c 8c3c
000000c0: fb70 9fbc 6ae8 d1bd
0.10549994 -0.07140543 0.052810404 -0.12630528 0.01645824 -0.011035318 -0.10259737 0.02584868
-0.055193216 -0.060049087 -0.019113073 -0.096982874 0.05789859 0.045797594 0.012274189 -0.061274998
0.023052966 0.04120778 -0.104316644 0.13694356 -0.059178934 -0.045219526 0.100490294 -0.022327261
-0.036117207 0.012235365 -0.0065881116 0.06659416 0.05590619 -0.061061364 -0.049977705 -0.041158177
0.00914778 0.024136044 0.08841705 -0.0571445 0.049983952 -0.010252623 -0.08030869 -0.0462383
-0.07917146 -0.076781 -0.07623012 0.018483547 0.047168426 -0.08232741 0.00041796427 0.01711861
-0.019463053 -0.102494076

lin_pep_2.weight f4 [10, 50]
00000000: 0f9a 94be 8133 d33d 7d40 69bd 1425 543e
00000010: bf43 2ebe 3854 163e 774f 763e 8202 a6bc
00000020: 7fd8 973c 659e 783e c748 e3bd 7f43 203e
00000030: 3ccb 37be dd05 83bd 7d18 8c3d fb52 5c3e
00000040: 2d79 3037 68a1 babc 450a ac3e b6b6 50be
00000050: 6a4e 1b3e 5f19 613d aab6 28be 5190 7bbc
00000060: 6bb8 e1bc 67fc d53d 6514 033e 7968 90be
00000070: 2c7d d5bd e0fb 71bb bdbd 753d 77ef b23d
00000080: 9555 edbd 4421 84be aa18 67be 2e45 033e
00000090: 9413 bebd ac3e 8a3d f4fb e33d 7d2c dbbb
000000a0: c628 4c3e 6080 9f3d 8eb7 ea3c caed b93d
000000b0: 5298 4bbe dccc 893e 8085 efbd ccd6 303d
000000c0: 0222 313c 922f 413e 8ad2 c0bc 7997 b83d
000000d0: 523e 04be daaa 363c 0d72 273d 1f7c 07be
000000e0: 9894 1f3d d504 d03d 6b09 c33d 3e9a f53d
000000f0: 70ba 9ebc 5560 793d 3123 353d b791 fabd
00000100: a20b a93d 7a1c 913d 846b d8bd b156 ff3c
00000110: 6390 7b3c facb 0c3e 5b9a f7bd 62ce 1cbd
00000120: 44f9 513d 3cd7 623d f5da fcbd 7c46 b0bd
00000130: dcd1 103d b8cd 923c 6ce8 a0bc 7b99 13bb
00000140: 6af1 5b3d 2113 923d 054a 113b fc58 163d
00000150: 7ad4 323d 06bc 0fbe b51f 10be 9706 be3d
00000160: a6b1 833d b3b4 20ba 7cff d93c 8af0 5fbd
00000170: 9dac 20bd c0b6 2d3c 432a 413c 1dc7 16bd
00000180: 4af9 b33d 1ff0 983d d3ad e53d dc75 1f3b
00000190: 0374 67bd 44e8 c33c 424c 06bd 7e1a 233e
000001a0: e78f 01be 3340 c8bd da06 5a3d dae3 7cbd
000001b0: 38d7 cd3d 1b9c c0bc f731 fcbc 2364 15bd
000001c0: eada 57bc a09f 27bd 8103 723d 251d 1a3e
000001d0: b745 453d 6f7c 6bbd 291e c2bd 0fc4 1dbe
000001e0: 2046 2e3e 03ff ab3d cad1 e7bd cec5 b63d
000001f0: 0d2e e2bd a1ab fd3d faf9 d8bd 5866 27be
00000200: 996d e03c 12d1 083e 3666 0d3e b911 abbd
00000210: a8d9 f8bd 9c86 263d a667 153d f5c3 d03d
00000220: 0f54 903d 6a09 e9bb 29ad 0e3e 0d53 ab3d
00000230: e891 a8bd 22c7 3cbd cdab 873c d9a4 933d
00000240: 6aaf 773d 027f 2f3e db54 d9bd 81a7 8fbd
00000250: ce0d a13d 4846 073d 3be1 2fbc df5b 9c3d
00000260: 35b9 59bc 4c89 b83d 1b35 9abc 187d 193e
00000270: 18a5 263e 9a17 bd3d 8389 18be 3526 05bc
00000280: a0a7 a0bd d7fd 0f3e 6d49 823c 8c63 e13d
00000290: a14c ea3b 5a42 7a3c 06b9 b7bd ac0d 683d
000002a0: a5b6 443d 56ef b3bd 9a2f 143e a4eb cabd
000002b0: b9ac 1b3d d41c 633d 5ecc 30bd fae2 dfba
000002c0: e3b8 cc3d ca8d 48be 66d6 0ebd ae8c 8e3b
000002d0: cefc 0a3e 90dc d03d 136e 0dbe 3d6d 45bd
000002e0: e799 12bd 07f8 f33d 7b16 e9bd 6ba9 bdbc
000002f0: 7d9d a13d 87b6 74bd 4877 383c 08da ba3d
00000300: a9fd 293e 57a5 ccbd 7a20 7ebc 1ff0 59bd
00000310: bdf2 513d 9867 043c 92cd 843c 5378 ae3d
00000320: fcc6 3fbe d565 cfbd 05f4 9bbd 68eb 183e
00000330: 1122 623d 6307 903c 5f55 0ebd 90fc 4bbd
00000340: 5bb3 a1bc 1fa5 773b d33f 09bd acfb 94bb
00000350: 94f4 d0bd 502d 603d e1f3 033e 7587 6b3d
00000360: 424f ddbd 468f 09bd b296 ed3c de78 47bd
00000370: 7940 073e cf11 cebd 3b52 d6bd aa6c 193d
00000380: d3b3 3e3d 89ca ae3d e0a6 2e3e 0e81 aebd
00000390: 4375 ddbc a87e a43d e41f 0b3e f603 2dbd
000003a0: 7df7 d2bd ad6a 15be 565e 02be 1cdd aa3d
000003b0: ca01 87bd 525f 923b d6bf 0b3d 9a3e 153d
000003c0: d283 8e3c 22f7 b3bd 5a40 0d3e 72b8 733d
000003d0: e558 a53c 1d0e 733b 8077 d13c 1dc5 423d
000003e0: 50bf 9a3d ef04 3f3d 29ae 92bd 914c bb3d
000003f0: e583 27bd 2b78 d0bd f941 acbd e017 26bd
-0.29023787 0.10312558 -0.056946266 0.20717269 -0.1701803 0.14680564 0.24053751 -0.020264868
0.01853585 0.24279173 -0.110978656 0.15650748 -0.17948622 -0.06397603 0.06840608 0.2151603
1.0518631e-05 -0.022782043 0.33601585 -0.20382199 0.15166631 0.054955836 -0.16475931 -0.015354232
-0.027553758 0.104485326 0.12800749 -0.28204706 -0.10424265 -0.003692381 0.0599954 0.087370805
-0.11588589 -0.2580663 -0.22568002 0.12819359 -0.09281078 0.06750235 0.111320406 -0.006688653
0.19937429 0.077881575 0.028651979 0.09078558 -0.19882324 0.26914108 -0.11695385 0.043173596
0.010811331 0.18865803 -0.023537893 0.09013266 -0.12914398 0.011149133 0.04088025 -0.13230942
0.03896007 0.10157172 0.09523281 0.1199231 -0.01937601 0.060882885 0.044223014 -0.12234824
0.08254172 0.070855096 -0.10567382 0.031169267 0.015354249 0.13749686 -0.12089988 -0.03828276
0.05126311 0.055381045 -0.1234645 -0.08607194 0.035356387 0.01792036 -0.019642077 -0.0022521901
0.053697027 0.07132555 0.0022169363 0.036705956 0.043659665 -0.14036569 -0.14074595 0.09278601
0.06430368 -0.0006130442 0.026611082 -0.054672755 -0.039227117 0.010602653 0.011789861 -0.036810983
0.087877825 0.074676745 0.11214795 0.0024331724 -0.05650712 0.023914464 -0.03278757 0.15928075
-0.1265255 -0.0977787 0.05322919 -0.061740734 0.10050815 -0.023511937 -0.030785544 -0.03647245
-0.013174752 -0.040923715 0.059085373 0.1505018 0.04816219 -0.057491716 -0.09478409 -0.15406822
0.17018938 0.08398249 -0.11319311 0.08924447 -0.1104394 0.12386251 -0.10594554 -0.16347635
0.02739601 0.13361004 0.13808522 -0.0835299 -0.1215089 0.040655717 0.0364758 0.10193626
0.07047283 -0.007111718 0.13933243 0.0836545 -0.082309544 -0.046088345 0.016561413 0.072091766
0.060470022 0.17138293 -0.10611888 -0.07014371 0.07863961 0.03302601 -0.0107348515 0.076347105
-0.013288786 0.09010562 -0.01882415 0.14989126 0.16273916 0.09233017 -0.14896207 -0.008126785
-0.07844472 0.14061676 0.015904153 0.11005315 0.007150248 0.0152746085 -0.08970837 0.056653664
0.048025746 -0.08785884 0.14471284 -0.09908226 0.038006518 0.055447415 -0.04316365 -0.0017081194
0.09996202 -0.19585338 -0.034872435 0.0043502664 0.13573 0.10198319 -0.13811521 -0.04819988
-0.035791304 0.11912542 -0.11381241 -0.023152074 0.07891367 -0.059744384 0.011258908 0.091236174
0.1660067 -0.099924736 -0.015510673 -0.053207513 0.051256884 0.008081339 0.016211305 0.08519044
-0.1872825 -0.10126845 -0.076149024 0.1493355 0.05520827 0.017581647 -0.034749385 -0.04980141
-0.019738844 0.0037787629 -0.033508133 -0.004546603 -0.102028996 0.054730713 0.12886001 0.05750223
-0.10806133 -0.0335839 0.029002521 -0.048699252 0.13208188 -0.100619905 -0.10464903 0.037457146
0.046558212 0.08534724 0.17055845 -0.08520709 -0.027033454 0.0803197 0.13586384 -0.042240106
-0.10301111 -0.14591475 -0.12731299 0.083429545 -0.06592138 0.0044669295 0.034118496 0.036436655
0.017396841 -0.08787371 0.1379408 0.059502073 0.02018399 0.003708727 0.025569677 0.047551263
0.07556021 0.046635564 -0.07162125 0.09145463 -0.04089727 -0.1017917 -0.08411021 -0.040550113

lin_pep_2.bias f4 [10]
00000000: b6d6 86be f581 923c 2e72 05be 0930 3ebe
00000010: d238 afbd 5245 8f3d 424f 03be d427 053d
00000020: 5173 67bd dbfb 643d
-0.26335686 0.017884234 -0.13031837 -0.18573011 -0.085557595 0.06995644 -0.12823203 0.032508686
-0.05650646 0.05590425

lin_apt.0.weight f4 [100, 160]
00000000: 4fea 923d cf18 863d 2d92 a83d 4c3a 10bc
00000010: 5185 8abd 7b5e 39bd f3cb 71bc c3a6 663b
00000020: b51e acbc 8e6c 30bd 6f7b 95ba 0030 253d
00000030: 8460 713d 849e 05bd 1442 16bd 2fbf 13bc
00000040: 2a3e 0f3d 406b 173d 837d b0bc 1bfa a83c
00000050: de4b 4bbc 7ee2 35bc e1e6 6dbd 1c6e 5d3d
00000060: 5ba0 6dbd de3e 913c 819d eabc 654f 90bd
00000070: f940 f8bb 7a56 d03c 08f3 80bd efec 1a3b
00000080: 5f2a e2bc a55a 1ebc 324f 01bd e267 6bbc
00000090: 6192 7c3d dd38 8fbd 01bd f8bc 4c01 883d
000000a0: ddcc 96bb 45e2 95bc 34e9 053d 7b8a 0cbd
000000b0: 90b2 043d 2fb3 43bd 0cb0 89bc 3659 633d
000000c0: b84f 933a e5a8 6cbd 7a16 6c3d 6d43 6dbd
000000d0: 542f 6cbb a685 c63a 602a fcbc 3ea6 fd3c
000000e0: 077f 17bc 94eb 353d 46b6 433d 65f1 87bd
000000f0: 16f1 6f3d b673 4c3b 41fa 8d3d e436 363d
00000100: 3ebc cebc c657 5cbc 7ef7 b5bc 0ee0 29bd
00000110: 765e 613d a449 9c3d ba80 343d 792c 8c3d
00000120: b25d d63c 7f5f 853c a9d9 aebc 008a 813d
00000130: 7225 70bd cd84 6f3d bc7f 7bbb 4739 05bd
00000140: 062a 92b8 625b 2e3d f007 6bbd 64dd 85bd
00000150: 758f a3bc c82c 98bd b313 8b3c e81c 6dbd
00000160: b6e5 8dbd b89b 07bd 359d 21bd e863 92ba
00000170: dd4f 5b3d 4283 9dbc 938c bc3c 64b0 fb3c
00000180: 944c c83c ca68 823b b4fb 673c 98d0 373d
00000190: c622 9fbd 1707 efbc 5059 9d3d 51e1 a6bc
000001a0: b20a 3b3d 200e 7cbd 49e4 c73c 5bed 61bb
000001b0: 9d3c 9dbd cecd 9a3c a3a5 1aba 3678 a4bd
000001c0: 0268 c4bc 9fd5 853d 67a8 a63c fbc0 4fbd
000001d0: abc5 2dbd 6bd3 10bd ee3e 03bd fcbd 1f3c
000001e0: 28f4 03bd a069 583d 2b7a 4f3d ea98 503d
000001f0: 496a 9d3b 6786 8b3d 7ac8 74bd 199a 3dbd
00000200: b034 2ebd 4d83 143d 7b10 88bd 13be 38bd
00000210: 0f69 f93c b1b8 963d 49be 633d 379f 063d
00000220: eb69 5fbd 5b7c aa3c eea0 8ebc 49de 04bb
00000230: fe52 d6bb 020a 963d 79b3 653d ccc6 773b
00000240: d9f7 95bd 75f6 6f3d 2709 7c3d 7d81 b53c
00000250: d0ac 9fbd 445e 47bd fb27 483d 8b14 a9bd
00000260: dd3a 103d 68fa 4c3c c1d3 9c3d 3d2d aa3c
00000270: 417f 203d 7c61 e13c 60d7 ecbc a41c 44bd
00000280: 8c90 55bd 4ba0 dabc b1c5 b1bc f886 aabb
00000290: 387c ff3c b282 5f3d 9288 79bc 223d 22bc
000002a0: 85f4 54bd 2ee5 39bd 7173 aebb c78d 46bd
000002b0: 5f36 7abd a378 5dbb e5a4 02bd 441a f9bc
000002c0: c612 f03c c21d ea3c 5d31 a9bd f7d6 493c
000002d0: 199f 433d 89bf a03d a244 b7bd 71b8 1cbc
000002e0: bbc4 0bbd 4e98 1ebd 154f 9abd b741 a43d
000002f0: 7b07 893c 18f6 82bd 57b4 adbd a172 43bd
00000300: 9345 84bd 4020 0e3b 8952 b9bc ab4d 9d3d
00000310: 17b6 a53d 5327 4b3d 19df 3d3d 0f6f 23bc
00000320: 1a1b 5dbd c9c4 27bc 366b 21bd d2ab c13c
00000330: 4287 8b3c ba81 34bd 3871 ccbd a101 05bc
00000340: 95d9 e93c 46cf 053d 5bc9 c8bd cd83 2cbd
00000350: 6b7b 593b 16fc 04bd b542 86bd e9ac 28bd
00000360: fbea 273d e8db 32bc 5d60 123d 03fc c7bc
00000370: c67a 76bd 0895 34bb b922 16bc c8d9 923d
00000380: dd36 5ebb a2f7 7b3d 43ac 98bd 4f10 0ebd
00000390: 3e2e a6bc 861f 17bd 4d37 9939 3838 ad3d
000003a0: 825b a83d 4069 2fbd d640 41bd a939 a73c
000003b0: 70b7 1b3d 6cc7 e5bc 0de9 6ebd c092 3d3d
000003c0: 7dc7 f3bc d580 833d 48fb dcbd f71f 24bd
000003d0: 5003 983c 0776 3bbd 2c17 a0bd af39 833d
000003e0: 07b6 4a3c 3c5b 69bb 7ea3 dcbd 57df a8ba
000003f0: 2b01 05bc 3522 623d 830d bebb ed6d b43c
0.07173597 0.065477006 0.08231006 -0.008802962 -0.06763709 -0.04525612 -0.014758098 0.0035194613
-0.021010736 -0.043072276 -0.0011404584 0.04032898 0.058929935 -0.032621875 -0.03668411 -0.00901775
0.034971394 0.036967516 -0.021544224 0.020627072 -0.012408225 -0.011101363 -0.05808151 0.054060087
-0.058014255 0.017730173 -0.028639557 -0.07046393 -0.0075761047 0.02543186 -0.062963545 0.0023639759
-0.027608095 -0.009665166 -0.031569667 -0.014368029 0.061663035 -0.06993268 -0.030363562 0.06640872
-0.0046020583 -0.01829637 0.032693103 -0.034311753 0.032396853 -0.047778305 -0.016807579 0.055505
0.0011238968 -0.057778258 0.057638623 -0.05792563 -0.0036038952 0.0015146032 -0.030781925 0.03096306
-0.009246594 0.044414118 0.04778125 -0.06637839 0.058579527 0.0031196899 0.06932498 0.04448594
-0.025236245 -0.013448661 -0.02221274 -0.04147344 0.055021726 0.07631233 0.044068076 0.0684442
0.026167724 0.016280888 -0.021344023 0.063251495 -0.05862946 0.058476258 -0.0038375696 -0.032525327
-6.96965e-05 0.04256762 -0.057380617 -0.065363675 -0.019965867 -0.07430416 0.016977167 -0.057888895
-0.069285795 -0.03310749 -0.039456565 -0.001116869 0.05354296 -0.019227628 0.02301625 0.030723758
0.024450578 0.003979777 0.014159132 0.044876665 -0.077703044 -0.029178185 0.07683051 -0.020371111
0.045664497 -0.06153691 0.024400847 -0.003447375 -0.07677577 0.018896963 -0.00058993156 -0.08030741
-0.023975376 0.065348856 0.020343972 -0.05072115 -0.04242484 -0.035357874 -0.032042436 0.009749886
-0.032215267 0.052835107 0.050653618 0.05092708 0.00480393 0.068127446 -0.0597615 -0.046289537
-0.042530715 0.03625803 -0.066437684 -0.045103144 0.030445604 0.07359446 0.055601392 0.032866683
-0.05454437 0.02081125 -0.017410722 -0.0020274094 -0.006540655 0.073261276 0.05607936 0.00378077
-0.07322664 0.05858465 0.061532166 0.022156471 -0.07796633 -0.048673883 0.048866253 -0.082558714
0.035212386 0.012510873 0.07657576 0.020773524 0.03918386 0.027512304 -0.028911293 -0.047878876
-0.052139804 -0.026687762 -0.021700712 -0.005204078 0.031187162 0.054568 -0.015230315 -0.0099022705
-0.051991004 -0.04538458 -0.0053238203 -0.048475053 -0.06108701 -0.003379383 -0.031895537 -0.030408032
0.029305827 0.028578643 -0.082613684 0.012319318 0.04775915 0.078490324 -0.089486375 -0.009565459
-0.034123164 -0.038719468 -0.07534615 0.080203466 0.0167272 -0.06394595 -0.08481663 -0.04771674
-0.06458583 0.0021686703 -0.022622364 0.076808296 0.080913715 0.04959805 0.04635534 -0.009975209
-0.053980924 -0.010239788 -0.039408885 0.0236415 0.01703227 -0.04406903 -0.09982532 -0.008118064
0.028546134 0.032668374 -0.098040305 -0.042117883 0.0033185135 -0.03246697 -0.06555692 -0.041180525
0.04099558 -0.010916688 0.03573643 -0.02441216 -0.06017568 -0.002755465 -0.009163552 0.07170445
-0.0033907213 0.061515458 -0.07454731 -0.03468352 -0.020285722 -0.036895297 0.00029223636 0.084579885
0.08220579 -0.042824984 -0.047180973 0.020413237 0.038016737 -0.028049193 -0.058327723 0.04628253
-0.02975821 0.06421057 -0.107901156 -0.040069547 0.018556267 -0.045766857 -0.0781692 0.06407487
0.0123725 -0.0035607358 -0.10773371 -0.0012883943 -0.008117954 0.055208404 -0.0057999506 0.022025073

lin_apt.0.bias f4 [100]
00000000: 8b6b 17bd dcf4 3f3d de84 01bd d243 873d
00000010: 7a0c a73d fb27 193d 9558 113d 35e1 8cbc
00000020: bd21 023d edd7 32bd 0edc 16bd 951a 0bbd
00000030: 95c3 a1bd 3213 eebb f012 003c bb5f 1e3c
00000040: bae2 9ebc 85f5 8bbc da0a 67bd 0c8d a4bd
00000050: c5ea 963c df89 b1bc 8f9c 02bd f8f1 25bd
00000060: 4a5d 613c 0f4f 59bd 6d3f bf3c bc8c 86bd
00000070: 8e94 873d 7b6d 48ba 06a6 e1bc 9362 0abd
00000080: d149 0fbd 1e81 a03b b600 b93b d899 2ebb
00000090: eaf1 3d3d 34ed 733d 4bbd 0bbd 50f2 2639
000000a0: 45d5 b33d d247 873c 41d1 713d 923b 333c
000000b0: 441c 1fbd eeb3 37bc cfd6 8fbd 79c7 513a
000000c0: e7ab 27bd c880 3a3d 75a3 2fbd 95a4 0bbc
000000d0: ac5d 1fbd 943b e43c 0880 ca3b d8c1 b6bb
000000e0: adc2 66bb 4c2e 2e3d 0a70 833d 461d 67bd
000000f0: 33d3 f63c ef15 10bd 6f21 a73d e6da 3e3d
00000100: f284 b0bc 9869 dd3c 095e a83d fe01 32bd
00000110: 4313 2abd 302e 5a3d 6a5c 54bd 3f03 f8bc
00000120: d4fe d4bc cb02 153c 5b1a 08bd 9225 92bb
00000130: 2a3a 8abd 9a92 b43c 1f0f 553d de65 07bd
00000140: f158 6d3c 95fe 62bd 9b55 3ebd 85be 6a3d
00000150: a94b 80bd 253a 6ebd 166a 993d 9947 bf3c
00000160: 8345 cc3c 369d 7d3d 0cad 1abc b236 2abd
00000170: 41fe 983d c5c2 893d 3b45 7cbd c7e5 623d
00000180: 86c0 d3bc 19da aa3d f248 6abd d77a 13bd
-0.036967795 0.046864375 -0.031620853 0.066047326 0.081566766 0.037391644 0.03548487 -0.01719723
0.031770457 -0.043662954 -0.036830954 -0.033960897 -0.078986324 -0.007265472 0.007817015 0.009666379
-0.019395221 -0.017084846 -0.056406833 -0.08034715 0.018422494 -0.021672187 -0.031887587 -0.040513963
0.013755152 -0.05305391 0.023345673 -0.06569812 0.066201314 -0.00076457084 -0.027544986 -0.033785414
-0.034982506 0.0048982045 0.0056458367 -0.002664199 0.046373285 0.059552386 -0.03411607 0.00015921262
0.08780912 0.016513739 0.05903745 0.010939496 -0.038845316 -0.011212332 -0.07023393 0.0008002441
-0.040935423 0.04553297 -0.042880494 -0.008523126 -0.03890769 0.02786044 0.0061798133 -0.005577307
-0.003521125 0.04252462 0.06417854 -0.0564244 0.030130005 -0.035177168 0.08160674 0.046595477
-0.021547768 0.02702789 0.08221061 -0.04345893 -0.041522276 0.053266704 -0.051845945 -0.030274985
-0.026000418 0.009094904 -0.03322826 -0.004460045 -0.06749375 0.022042561 0.052016374 -0.033056132
0.014486537 -0.05541857 -0.04646836 0.0573106 -0.06264431 -0.05816092 0.074909374 0.02334957
0.02493549 0.061917506 -0.009440672 -0.041556068 0.0747037 0.067266025 -0.06158946 0.055394914
-0.025848638 0.0834238 -0.057198472 -0.03600582
