src/models/model_checkpoints/LinearConv1dModel/LinearConv1dModel_lambda=5_gamma=1e-3.pth (torch_old, 59691 bytes, 9 tensors)

cnn_apt_1.weight f4 [100, 40, 3]
00000000: cbf7 863c 7f9f 433d 26b3 8bbd d4b0 3c3d
00000010: 9592 60bb 9b3b 5cbc 81d1 78bd 26ad a6bd
00000020: 7be9 85bd bfd3 d93b 5a9c 9dba d649 abbd
00000030: dcd6 5dbb 81ca 5d3b 1883 963d e69a 7abd
00000040: fdce 15bc c552 ffbc 0a5b 2ebd 0d26 3abd
00000050: 2c8e f73c 4b0d 22bc 5d6d 8e3d b942 483d
00000060: 3f96 553d 47a9 953d 2756 53bd 5cd4 f23c
00000070: 75d3 a1bb 154b 53bb 31cc 413d f0ff 8dbc
00000080: 8f49 9e3b 9c0b 98bd 3958 cb3c 4cfa 25bd
00000090: 3ff2 3bbd d2f0 1c3d 7a19 e6bc c222 283c
000000a0: f0dc 843c b1e6 bdbd 3d6e 8fbd af58 b1bd
000000b0: 7652 9cbd 5ef1 13bd ecf6 d0bc a075 653d
000000c0: d29f c83c 0842 dcbc b7eb b1bb e689 813d
000000d0: 5706 4cbd 10a0 ef3c b218 c43d 4c59 8d3d
000000e0: b17e a53c daec cc3c df32 80bd fccc 5a3d
000000f0: 682e acbd 4331 70bd 92b1 fa3c eff4 20bd
00000100: b460 e03c c3d1 b8bd 224c 8bbd 5b75 e7bb
00000110: 1620 8f3d f284 a33d cefe 8dbd 5fa0 a2bd
00000120: 8061 1fbd d5c4 f1bb fca7 303d 68d5 0a3d
00000130: a5ea 783d 944f abbd eecc ba3d c1a2 7cbd
00000140: a747 14bd 8392 8bbc 7e57 2b3d 3fa8 b0bd
00000150: c3bf 0c3d 020e b3bc 492d a8bd 31a9 033a
00000160: 5661 b43c 4f8d 8dbd bbbf 60bd 2f26 003d
00000170: e5b2 96bd 6b05 35bd a3ab abbd 16fe 613c
00000180: 84ed 9c3b 5f4e 80bd 5482 303d 1fa7 073d
00000190: 4470 5bbd 5035 92bc 5656 293d 4e3e db3c
000001a0: 7c19 a63d adcb 1f3d be97 98bd 8e9a e5bc
000001b0: 526f 62bd d617 d13b 5c5e 383d 9be8 88bd
000001c0: ff9b 40bd ee3f 87bd 2f1c 65bd 626f 7dbd
000001d0: 4fa7 603d 886d ac3c cc64 b0bd d187 8bbc
000001e0: 0ced 8a3d 9743 ca3d 8a6b aebd 794f 1f3c
000001f0: b4e8 353e 55a1 f23c 3b95 e73c 32a1 083d
00000200: 7e19 83bd 7671 8c3d 4de9 9b3d 952a 77bd
00000210: 2d2f 6a3d ba65 243e 5312 4ebd 87d3 013c
00000220: bbaa 1b3e 5985 58bd d306 893c d3d4 aa3d
00000230: a179 fbbc 7b98 1c3d 0d0a 713d c9dd babc
00000240: 4de8 033c 33d2 c43d fc05 6bbd ba89 bdba
00000250: 7524 0f3e 258c 2c3b 42e4 833c 5fe0 163e
00000260: 0f02 3cb9 fd2b 3dbc 62f2 363e ede7 21bc
00000270: 5537 973d 4f58 213e a7f8 6dbc e748 3abd
00000280: 737e a53d f186 07be 6b7c 273c 4feb bf3d
00000290: 46c4 153c eb0b 8c3d 9d8b 7b3d 8b7c dfbc
000002a0: 9acf 03bd cc4b 0b3e 5739 cabb 4633 cc3d
000002b0: d7c8 d33d a0eb e8bd 3ace ab3d 5631 783c
000002c0: 2c21 03be 8776 13bc ac94 913b baa2 c1bd
000002d0: 5e4f 2b3d 1f44 423d fb16 0abe c9f7 713d
000002e0: 20aa 183e a4c1 3bbd 780c f03d 4d9c 753d
000002f0: 886b eabd f280 e5bb 5aff 033e ccfe bfbd
00000300: 6be4 44bc ce78 49bc 5453 a3bd 9369 913d
00000310: 5408 043e 089d a0bc af2b f93c e3e0 043e
00000320: 9d1d 78bd a52e 703d 8fe2 9e3d 3d90 acbd
00000330: 00e2 553d 05b9 553d 0aaa 623c 3656 ff3d
00000340: e711 c83d e902 8abd 4b03 8d3d cc0e 2e3c
00000350: 4809 a6bd d351 96bc e01e b03d 779a c6bd
00000360: 452b 5d3d 2f98 243e c6e8 a9bd 3f5c e73c
00000370: c59e f83d 774f 05be c7e6 133d 3d71 fd3d
00000380: 1953 b7bd 10f1 363b 0dd7 e93d 9393 5bbc
00000390: a192 a63d f3ff e83d 7b02 c8bd 967e cebc
000003a0: 1e5a 863c c1ed 02be afa3 12bd 25a4 7ebc
000003b0: c09d 04bd e128 913d 4bd6 ee3d ff6b 40bd
000003c0: 12a2 f4bc 63c1 debd 6d46 06bc 3e09 463d
000003d0: 13a6 d7bd 6fae 803d eec0 423d def9 fbbd
000003e0: f40c 883c 5d56 783d a74a bdbd 548f 5cbc
000003f0: aa28 a2bb 7bb6 0dbd 0c1b 96bc fe1e dabc
0.016475579 0.04775953 -0.06821279 0.046067074 -0.0034267057 -0.013441945 -0.060746673 -0.08138494
-0.065386735 0.0066475566 -0.0012024746 -0.083636925 -0.003384999 0.0033842626 0.07349223 -0.06118288
-0.009143588 -0.031167397 -0.04256729 -0.045446444 0.03021916 -0.009890865 0.06954453 0.048891757
0.05214524 0.07307678 -0.051595833 0.029642276 -0.0049385377 -0.0032240797 0.047313873 -0.017333955
0.004830546 -0.07424089 0.024822341 -0.040521905 -0.04588532 0.0383156 -0.02808832 0.010262193
0.016218632 -0.092725165 -0.07003448 -0.08659493 -0.07632916 -0.036118858 -0.025508367 0.05602038
0.02449027 -0.026886955 -0.0054297107 0.0632513 -0.049810734 0.029251128 0.09575023 0.06901798
0.020202013 0.025015283 -0.06259703 0.053418145 -0.08407289 -0.05864073 0.03060225 -0.039296087
0.027389862 -0.09024384 -0.068016306 -0.0070635504 0.06988542 0.07984342 -0.06933366 -0.079407446
-0.038911343 -0.0073782005 0.043128952 0.033894926 0.06077065 -0.08364788 0.091211185 -0.06167865
-0.036201145 -0.017037636 0.041831486 -0.086258404 0.034362566 -0.021857265 -0.082117625 0.0005022465
0.02201907 -0.06911718 -0.05487035 0.031286415 -0.0735834 -0.04419462 -0.083823465 0.013793489
0.0047890563 -0.06264948 0.04309304 0.033118363 -0.05357386 -0.017847687 0.041342102 0.026763108
0.081103295 0.0390126 -0.074508175 -0.028027799 -0.055281945 0.0063810153 0.045011863 -0.06684991
-0.04702377 -0.066039905 -0.05593508 -0.0618738 0.054847058 0.021048322 -0.086129755 -0.017032536
0.06783494 0.09876173 -0.08516605 0.009723538 0.1776455 0.029617945 0.0282694 0.033356853
-0.064013466 0.068575785 0.07612858 -0.060343344 0.057173897 0.1605443 -0.050310444 0.007923967
0.15201847 -0.052861545 0.016726887 0.08341374 -0.030697646 0.038231354 0.058847476 -0.022810834
0.00805099 0.09610405 -0.057378754 -0.0014460601 0.13978751 0.002632865 0.016100053 0.14734028
-0.00017929844 -0.011546132 0.17865899 -0.009881956 0.073836006 0.15756343 -0.014524615 -0.04547968
0.08080759 -0.1323507 0.010222535 0.093710534 0.0091410335 0.06838211 0.061412442 -0.027281066
-0.032180406 0.13603133 -0.006171386 0.09970717 0.103410415 -0.11373067 0.08388944 0.015148481
-0.12805623 -0.009000427 0.004442772 -0.09454866 0.041823737 0.047428247 -0.13485329 0.059074197
0.14908648 -0.045838967 0.11721128 0.059963513 -0.11446291 -0.007003897 0.12890378 -0.093747705
-0.01201735 -0.0122968685 -0.07974878 0.07100215 0.12893802 -0.019606128 0.030416338 0.12976412
-0.060575116 0.058638234 0.07758056 -0.08425949 0.052217484 0.0521784 0.013834486 0.12467615
0.097690396 -0.06738836 0.06885394 0.010623645 -0.08107239 -0.018349564 0.08599639 -0.096974306
0.053996343 0.16073678 -0.08296351 0.028242229 0.12139658 -0.13018595 0.03610876 0.12375114
-0.089513965 0.002791468 0.11417971 -0.013401884 0.08133436 0.113769434 -0.09766098 -0.025206845
0.016400393 -0.12786008 -0.035800632 -0.015542065 -0.032377005 0.07087875 0.11661967 -0.046977993
-0.029862437 -0.10876729 -0.008195502 0.048348658 -0.10529723 0.062832706 0.047547273 -0.12303518
0.016607739 0.060629237 -0.092427544 -0.013461906 -0.004948695 -0.034597855 -0.018323444 -0.026626106

cnn_apt_1.bias f4 [100]
00000000: c148 e33c 8421 c8bb 0f78 f5bd d52e 80bd
00000010: 0673 473d 124a 95bc 604f 74bd 5c77 a83c
00000020: 9435 89b9 d09a 9cbc 2a50 6ebd 0234 63bc
00000030: 8a02 b3bc 88ef d23c d36d 023d 41ab 7a3c
00000040: 8220 b6ba 7521 053e e4a9 d5bb 2edd 463d
00000050: e88a 4cbb fa3c 183d 9c8d 2b3b aacc 49bd
00000060: 2c86 07bd 673b 2dbc 6c72 4f3d 6a77 dc3d
00000070: 6da8 dbbd f3a2 323d 5e1b 89bd 40c3 65bd
00000080: c6b2 4c3d 2e7f e83c 20b5 853d 9d53 97bd
00000090: 8534 cdbd 236d 11bd f9b3 fa3b 9299 f03c
000000a0: be3d 33bb 1193 50bd 9983 f5bc a258 e8bd
000000b0: 32c3 8e3d e2d9 18bc 2777 3ebc 015f 073c
000000c0: 33c0 adbd 6610 24bd e8cf 093c bcd5 1d3d
000000d0: 4c30 71bd f311 363d 1b19 74bd 34a0 f93c
000000e0: 2596 ca3d 65bb 29bd 5ea1 ebbc acc9 153d
000000f0: 0420 c6bd 2660 aebb 315c 85bd 91f7 19bd
00000100: d826 1d3d e16e 143d 6310 23be 202e 4b3c
00000110: 4a5b b4bd 2e0b f5bc c4c8 c6bc fd73 963b
00000120: e9d3 46bc 8a57 9cbd dd29 2dbc e872 a93b
00000130: 30db 763c c0cb 9f3b 20d6 77bd fa3c f53b
00000140: 7c8f 0fbd 592d 5ebc e255 dbbd b210 9d3c
00000150: 8ffe 11bc 7663 3ebd b4b8 263d e3fc bebc
00000160: 4c1a 903b aa1b 123c 1927 81bd 06ee 7ebd
00000170: e71b 973d 95fd 293d 36ae b3bd 8733 073d
00000180: 7429 903d c761 acbd 6416 b23c 8aec 89bc
0.027744653 -0.006107511 -0.1198579 -0.062589325 0.04869368 -0.018223796 -0.05964601 0.020564727
-0.00026170595 -0.01911679 -0.05818192 -0.01386738 -0.021851797 0.025748983 0.031843018 0.015299619
-0.0013895186 0.13001044 -0.0065204967 0.048550777 -0.0031210724 0.037167527 0.0026176935 -0.04926745
-0.03308694 -0.010573245 0.05064623 0.10764964 -0.10725484 0.04361243 -0.06694673 -0.056094408
0.04997518 0.028380957 0.065286875 -0.07388995 -0.10019783 -0.03550447 0.007650849 0.029370103
-0.0027350034 -0.050921503 -0.029969977 -0.1134503 0.06970824 -0.009329291 -0.011625088 0.008262397
-0.08483925 -0.0400547 0.008411385 0.03853391 -0.05888395 0.04445071 -0.059594255 0.030471899
0.09891919 -0.04143848 -0.02876347 0.036569282 -0.09674075 -0.0053215204 -0.06511725 -0.037589613
0.038367122 0.036238555 -0.1592422 0.012401134 -0.088064745 -0.029912557 -0.024265654 0.0045914636
-0.012135484 -0.07633884 -0.010569063 0.0051711686 0.015066907 0.004876584 -0.06050694 0.0074840756
-0.035048947 -0.013560616 -0.1070974 0.019173 -0.008910789 -0.046481572 0.04070349 -0.023313945
0.004397666 0.008917728 -0.063062854 -0.062238716 0.07378369 0.0415016 -0.087734625 0.033008125
0.070391566 -0.08417087 0.021739192 -0.016836423

cnn_pep_1.weight f4 [50, 8, 3]
00000000: 6079 fc3d 697b 83bc c13e cf3c 58b5 aa3c
00000010: f38e 673c 236c f33d b4b8 ea3d 3628 b23b
00000020: 4561 b9bd 70ed 413e f96f 25bd c1db f23d
00000030: 7f96 2c3e 2d65 cabd 5089 eabd 0ca8 15bd
00000040: a653 52bd 7b12 a2bd 04cd 2abd 0b95 6c3e
00000050: ea73 21be b090 433d 21ac 8c3e b1ba 233c
00000060: 52e4 aa3d cf02 d83d 4d5b 183d ecb4 473e
00000070: 1bfc d9bd e56e 9cbd 9a32 723e b1b8 103e
00000080: 19b7 5cbd 25c0 0c3e 0e8c b9bd d924 0fbc
00000090: cac9 46bc e49a aabd f281 973d 80a5 e5bd
000000a0: 0647 9f3d efc0 0f3d 09f7 d83d a126 593c
000000b0: c3e1 edbd 5e47 a73c a0f7 e33c 3f98 25be
000000c0: 0127 b83c 4d6f 5dbd 9545 6cbd dfc1 853c
000000d0: 8286 abbd d431 b3bd fd79 11be 65bf 29be
000000e0: 0f1b 143e 9271 1a3e 32b9 f0bd fd69 d73d
000000f0: 1592 d53c 8dd4 423d cb44 48be bb35 03be
00000100: e314 90bd 98f5 d83d 346b 583e e649 3ebe
00000110: bfbf 4bbe 79b2 1a3e 548d 5dbd 79c2 723e
00000120: 6135 93bd 3bdf 1abe a4ed 43be fa60 643e
00000130: 9332 943a f3b9 3d3e 900f e63d aa1e fabd
00000140: 6999 1c3c 2285 3c3d c373 d0bc 4ff3 933c
00000150: 995e 38be 0cfa 66be 1143 8f3e de14 433e
00000160: bc42 a8bd cd1e 01be 9666 473d 4c88 65be
00000170: 008f 263e cb0a a73d 14a0 b3bd 425a d43d
00000180: 93b2 a6bd 03d4 db3d 347b ad3d a6c9 073e
00000190: 14dc 313e e695 303e cb83 37be 3de4 e63b
000001a0: e550 b63d 351c 80bc e21f d13d 1637 45bd
000001b0: 3ce2 cbbd 0fe0 123e f6e4 1c3e 7dbb ed3c
000001c0: 0dd8 f33b 23dd 58be 3d5b 6e3e f1f8 e9bb
000001d0: 5191 c4bd 6858 4f3e 4c75 263e 8a8e 8fbd
000001e0: dccd 08bd 1032 8bbc bea4 7d3d 16ff 913d
000001f0: 032a 09be 303e 1dbe 29ad 373e a576 48be
00000200: 4fe6 1cbd 87ea 80bd e8a7 733c 91d1 45be
00000210: 1995 623e cc22 2fbe 1341 373d 24ee d7bc
00000220: 7ad6 45be 5313 073e e079 dfbd ae10 b0bd
00000230: db64 203e 013e f13d ee6b a23d 525d fd3c
00000240: f931 26bd d22a a5bd ebde 103e 236d 44bd
00000250: fe10 133d 6c1a 383e de8f 2f3e f5c5 06bd
00000260: 0d48 063e 020f 813e 8cf6 6c3e d57d 543e
00000270: 7c1c e53b c544 363e 2a23 8a3d 73dc 553e
00000280: 79d9 883d 1cc7 5d3e 4e35 df3d 35e2 263e
00000290: ef21 5f3e 6bc6 4cbd aae6 0d3e d579 f0bd
000002a0: 0924 a9ba 071a 933c da7d f83d ada1 9d3e
000002b0: 49a2 f63a f94d bb3d 4a80 213d be9a 95bd
000002c0: 9bcb d03d aba4 593e 8011 3ebe b203 373e
000002d0: cd86 573d 2e3d cfbc f77f 76bd a056 afbd
000002e0: b363 56be 1801 cc3d 4a66 ab3d e849 5a3d
000002f0: 99e5 8abd c397 553e 74cf 21be 9e5e 9cbc
00000300: be8b b43d 2ad1 0d3d 73cf 30bb 4b88 b83d
00000310: 2668 23be 3c08 2c3c 7557 db3d 0de1 38bd
00000320: a1a6 40bd 5e35 3dba 558b ae3d 9153 35be
00000330: 34a6 5fbd aa55 673e 7e7a 313d 1baa 4b3e
00000340: 6bd0 2d3e c289 68bd 2b75 09bd 23f4 d33d
00000350: 9625 483d c5fd 483e 888a 163e d77a 06be
00000360: f7da 48be e4ac d5bc ec35 cdbd b823 05bd
00000370: 9402 fcbd 0fed 00be ffe5 17be 886a 36bd
00000380: fb2d a5bd 0925 d13d 7100 50be 51a9 49be
00000390: cd3b 073d 1a18 f33c 7472 0f3c 9d96 163e
000003a0: 94c0 48be 5212 e73d 5bb4 cbbd 54f7 27be
000003b0: 497d 59bd 274f 1f3e ae3d 2c3d 7370 4cbd
000003c0: 65af d73c f375 f23c fffd 933d 0f00 963e
000003d0: 682d 1a3e 1e3e b23d 6ec4 43bd 53dc 223e
000003e0: b9b5 5bbe 6cec 243e 82b8 8f3c e4a0 153d
000003f0: d7ee 893e c81a 623e cafd aabc bd0a fa3d
0.12327838 -0.016050057 0.025298478 0.020838425 0.014133203 0.1188586 0.114610106 0.0054369224
-0.09051756 0.18938231 -0.04038999 0.11858321 0.16854285 -0.09882579 -0.114519715 -0.036537215
-0.051349305 -0.07913681 -0.041699424 0.2310373 -0.15766874 0.047745407 0.27475074 0.009993241
0.0834433 0.10547411 0.037196446 0.1950261 -0.106437884 -0.07638339 0.23652115 0.14132954
-0.053885553 0.13745172 -0.090599164 -0.0087368125 -0.012133071 -0.08330324 0.07397832 -0.11213207
0.077772185 0.035096105 0.10593993 0.013253839 -0.11615326 0.020419773 0.027828038 -0.16171359
0.022479536 -0.054061223 -0.057683546 0.016327797 -0.08375265 -0.08749738 -0.14206691 -0.16576917
0.14463447 0.15082386 -0.11754073 0.105182625 0.026070634 0.047565985 -0.19557492 -0.12813465
-0.07035234 0.10593718 0.21134645 -0.18582878 -0.19897364 0.15107144 -0.05408986 0.23706998
-0.071879156 -0.15124218 -0.19133621 0.22302619 0.0011306576 0.18527965 0.11233437 -0.1221288
0.00955806 0.046025403 -0.025445824 0.018060355 -0.18004836 -0.22556323 0.27980855 0.19050929
-0.082158536 -0.12609406 0.048681818 -0.22415274 0.16265488 0.081563555 -0.08770767 0.10368778
-0.08139529 0.107337974 0.08470765 0.13260517 0.1736911 0.17244682 -0.17921369 0.007046251
0.08902148 -0.01563845 0.10211159 -0.048148237 -0.0995526 0.14343284 0.15321717 0.029020065
0.0074415267 -0.21178107 0.23276992 -0.007140272 -0.095980294 0.20248568 0.16255683 -0.07009609
-0.033399448 -0.016991645 0.06192469 0.07128732 -0.13394932 -0.15355754 0.17937149 -0.1957651
-0.038305577 -0.062947325 0.014871575 -0.19318224 0.22127189 -0.17103118 0.044739794 -0.026358671
-0.19320098 0.13190965 -0.10911918 -0.085969314 0.15663473 0.117794044 0.07930742 0.030928288
-0.040575 -0.08064808 0.14147536 -0.047955643 0.035904877 0.17978829 0.17144725 -0.03290363
0.13113423 0.25206763 0.23140925 0.20751126 0.006991921 0.17799671 0.06744988 0.20884876
0.066821046 0.21657985 0.10898839 0.16297229 0.21790288 -0.049993914 0.13857523 -0.117419876
-0.0012904416 0.017956747 0.12133379 0.3078741 0.0018816675 0.091457315 0.039428987 -0.07304905
0.10195085 0.21254222 -0.18561363 0.17872503 0.05261879 -0.025297727 -0.06018063 -0.08561444
-0.2093647 0.09961146 0.083691195 0.05329314 -0.067820735 0.20858674 -0.15801793 -0.019088086
0.08815716 0.034623303 -0.0026979118 0.09010371 -0.15957698 0.01050001 0.107100405 -0.0451365
-0.04703391 -0.000721773 0.08522669 -0.1770766 -0.054601863 0.22591272 0.04332971 0.19889109
0.16974036 -0.056772 -0.033559006 0.103493 0.04886397 0.19628055 0.14701283 -0.13132797
-0.19614778 -0.026083417 -0.100200504 -0.032504767 -0.12305179 -0.1259043 -0.1483383 -0.04453519
-0.08065411 0.10212142 -0.20312668 -0.19693495 0.033016015 0.029674578 0.008755315 0.14705892
-0.19604713 0.11282791 -0.099465095 -0.16402942 -0.053097997 0.15557538 0.04205101 -0.049911927
0.026328752 0.029597258 0.0722618 0.2929692 0.15056384 0.08703254 -0.04779475 0.1590436
-0.2145604 0.16105813 0.017544035 0.03653039 0.26940033 0.22080529 -0.02087297 0.122090794

cnn_pep_1.bias f4 [50]
00000000: 4814 5ebe 748b 0dbe f986 2e3d 471d d03c
00000010: a5b9 c1bd 6f1f 89bd b493 2cbe 0a87 323d
00000020: 6d8d 9437 60e6 103d 15e7 abbd c840 063e
00000030: a405 04bd 4faa 893d 8b84 6abd f5f0 c1bc
00000040: 669d e0bc 0beb 24be 78b4 1fbe 3b4d aabc
00000050: 6de9 6bbe 7b15 ddbd abef a2bd 18e7 29be
00000060: aefb f0bc 4db4 37be ab1c d7bd 558c 26be
00000070: b173 01bd a100 abbd ab4b 933d 0c86 703d
00000080: 1d55 1cbd 0f18 7c3d c123 d1bd d06c 06be
00000090: bd91 033e ac93 8dba cb8e bcbc 2a08 463e
000000a0: a4de 843c 57c3 acbd 7b88 ebbd 559d 7dbd
000000b0: cb45 22bd 1c59 ba3d 0b3b d03c cb0f 1cbd
000000c0: 9c85 adbc 4db2 06bd
-0.21687424 -0.13822728 0.04260919 0.025404586 -0.09459237 -0.066954486 -0.1685322 0.043585815
1.7708831e-05 0.035375953 -0.08393685 0.1311065 -0.03223194 0.06721937 -0.05725531 -0.023674468
-0.027418803 -0.16105287 -0.15596187 -0.02078878 -0.23038264 -0.10795113 -0.07955869 -0.16592062
-0.029416885 -0.17939873 -0.10503515 -0.1626447 -0.031604473 -0.08349729 0.07192167 0.058721587
-0.038167108 0.06154638 -0.10211898 -0.13127446 0.12848563 -0.0010801456 -0.023017308 0.19339052
0.016219445 -0.084356956 -0.11500641 -0.06191762 -0.03961734 0.090990275 0.025418779 -0.038101
-0.021181874 -0.032884885

cnn_apt.0.weight f4 [100, 40, 3]
00000000: cbf7 863c 7f9f 433d 26b3 8bbd d4b0 3c3d
00000010: 9592 60bb 9b3b 5cbc 81d1 78bd 26ad a6bd
00000020: 7be9 85bd bfd3 d93b 5a9c 9dba d649 abbd
00000030: dcd6 5dbb 81ca 5d3b 1883 963d e69a 7abd
00000040: fdce 15bc c552 ffbc 0a5b 2ebd 0d26 3abd
00000050: 2c8e f73c 4b0d 22bc 5d6d 8e3d b942 483d
00000060: 3f96 553d 47a9 953d 2756 53bd 5cd4 f23c
00000070: 75d3 a1bb 154b 53bb 31cc 413d f0ff 8dbc
00000080: 8f49 9e3b 9c0b 98bd 3958 cb3c 4cfa 25bd
00000090: 3ff2 3bbd d2f0 1c3d 7a19 e6bc c222 283c
000000a0: f0dc 843c b1e6 bdbd 3d6e 8fbd af58 b1bd
000000b0: 7652 9cbd 5ef1 13bd ecf6 d0bc a075 653d
000000c0: d29f c83c 0842 dcbc b7eb b1bb e689 813d
000000d0: 5706 4cbd 10a0 ef3c b218 c43d 4c59 8d3d
000000e0: b17e a53c daec cc3c df32 80bd fccc 5a3d
000000f0: 682e acbd 4331 70bd 92b1 fa3c eff4 20bd
00000100: b460 e03c c3d1 b8bd 224c 8bbd 5b75 e7bb
00000110: 1620 8f3d f284 a33d cefe 8dbd 5fa0 a2bd
00000120: 8061 1fbd d5c4 f1bb fca7 303d 68d5 0a3d
00000130: a5ea 783d 944f abbd eecc ba3d c1a2 7cbd
00000140: a747 14bd 8392 8bbc 7e57 2b3d 3fa8 b0bd
00000150: c3bf 0c3d 020e b3bc 492d a8bd 31a9 033a
00000160: 5661 b43c 4f8d 8dbd bbbf 60bd 2f26 003d
00000170: e5b2 96bd 6b05 35bd a3ab abbd 16fe 613c
00000180: 84ed 9c3b 5f4e 80bd 5482 303d 1fa7 073d
00000190: 4470 5bbd 5035 92bc 5656 293d 4e3e db3c
000001a0: 7c19 a63d adcb 1f3d be97 98bd 8e9a e5bc
000001b0: 526f 62bd d617 d13b 5c5e 383d 9be8 88bd
000001c0: ff9b 40bd ee3f 87bd 2f1c 65bd 626f 7dbd
000001d0: 4fa7 603d 886d ac3c cc64 b0bd d187 8bbc
000001e0: 0ced 8a3d 9743 ca3d 8a6b aebd 794f 1f3c
000001f0: b4e8 353e 55a1 f23c 3b95 e73c 32a1 083d
00000200: 7e19 83bd 7671 8c3d 4de9 9b3d 952a 77bd
00000210: 2d2f 6a3d ba65 243e 5312 4ebd 87d3 013c
00000220: bbaa 1b3e 5985 58bd d306 893c d3d4 aa3d
00000230: a179 fbbc 7b98 1c3d 0d0a 713d c9dd babc
00000240: 4de8 033c 33d2 c43d fc05 6bbd ba89 bdba
00000250: 7524 0f3e 258c 2c3b 42e4 833c 5fe0 163e
00000260: 0f02 3cb9 fd2b 3dbc 62f2 363e ede7 21bc
00000270: 5537 973d 4f58 213e a7f8 6dbc e748 3abd
00000280: 737e a53d f186 07be 6b7c 273c 4feb bf3d
00000290: 46c4 153c eb0b 8c3d 9d8b 7b3d 8b7c dfbc
000002a0: 9acf 03bd cc4b 0b3e 5739 cabb 4633 cc3d
000002b0: d7c8 d33d a0eb e8bd 3ace ab3d 5631 783c
000002c0: 2c21 03be 8776 13bc ac94 913b baa2 c1bd
000002d0: 5e4f 2b3d 1f44 423d fb16 0abe c9f7 713d
000002e0: 20aa 183e a4c1 3bbd 780c f03d 4d9c 753d
000002f0: 886b eabd f280 e5bb 5aff 033e ccfe bfbd
00000300: 6be4 44bc ce78 49bc 5453 a3bd 9369 913d
00000310: 5408 043e 089d a0bc af2b f93c e3e0 043e
00000320: 9d1d 78bd a52e 703d 8fe2 9e3d 3d90 acbd
00000330: 00e2 553d 05b9 553d 0aaa 623c 3656 ff3d
00000340: e711 c83d e902 8abd 4b03 8d3d cc0e 2e3c
00000350: 4809 a6bd d351 96bc e01e b03d 779a c6bd
00000360: 452b 5d3d 2f98 243e c6e8 a9bd 3f5c e73c
00000370: c59e f83d 774f 05be c7e6 133d 3d71 fd3d
00000380: 1953 b7bd 10f1 363b 0dd7 e93d 9393 5bbc
00000390: a192 a63d f3ff e83d 7b02 c8bd 967e cebc
000003a0: 1e5a 863c c1ed 02be afa3 12bd 25a4 7ebc
000003b0: c09d 04bd e128 913d 4bd6 ee3d ff6b 40bd
000003c0: 12a2 f4bc 63c1 debd 6d46 06bc 3e09 463d
000003d0: 13a6 d7bd 6fae 803d eec0 423d def9 fbbd
000003e0: f40c 883c 5d56 783d a74a bdbd 548f 5cbc
000003f0: aa28 a2bb 7bb6 0dbd 0c1b 96bc fe1e dabc
0.016475579 0.04775953 -0.06821279 0.046067074 -0.0034267057 -0.013441945 -0.060746673 -0.08138494
-0.065386735 0.0066475566 -0.0012024746 -0.083636925 -0.003384999 0.0033842626 0.07349223 -0.06118288
-0.009143588 -0.031167397 -0.04256729 -0.045446444 0.03021916 -0.009890865 0.06954453 0.048891757
0.05214524 0.07307678 -0.051595833 0.029642276 -0.0049385377 -0.0032240797 0.047313873 -0.017333955
0.004830546 -0.07424089 0.024822341 -0.040521905 -0.04588532 0.0383156 -0.02808832 0.010262193
0.016218632 -0.092725165 -0.07003448 -0.08659493 -0.07632916 -0.036118858 -0.025508367 0.05602038
0.02449027 -0.026886955 -0.0054297107 0.0632513 -0.049810734 0.029251128 0.09575023 0.06901798
0.020202013 0.025015283 -0.06259703 0.053418145 -0.08407289 -0.05864073 0.03060225 -0.039296087
0.027389862 -0.09024384 -0.068016306 -0.0070635504 0.06988542 0.07984342 -0.06933366 -0.079407446
-0.038911343 -0.0073782005 0.043128952 0.033894926 0.06077065 -0.08364788 0.091211185 -0.06167865
-0.036201145 -0.017037636 0.041831486 -0.086258404 0.034362566 -0.021857265 -0.082117625 0.0005022465
0.02201907 -0.06911718 -0.05487035 0.031286415 -0.0735834 -0.04419462 -0.083823465 0.013793489
0.0047890563 -0.06264948 0.04309304 0.033118363 -0.05357386 -0.017847687 0.041342102 0.026763108
0.081103295 0.0390126 -0.074508175 -0.028027799 -0.055281945 0.0063810153 0.045011863 -0.06684991
-0.04702377 -0.066039905 -0.05593508 -0.0618738 0.054847058 0.021048322 -0.086129755 -0.017032536
0.06783494 0.09876173 -0.08516605 0.009723538 0.1776455 0.029617945 0.0282694 0.033356853
-0.064013466 0.068575785 0.07612858 -0.060343344 0.057173897 0.1605443 -0.050310444 0.007923967
0.15201847 -0.052861545 0.016726887 0.08341374 -0.030697646 0.038231354 0.058847476 -0.022810834
0.00805099 0.09610405 -0.057378754 -0.0014460601 0.13978751 0.002632865 0.016100053 0.14734028
-0.00017929844 -0.011546132 0.17865899 -0.009881956 0.073836006 0.15756343 -0.014524615 -0.04547968
0.08080759 -0.1323507 0.010222535 0.093710534 0.0091410335 0.06838211 0.061412442 -0.027281066
-0.032180406 0.13603133 -0.006171386 0.09970717 0.103410415 -0.11373067 0.08388944 0.015148481
-0.12805623 -0.009000427 0.004442772 -0.09454866 0.041823737 0.047428247 -0.13485329 0.059074197
0.14908648 -0.045838967 0.11721128 0.059963513 -0.11446291 -0.007003897 0.12890378 -0.093747705
-0.01201735 -0.0122968685 -0.07974878 0.07100215 0.12893802 -0.019606128 0.030416338 0.12976412
-0.060575116 0.058638234 0.07758056 -0.08425949 0.052217484 0.0521784 0.013834486 0.12467615
0.097690396 -0.06738836 0.06885394 0.010623645 -0.08107239 -0.018349564 0.08599639 -0.096974306
0.053996343 0.16073678 -0.08296351 0.028242229 0.12139658 -0.13018595 0.03610876 0.12375114
-0.089513965 0.002791468 0.11417971 -0.013401884 0.08133436 0.113769434 -0.09766098 -0.025206845
0.016400393 -0.12786008 -0.035800632 -0.015542065 -0.032377005 0.07087875 0.11661967 -0.046977993
-0.029862437 -0.10876729 -0.008195502 0.048348658 -0.10529723 0.062832706 0.047547273 -0.12303518
0.016607739 0.060629237 -0.092427544 -0.013461906 -0.004948695 -0.034597855 -0.018323444 -0.026626106

cnn_apt.0.bias f4 [100]
00000000: c148 e33c 8421 c8bb 0f78 f5bd d52e 80bd
00000010: 0673 473d 124a 95bc 604f 74bd 5c77 a83c
00000020: 9435 89b9 d09a 9cbc 2a50 6ebd 0234 63bc
00000030: 8a02 b3bc 88ef d23c d36d 023d 41ab 7a3c
00000040: 8220 b6ba 7521 053e e4a9 d5bb 2edd 463d
00000050: e88a 4cbb fa3c 183d 9c8d 2b3b aacc 49bd
00000060: 2c86 07bd 673b 2dbc 6c72 4f3d 6a77 dc3d
00000070: 6da8 dbbd f3a2 323d 5e1b 89bd 40c3 65bd
00000080: c6b2 4c3d 2e7f e83c 20b5 853d 9d53 97bd
00000090: 8534 cdbd 236d 11bd f9b3 fa3b 9299 f03c
000000a0: be3d 33bb 1193 50bd 9983 f5bc a258 e8bd
000000b0: 32c3 8e3d e2d9 18bc 2777 3ebc 015f 073c
000000c0: 33c0 adbd 6610 24bd e8cf 093c bcd5 1d3d
000000d0: 4c30 71bd f311 363d 1b19 74bd 34a0 f93c
000000e0: 2596 ca3d 65bb 29bd 5ea1 ebbc acc9 153d
000000f0: 0420 c6bd 2660 aebb 315c 85bd 91f7 19bd
00000100: d826 1d3d e16e 143d 6310 23be 202e 4b3c
00000110: 4a5b b4bd 2e0b f5bc c4c8 c6bc fd73 963b
00000120: e9d3 46bc 8a57 9cbd dd29 2dbc e872 a93b
00000130: 30db 763c c0cb 9f3b 20d6 77bd fa3c f53b
00000140: 7c8f 0fbd 592d 5ebc e255 dbbd b210 9d3c
00000150: 8ffe 11bc 7663 3ebd b4b8 263d e3fc bebc
00000160: 4c1a 903b aa1b 123c 1927 81bd 06ee 7ebd
00000170: e71b 973d 95fd 293d 36ae b3bd 8733 073d
00000180: 7429 903d c761 acbd 6416 b23c 8aec 89bc
0.027744653 -0.006107511 -0.1198579 -0.062589325 0.04869368 -0.018223796 -0.05964601 0.020564727
-0.00026170595 -0.01911679 -0.05818192 -0.01386738 -0.021851797 0.025748983 0.031843018 0.015299619
-0.0013895186 0.13001044 -0.0065204967 0.048550777 -0.0031210724 0.037167527 0.0026176935 -0.04926745
-0.03308694 -0.010573245 0.05064623 0.10764964 -0.10725484 0.04361243 -0.06694673 -0.056094408
0.04997518 0.028380957 0.065286875 -0.07388995 -0.10019783 -0.03550447 0.007650849 0.029370103
-0.0027350034 -0.050921503 -0.029969977 -0.1134503 0.06970824 -0.009329291 -0.011625088 0.008262397
-0.08483925 -0.0400547 0.008411385 0.03853391 -0.05888395 0.04445071 -0.059594255 0.030471899
0.09891919 -0.04143848 -0.02876347 0.036569282 -0.09674075 -0.0053215204 -0.06511725 -0.037589613
0.038367122 0.036238555 -0.1592422 0.012401134 -0.088064745 -0.029912557 -0.024265654 0.0045914636
-0.012135484 -0.07633884 -0.010569063 0.0051711686 0.015066907 0.004876584 -0.06050694 0.0074840756
-0.035048947 -0.013560616 -0.1070974 0.019173 -0.008910789 -0.046481572 0.04070349 -0.023313945
0.004397666 0.008917728 -0.063062854 -0.062238716 0.07378369 0.0415016 -0.087734625 0.033008125
0.070391566 -0.08417087 0.021739192 -0.016836423

cnn_pep.0.weight f4 [50, 8, 3]
00000000: 6079 fc3d 697b 83bc c13e cf3c 58b5 aa3c
00000010: f38e 673c 236c f33d b4b8 ea3d 3628 b23b
00000020: 4561 b9bd 70ed 413e f96f 25bd c1db f23d
00000030: 7f96 2c3e 2d65 cabd 5089 eabd 0ca8 15bd
00000040: a653 52bd 7b12 a2bd 04cd 2abd 0b95 6c3e
00000050: ea73 21be b090 433d 21ac 8c3e b1ba 233c
00000060: 52e4 aa3d cf02 d83d 4d5b 183d ecb4 473e
00000070: 1bfc d9bd e56e 9cbd 9a32 723e b1b8 103e
00000080: 19b7 5cbd 25c0 0c3e 0e8c b9bd d924 0fbc
00000090: cac9 46bc e49a aabd f281 973d 80a5 e5bd
000000a0: 0647 9f3d efc0 0f3d 09f7 d83d a126 593c
000000b0: c3e1 edbd 5e47 a73c a0f7 e33c 3f98 25be
000000c0: 0127 b83c 4d6f 5dbd 9545 6cbd dfc1 853c
000000d0: 8286 abbd d431 b3bd fd79 11be 65bf 29be
000000e0: 0f1b 143e 9271 1a3e 32b9 f0bd fd69 d73d
000000f0: 1592 d53c 8dd4 423d cb44 48be bb35 03be
00000100: e314 90bd 98f5 d83d 346b 583e e649 3ebe
00000110: bfbf 4bbe 79b2 1a3e 548d 5dbd 79c2 723e
00000120: 6135 93bd 3bdf 1abe a4ed 43be fa60 643e
00000130: 9332 943a f3b9 3d3e 900f e63d aa1e fabd
00000140: 6999 1c3c 2285 3c3d c373 d0bc 4ff3 933c
00000150: 995e 38be 0cfa 66be 1143 8f3e de14 433e
00000160: bc42 a8bd cd1e 01be 9666 473d 4c88 65be
00000170: 008f 263e cb0a a73d 14a0 b3bd 425a d43d
00000180: 93b2 a6bd 03d4 db3d 347b ad3d a6c9 073e
00000190: 14dc 313e e695 303e cb83 37be 3de4 e63b
000001a0: e550 b63d 351c 80bc e21f d13d 1637 45bd
000001b0: 3ce2 cbbd 0fe0 123e f6e4 1c3e 7dbb ed3c
000001c0: 0dd8 f33b 23dd 58be 3d5b 6e3e f1f8 e9bb
000001d0: 5191 c4bd 6858 4f3e 4c75 263e 8a8e 8fbd
000001e0: dccd 08bd 1032 8bbc bea4 7d3d 16ff 913d
000001f0: 032a 09be 303e 1dbe 29ad 373e a576 48be
00000200: 4fe6 1cbd 87ea 80bd e8a7 733c 91d1 45be
00000210: 1995 623e cc22 2fbe 1341 373d 24ee d7bc
00000220: 7ad6 45be 5313 073e e079 dfbd ae10 b0bd
00000230: db64 203e 013e f13d ee6b a23d 525d fd3c
00000240: f931 26bd d22a a5bd ebde 103e 236d 44bd
00000250: fe10 133d 6c1a 383e de8f 2f3e f5c5 06bd
00000260: 0d48 063e 020f 813e 8cf6 6c3e d57d 543e
00000270: 7c1c e53b c544 363e 2a23 8a3d 73dc 553e
00000280: 79d9 883d 1cc7 5d3e 4e35 df3d 35e2 263e
00000290: ef21 5f3e 6bc6 4cbd aae6 0d3e d579 f0bd
000002a0: 0924 a9ba 071a 933c da7d f83d ada1 9d3e
000002b0: 49a2 f63a f94d bb3d 4a80 213d be9a 95bd
000002c0: 9bcb d03d aba4 593e 8011 3ebe b203 373e
000002d0: cd86 573d 2e3d cfbc f77f 76bd a056 afbd
000002e0: b363 56be 1801 cc3d 4a66 ab3d e849 5a3d
000002f0: 99e5 8abd c397 553e 74cf 21be 9e5e 9cbc
00000300: be8b b43d 2ad1 0d3d 73cf 30bb 4b88 b83d
00000310: 2668 23be 3c08 2c3c 7557 db3d 0de1 38bd
00000320: a1a6 40bd 5e35 3dba 558b ae3d 9153 35be
00000330: 34a6 5fbd aa55 673e 7e7a 313d 1baa 4b3e
00000340: 6bd0 2d3e c289 68bd 2b75 09bd 23f4 d33d
00000350: 9625 483d c5fd 483e 888a 163e d77a 06be
00000360: f7da 48be e4ac d5bc ec35 cdbd b823 05bd
00000370: 9402 fcbd 0fed 00be ffe5 17be 886a 36bd
00000380: fb2d a5bd 0925 d13d 7100 50be 51a9 49be
00000390: cd3b 073d 1a18 f33c 7472 0f3c 9d96 163e
000003a0: 94c0 48be 5212 e73d 5bb4 cbbd 54f7 27be
000003b0: 497d 59bd 274f 1f3e ae3d 2c3d 7370 4cbd
000003c0: 65af d73c f375 f23c fffd 933d 0f00 963e
000003d0: 682d 1a3e 1e3e b23d 6ec4 43bd 53dc 223e
000003e0: b9b5 5bbe 6cec 243e 82b8 8f3c e4a0 153d
000003f0: d7ee 893e c81a 623e cafd aabc bd0a fa3d
0.12327838 -0.016050057 0.025298478 0.020838425 0.014133203 0.1188586 0.114610106 0.0054369224
-0.09051756 0.18938231 -0.04038999 0.11858321 0.16854285 -0.09882579 -0.114519715 -0.036537215
-0.051349305 -0.07913681 -0.041699424 0.2310373 -0.15766874 0.047745407 0.27475074 0.009993241
0.0834433 0.10547411 0.037196446 0.1950261 -0.106437884 -0.07638339 0.23652115 0.14132954
-0.053885553 0.13745172 -0.090599164 -0.0087368125 -0.012133071 -0.08330324 0.07397832 -0.11213207
0.077772185 0.035096105 0.10593993 0.013253839 -0.11615326 0.020419773 0.027828038 -0.16171359
0.022479536 -0.054061223 -0.057683546 0.016327797 -0.08375265 -0.08749738 -0.14206691 -0.16576917
0.14463447 0.15082386 -0.11754073 0.105182625 0.026070634 0.047565985 -0.19557492 -0.12813465
-0.07035234 0.10593718 0.21134645 -0.18582878 -0.19897364 0.15107144 -0.05408986 0.23706998
-0.071879156 -0.15124218 -0.19133621 0.22302619 0.0011306576 0.18527965 0.11233437 -0.1221288
0.00955806 0.046025403 -0.025445824 0.018060355 -0.18004836 -0.22556323 0.27980855 0.19050929
-0.082158536 -0.12609406 0.048681818 -0.22415274 0.16265488 0.081563555 -0.08770767 0.10368778
-0.08139529 0.107337974 0.08470765 0.13260517 0.1736911 0.17244682 -0.17921369 0.007046251
0.08902148 -0.01563845 0.10211159 -0.048148237 -0.0995526 0.14343284 0.15321717 0.029020065
0.0074415267 -0.21178107 0.23276992 -0.007140272 -0.095980294 0.20248568 0.16255683 -0.07009609
-0.033399448 -0.016991645 0.06192469 0.07128732 -0.13394932 -0.15355754 0.17937149 -0.1957651
-0.038305577 -0.062947325 0.014871575 -0.19318224 0.22127189 -0.17103118 0.044739794 -0.026358671
-0.19320098 0.13190965 -0.10911918 -0.085969314 0.15663473 0.117794044 0.07930742 0.030928288
-0.040575 -0.08064808 0.14147536 -0.047955643 0.035904877 0.17978829 0.17144725 -0.03290363
0.13113423 0.25206763 0.23140925 0.20751126 0.006991921 0.17799671 0.06744988 0.20884876
0.066821046 0.21657985 0.10898839 0.16297229 0.21790288 -0.049993914 0.13857523 -0.117419876
-0.0012904416 0.017956747 0.12133379 0.3078741 0.0018816675 0.091457315 0.039428987 -0.07304905
0.10195085 0.21254222 -0.18561363 0.17872503 0.05261879 -0.025297727 -0.06018063 -0.08561444
-0.2093647 0.09961146 0.083691195 0.05329314 -0.067820735 0.20858674 -0.15801793 -0.019088086
0.08815716 0.034623303 -0.0026979118 0.09010371 -0.15957698 0.01050001 0.107100405 -0.0451365
-0.04703391 -0.000721773 0.08522669 -0.1770766 -0.054601863 0.22591272 0.04332971 0.19889109
0.16974036 -0.056772 -0.033559006 0.103493 0.04886397 0.19628055 0.14701283 -0.13132797
-0.19614778 -0.026083417 -0.100200504 -0.032504767 -0.12305179 -0.1259043 -0.1483383 -0.04453519
-0.08065411 0.10212142 -0.20312668 -0.19693495 0.033016015 0.029674578 0.008755315 0.14705892
-0.19604713 0.11282791 -0.099465095 -0.16402942 -0.053097997 0.15557538 0.04205101 -0.049911927
0.026328752 0.029597258 0.0722618 0.2929692 0.15056384 0.08703254 -0.04779475 0.1590436
-0.2145604 0.16105813 0.017544035 0.03653039 0.26940033 0.22080529 -0.02087297 0.122090794

cnn_pep.0.bias f4 [50]
00000000: 4814 5ebe 748b 0dbe f986 2e3d 471d d03c
00000010: a5b9 c1bd 6f1f 89bd b493 2cbe 0a87 323d
00000020: 6d8d 9437 60e6 103d 15e7 abbd c840 063e
00000030: a405 04bd 4faa 893d 8b84 6abd f5f0 c1bc
00000040: 669d e0bc 0beb 24be 78b4 1fbe 3b4d aabc
00000050: 6de9 6bbe 7b15 ddbd abef a2bd 18e7 29be
00000060: aefb f0bc 4db4 37be ab1c d7bd 558c 26be
00000070: b173 01bd a100 abbd ab4b 933d 0c86 703d
00000080: 1d55 1cbd 0f18 7c3d c123 d1bd d06c 06be
00000090: bd91 033e ac93 8dba cb8e bcbc 2a08 463e
000000a0: a4de 843c 57c3 acbd 7b88 ebbd 559d 7dbd
000000b0: cb45 22bd 1c59 ba3d 0b3b d03c cb0f 1cbd
000000c0: 9c85 adbc 4db2 06bd
-0.21687424 -0.13822728 0.04260919 0.025404586 -0.09459237 -0.066954486 -0.1685322 0.043585815
1.7708831e-05 0.035375953 -0.08393685 0.1311065 -0.03223194 0.06721937 -0.05725531 -0.023674468
-0.027418803 -0.16105287 -0.15596187 -0.02078878 -0.23038264 -0.10795113 -0.07955869 -0.16592062
-0.029416885 -0.17939873 -0.10503515 -0.1626447 -0.031604473 -0.08349729 0.07192167 0.058721587
-0.038167108 0.06154638 -0.10211898 -0.13127446 0.12848563 -0.0010801456 -0.023017308 0.19339052
0.016219445 -0.084356956 -0.11500641 -0.06191762 -0.03961734 0.090990275 0.025418779 -0.038101
-0.021181874 -0.032884885

fc1.weight f4 [1, 1100]
00000000: 2fa9 0fbd ebb5 3fbd dba5 493d 86d9 4cbe
00000010: 6fc5 3e3b aa72 8d3e 332c c23e f3b3 983d
00000020: aee0 d6bd a528 173e 230f 413d 67c2 72bd
00000030: 692d b5bc c3b0 78bc ae54 1abc 6fb3 bdbb
00000040: cffb 43bd 36ed e7bd df18 7ebc b365 1cbe
00000050: cd5d 0bbd bb5b d8bd 25ad 953d 9a42 86bd
00000060: 1649 78bd f1de 663e ce03 f43d 5f0d c0bd
00000070: e236 853c 13c7 dd3d 7e99 d9bd f65e d4bc
00000080: d6a2 563d aa41 09be 330b 113d a58f 86be
00000090: f263 57bd 7dc6 4fbd 291c a5bd d0bf e23d
000000a0: 4c26 a8bb fd8f c4bd 82f7 a1bd 5eed 113d
000000b0: 2a2f 533c 832f 12be 4dfa 183e 4b84 bfbc
000000c0: 2b20 e33d d2db 2abe 0d9e 333d 9626 fcbd
000000d0: d7b2 193d f730 96bd 8117 4d3e f250 0cbe
000000e0: 03d2 41be 3ed2 a939 4d97 303d f490 223f
000000f0: 832c 23bd fd15 87bd 3e60 6bbd 4b6a dfbb
00000100: 99b7 10be 0857 073c fef4 acbd e5cd 4e3c
00000110: 2bff c5bc 7a56 053e 42a1 643d ba59 05bc
00000120: d8fd 33bc 82cf 09be 989d 393d b3cd ddbd
00000130: fad8 06bd 15e9 543e e77c febc b981 32be
00000140: 7d71 0f3d 8111 f0bd b393 bd3e a847 733d
00000150: 3cd8 e8bd 1265 223d 5be3 ffbd ab9d 79bd
00000160: d874 2f3c d1ef fe3c 85a0 183f a442 783e
00000170: d24c d13c 4d1c 05be ebc9 cabc e894 c6bd
00000180: be73 503e 77eb 2e3e 0a92 133c 92c3 4dbe
00000190: d7a4 32be fa72 d73d 6fb3 abbd 019b 603c
000001a0: 4e1a 42bd 261d 013e 425d 8b3e c6d4 3c3f
000001b0: 28a4 8a3c b16c e4bd 6f59 b2bc a761 073e
000001c0: a2fc 043e 6c13 3cbe 287c da3d 59a6 983d
000001d0: f73c d13d 6b25 71bd 3c96 eb3d 2a7e a1bd
000001e0: fec2 01be 0ea6 153e a4d8 fb3a 6d45 88bb
000001f0: 7458 64bd 60c9 19bd 6d14 abbd b22e a33d
00000200: 0039 63bd 631a 413d b125 b4bd 204d dd3c
00000210: 4a12 083f e829 993e 0ffa 72bc cdb6 87bd
00000220: 61ba 86bd a221 10bc 1919 5b3e 649d 823d
00000230: b259 44bd d025 9dbd 7ad4 673d f10c 733d
00000240: bca7 a9bd 5033 4cbc 8c49 b03d 074f 953b
00000250: d931 1c3e 8d6e 1abe c567 6cbd b6fe 7bbc
00000260: 85eb 48bd 6f8a 05bd c408 723e 40c9 973d
00000270: 4a02 4cbe 0f96 683d a15d dd3e 7c04 c73d
00000280: f544 673e 4e2b 83bd a416 98bd c796 8e3d
00000290: 1227 a7bc cd1e 0dbd f1a1 86bd bb78 bc3d
000002a0: c590 dfbb 6440 8abd c4a2 fdbc 33bd 423b
000002b0: b587 b5bc 0515 9cbd 6227 583c 2870 943c
000002c0: 0674 123d 03bc 75bd 51ee aa3d 364d 09be
000002d0: d177 b8bc f680 ae3d 53b0 523d 3248 fd3b
000002e0: f1c3 b9bd ea35 1fbd e0cb d4bd c4ca dd3d
000002f0: 6b23 62bd 69cd 41bd 6af3 01bc c151 313f
00000300: 4ef2 83bd 4b16 06bd 0956 3c3e 334e 8c3e
00000310: 3f66 eabd 0abf 2c3e 381d c4bc 0c4f 0fbe
00000320: 0ac9 ad3d e7f7 9bbc 391c ebbb fdb5 783e
00000330: 5096 d63a edab 9abd c4ff 4f3c 157f 30bd
00000340: c63e dfbc 3422 8c3c d5da 74bb 9f65 3dbc
00000350: 86c4 a43b 27c4 1abd 6b89 94bd 26d5 c13c
00000360: fb61 253d c240 b83c 07ab a23d c5bc 5b3c
00000370: 97e9 35bd 4a4f 9f3d 221e 953d 4d8c 523d
00000380: 704a 06bd 8246 d63c 99bc 5b3c 6817 68bc
00000390: d0ea 11bd a5e0 823d a0a6 5c3d 59f1 80ba
000003a0: ed38 55bc 688b 8e3d 2e24 92bd ab4c 8bbc
000003b0: e5c7 543a fab4 febc dc90 0abe 6caa c2bd
000003c0: d175 cb3d e64d 9fbc fa00 f8bd 5964 033d
000003d0: eec4 a23b 61b1 5c3c 2fa8 10bb 8337 49bd
000003e0: 7707 093e 0b52 94bc 3dc5 92bd 3cf6 0abe
000003f0: 2aab 693d f134 60be 4a63 df3d 2e6a 153c
-0.035073455 -0.04680435 0.049230438 -0.20004854 0.0029109379 0.27626544 0.37924346 0.074561976
-0.10492073 0.14761598 0.047133576 -0.059267428 -0.02211638 -0.015178862 -0.009419603 -0.0057892124
-0.047847565 -0.11324541 -0.015508859 -0.1527317 -0.034025002 -0.10564371 0.07308415 -0.06555672
-0.060616575 0.22545983 0.11914788 -0.0937755 0.016261522 0.10828986 -0.106249794 -0.025924187
0.052401386 -0.13403955 0.03541107 -0.26281467 -0.05258555 -0.050726403 -0.08062012 0.110717416
-0.0051315185 -0.09597776 -0.079085365 0.03562676 0.012889663 -0.14275937 0.14939232 -0.023378512
0.1109012 -0.16685417 0.0438519 -0.12312047 0.03752407 -0.07333558 0.20028497 -0.13702753
-0.1892777 0.00032390835 0.04311304 0.6350243 -0.03983737 -0.06595991 -0.05746483 -0.006818091
-0.14132537 0.008260496 -0.08445166 0.012622331 -0.024169525 0.1302127 0.05581785 -0.008139068
-0.010985814 -0.13458064 0.04531631 -0.1083025 -0.03292177 0.20792039 -0.031065417 -0.17432298
0.03502034 -0.117220886 0.37026748 0.05939451 -0.113693684 0.03964717 -0.124945365 -0.06094138
0.01070901 0.031120213 0.59619933 0.24244171 0.025549326 -0.12999077 -0.024754485 -0.0969637
0.20356652 0.1708201 0.009006986 -0.20094135 -0.17445694 0.10519977 -0.083838336 0.013708831
-0.047388367 0.12608775 0.27219588 0.73762167 0.016923979 -0.11153544 -0.02177116 0.13220845
0.12986997 -0.18366784 0.10668212 0.07453603 0.10216706 -0.058873575 0.11503264 -0.07885392
-0.1267204 0.14614126 0.0019214344 -0.004158667 -0.055748418 -0.03754556 -0.08353505 0.07967891
-0.05547428 0.047144305 -0.087962516 0.027014315 0.53152907 0.29914784 -0.014830126 -0.06626663
-0.06578518 -0.008797081 0.21396293 0.06377676 -0.047937103 -0.07673228 0.056599118 0.059338514
-0.08283946 -0.012463406 0.08607778 0.00455654 0.1525339 -0.15081234 -0.05771615 -0.015380552
-0.049052734 -0.032602724 0.23636156 0.07411432 -0.19922748 0.056783732 0.43235496 0.09717652
0.22584899 -0.06404744 -0.07426193 0.06962352 -0.020404372 -0.034453202 -0.065738566 0.09202715
-0.006822678 -0.06750563 -0.030961402 0.0029714822 -0.022159437 -0.07621197 0.013192983 0.018119887
0.03575518 -0.059993755 0.083462365 -0.1340836 -0.02251807 0.08520691 0.051437687 0.0077295536
-0.09070576 -0.038869776 -0.103904486 0.1082969 -0.05520956 -0.047315035 -0.00793157 0.6926537
-0.064427 -0.032736104 0.18392195 0.2740341 -0.11445283 0.1686975 -0.023939714 -0.13994998
0.08485611 -0.019039107 -0.0071749953 0.24288173 0.0016371701 -0.075523235 0.012695257 -0.043089945
-0.027251612 0.017106153 -0.003736188 -0.011559873 0.00502831 -0.03778472 -0.07252773 0.023661207
0.040376645 0.022491816 0.07942777 0.013411705 -0.04441222 0.07778795 0.07281138 0.051403333
-0.032785833 0.026156668 0.013411664 -0.014165737 -0.035624325 0.06390504 0.053869843 -0.0009837552
-0.01301406 0.069601834 -0.07135807 -0.017004332 0.0008116945 -0.031092156 -0.13531822 -0.09505162
0.09934581 -0.019446325 -0.12109561 0.03207812 0.0049673235 0.013470025 -0.0022072901 -0.049125206
0.13381754 -0.018105527 -0.071665265 -0.13570493 0.057048 -0.21895196 0.1090761 0.0091195535
