src/model/model_checkpoints/binary/LinearBaseline/09282020.pth (torch_old, 2119 bytes, 1 tensors)

fc_1.weight f4 [1, 320]
0	0x3cf6a1e0	0.030106485
1	0xbd8adaf2	-0.06780042
2	0xbd182e6d	-0.03715365
3	0x3c8d446c	0.01724454
4	0x3c133499	0.008984708
5	0xbd65f6f8	-0.05614373
6	0xbd411d28	-0.047146946
7	0x3ccb1315	0.024789372
8	0xbc31bb84	-0.01084793
9	0xbd9de640	-0.07709932
10	0xbd90cf32	-0.07070769
11	0x3b4ec8d9	0.003155282
12	0x3d670c88	0.056408435
13	0x393d9c02	0.00018082562
14	0xbbbf17e0	-0.0058317035
15	0x3d8af6a6	0.06785326
16	0xbcf073f0	-0.029352158
17	0xbd9cfdf7	-0.076656274
18	0xbda8770b	-0.08225831
19	0xbc80eba0	-0.015737355
20	0x3c6ba3ab	0.014382283
21	0xbc7a0fd7	-0.015262566
22	0xbd310865	-0.043220896
23	0x3d0d4bf8	0.034496278
24	0xbd01bdf5	-0.031675298
25	0xbd6f8418	-0.058475584
26	0xbda25e13	-0.079280995
27	0xbbf8824a	-0.007583891
28	0xbbcc9c93	-0.006244251
29	0xbcfafb94	-0.03063754
30	0xbd50e8db	-0.05100332
31	0x3c76ebfa	0.01507091
32	0x3beca0ad	0.0072213025
33	0xbbe2cff6	-0.0069217635
34	0xbd589e05	-0.052885074
35	0x3cbe63ad	0.023240888
36	0xbd2aa822	-0.04166425
37	0xbd716dd3	-0.058942627
38	0xbdc147c7	-0.094375186
39	0xbcd801e6	-0.026368093
40	0x3c9adefa	0.018905152
41	0x3b4cdb86	0.0031258776
42	0xbd2eebf8	-0.042705506
43	0x3d0ebb1b	0.034846406
44	0x3c250388	0.010071643
45	0x3ae515dd	0.0017477829
46	0xbd0015a9	-0.031270657
47	0x3d1bf335	0.038073737
48	0xbd21c9a6	-0.039498948
49	0xbd6a2098	-0.05715999
50	0xbdce3760	-0.10069156
51	0xbc1e0b52	-0.009646254
52	0xbb6f6f87	-0.0036534981
53	0xbc1b4c71	-0.009478674
54	0xbd5715a4	-0.052510872
55	0x3d18b19a	0.03727875
56	0x3c667d47	0.014067954
57	0xbc0735e4	-0.008252595
58	0xbd3fc354	-0.04681714
59	0x3d33912a	0.04383961
60	0xbc675419	-0.014119172
61	0xbcd61974	-0.026135184
62	0xbd85ebfd	-0.06539152
63	0x3cd8d11e	0.026466902
64	0x3d12bf87	0.035827186
65	0x3c937091	0.017998012
66	0xbccdda13	-0.0251284
67	0x3d75d1b1	0.06001443
68	0x3c3f8bad	0.011691016
69	0xbb910337	-0.004425432
70	0xbd37fa19	-0.044916246
71	0x3d46b7e1	0.048515204
72	0xbcf16868	-0.02946873
73	0xbd5034a0	-0.050831437
74	0xbda7b71e	-0.08189224
75	0x3c0d465a	0.00862273
76	0xbcf816db	-0.030284336
77	0xbd490383	-0.049075615
78	0xbdb19061	-0.08670116
79	0x3c26dc48	0.010184355
80	0xbae14c09	-0.0017188798
81	0xbcd4d0a9	-0.025978403
82	0xbd40348d	-0.046925116
83	0x3d45af16	0.048262678
84	0xba5138b2	-0.00079811655
85	0xbc940d2c	-0.018072687
86	0xbd72229a	-0.05911503
87	0x3d4c8d97	0.049939718
88	0xbd8550b2	-0.06509532
89	0xbdb08349	-0.08618791
90	0xbddef277	-0.1088609
91	0xbc8bcb11	-0.017064603
92	0xbb98bfef	-0.004661552
93	0xbce05fe0	-0.027389467
94	0xbd6c66dd	-0.057715286
95	0x3d33411a	0.043763258
96	0x3c0d5cd3	0.008628088
97	0xbc56756e	-0.013089521
98	0xbd0d144e	-0.034443192
99	0x3d98f700	0.074689865
100	0x3c4e0cb7	0.012576274
101	0xbcaf41bd	-0.021393651
102	0xbd4c0574	-0.049809888
103	0x3d5c1f1c	0.053740606
104	0xbd3226a2	-0.043493874
105	0xbd8fe946	-0.07026915
106	0xbdcaea7b	-0.09908005
107	0x3c7e79cd	0.015531969
108	0xbb0c74aa	-0.0021431842
109	0xbd20c9da	-0.039255
110	0xbd65f63b	-0.056143027
111	0x3d4d5155	0.050126392
112	0xbc4bb72d	-0.012433809
113	0xbd3d7c83	-0.04626132
114	0xbd6ddc50	-0.058071434
115	0x3d39c24e	0.04535132
116	0x3d03d95d	0.032189716
117	0x3b3876d1	0.0028146992
118	0xbca532e5	-0.02016587
119	0x3dbb1a01	0.09135819
120	0xbc275632	-0.010213422
121	0xbd04a91c	-0.032387838
122	0xbd266615	-0.040624697
123	0x3d7ebf34	0.062194064
124	0xbc39b5d7	-0.011334858
125	0xbd3068a5	-0.043068547
126	0xbd4239c7	-0.047418382
127	0x3d3873b0	0.045032203
128	0xbc2a97c9	-0.010412165
129	0xbd438eea	-0.047743715
130	0xbd4ed9b0	-0.05050057
131	0x3d404573	0.046941232
132	0xbcb7e1ad	-0.022446478
133	0xbd83c4b8	-0.064340055
134	0xbd6bd1bd	-0.05757307
135	0x3d0f9467	0.035053637
136	0x3cf3aa13	0.029744184
137	0x3bce3034	0.0062923674
138	0x3c32fd2d	0.01092462
139	0x3dd1a87f	0.10237216
140	0xbd0ad14a	-0.033891
141	0xbd8f907b	-0.07009979
142	0xbd434930	-0.04767722
143	0x3cf13ba5	0.029447386
144	0x3a841fff	0.0010080336
145	0xbd2e88ac	-0.04261081
146	0xbc22ac29	-0.0099287415
147	0x3d5ffaa2	0.05468238
148	0xbd98564a	-0.07438333
149	0xbde956fd	-0.11393545
150	0xbd935014	-0.07193008
151	0xbce707fc	-0.02820205
152	0xbd222763	-0.039588343
153	0xbd3f28b6	-0.046669684
154	0xbb0cfdcc	-0.002151358
155	0x3d19e470	0.03757137
156	0xbdab86e6	-0.08375339
157	0xbd969036	-0.07351725
158	0x3cf26d7c	0.029593222
159	0xbb784d69	-0.0037887937
160	0x3d47c6a6	0.04877343
161	0x3cce0f56	0.025153797
162	0xbc27f3db	-0.010251011
163	0x3cc25ef6	0.023726922
164	0xbcc9a40c	-0.024614356
165	0x3d9e8466	0.07740097
166	0xbbd4947e	-0.006487428
167	0x3d39bb7b	0.04534481
168	0xbb9cebf2	-0.004788869
169	0xbd1d41b5	-0.03839274
170	0xbbe69170	-0.0070363805
171	0xbd5aecbd	-0.053448427
172	0xbcbf8c5f	-0.023382364
173	0x3cd3c5df	0.025851188
174	0x3c223653	0.009900647
175	0xbd5c3be8	-0.05376807
176	0xbd9eff4a	-0.07763536
177	0x3dad36f9	0.08457751
178	0x3c4f439d	0.012650398
179	0x3da47370	0.080298305
180	0xbd6f1139	-0.058366034
181	0x3cd72fd7	0.026267929
182	0x3d70aff8	0.058761567
183	0xbd813445	-0.06308798
184	0xbdf0f30b	-0.11765107
185	0xbcc702bf	-0.024293302
186	0xbd05e101	-0.032685284
187	0xbc1730c2	-0.009227933
188	0x3cf589c4	0.029972918
189	0x3908a7c1	0.00013032464
190	0xbd01d358	-0.031695694
191	0xbcf5dd9a	-0.030012894
192	0xbd88789d	-0.0666363
193	0xbb0d03ac	-0.0021517081
194	0xbc855766	-0.016277026
195	0x3c8b8076	0.017029028
196	0xbbf166bb	-0.0073669828
197	0x3d99fd0a	0.075189665
198	0xbd9a4c6f	-0.0753411
199	0xbcf34b89	-0.029699104
200	0xbd2602fe	-0.040530197
201	0x3d187e29	0.03722969
202	0x3d1369d4	0.035989597
203	0xbd5739c8	-0.05254534
204	0xbe11a41c	-0.14222759
205	0xbcdbbd10	-0.02682355
206	0x3cb5de65	0.022200773
207	0x3c3ae431	0.011406944
208	0x3ccc61e9	0.024949031
209	0xbc1da329	-0.00962142
210	0x3d46abe9	0.04850379
211	0x3c9c43de	0.01907533
212	0xbb18d957	-0.0023322904
213	0x3acdadbf	0.0015692039
214	0x3d583596	0.05278548
215	0x3d8193ac	0.06326994
216	0xbaf151b1	-0.0018411187
217	0xbb9f35fe	-0.0048587313
218	0xbd53dfbe	-0.05172705
219	0x3c82e84e	0.015979912
220	0xbd9b0b74	-0.07570544
221	0x3c0c02eb	0.008545618
222	0xb89b4470	-7.4037234e-05
223	0xbda9229e	-0.08258556
224	0xbe22265d	-0.15834947
225	0xbd181bbb	-0.03713582
226	0xbd04dd38	-0.032437533
227	0xbbabd027	-0.0052433196
228	0x3d2b2ffb	0.041793805
229	0x3d322f69	0.043502245
230	0xbc73d176	-0.014881482
231	0xbc13734f	-0.00899966
232	0xbc8fd80b	-0.017559072
233	0x3d2942d8	0.041323513
234	0x3c2dfdcc	0.010619592
235	0x3c677455	0.014126857
236	0xbbf06b22	-0.00733699
237	0x3a3dc469	0.0007239045
238	0xbd899056	-0.06716983
239	0xbbe8d40c	-0.007105356
240	0xbd0a92e3	-0.03383149
241	0x3b52c381	0.0032159986
242	0x3c6581e5	0.01400802
243	0xbd3073b1	-0.043079082
244	0xbde12c8b	-0.10994824
245	0x3c8f1008	0.017463699
246	0x3b679256	0.0035335026
247	0x3caccc1b	0.021093419
248	0x3cd904eb	0.026491603
249	0xbc428745	-0.011873071
250	0x3d221eb9	0.03958008
251	0x3c833665	0.016017148
252	0xbd374462	-0.04474295
253	0xbca473ca	-0.020074744
254	0x3d4f00cd	0.050537873
255	0x3d3950e4	0.04524316
