src/models/model_checkpoints/Conv1dModelSimple/lambda=10_gamma=1e-08.pth (torch_old, 84172 bytes, 19 tensors)

cnn_apt_1.weight f4 [100, 40, 3]
000000 c4 1e b4 3d 7e f0 8d 3d b0 04 b8 3d ba c3 e9 bb
       0.087949306 0.06930636 0.08985269 -0.007133928
000010 2d d7 9b bd a0 7a 70 bd 7a 67 c6 bc d5 e8 49 3c
       -0.07609401 -0.058710694 -0.024219263 0.012323578
000020 ad 10 f3 bc 08 6a 57 bd 6b 7b f3 bb 23 d3 6b 3d
       -0.029671038 -0.052591354 -0.007430484 0.057574403
000030 14 71 9b 3d 10 9d 38 bd 27 60 56 bd 24 98 8a bb
       0.07589927 -0.04507166 -0.05233779 -0.0042295624
000040 9f 97 24 3d 5b 60 27 3d 38 2e 0b bd 29 81 01 3d
       0.04018366 0.040863376 -0.033979625 0.031617317
000050 8f ad 7e bc 13 ef 33 bc aa 9c 97 bd 92 ec 85 3d
       -0.015544309 -0.010982293 -0.07402928 0.06539263
000060 f4 d6 83 bd 64 2a ba 3c 2c 23 3b bd 28 9d 9d bd
       -0.064374834 0.022725292 -0.04568784 -0.07695991
000070 12 6e bf bb 84 f6 f7 3c 09 87 ab bd f1 40 d7 3b
       -0.005841979 0.030268915 -0.08375365 0.006569021
000080 54 95 0c bd c8 7d 55 bc f5 bd 26 bd 7e c4 3a bc
       -0.034322098 -0.013030477 -0.0407085 -0.011399386
000090 18 2e a8 3d 89 ba b3 bd b1 e6 30 bd aa e1 9e 3d
       0.08211917 -0.08775813 -0.043188754 0.07757886
0000a0 e2 36 9e bb 50 87 9b bc 51 44 fb 3c ec ed 1d bd
       -0.00482832 -0.01898542 0.030672224 -0.038556978
0000b0 44 8f 19 3d 4d a6 66 bd 89 fc e0 bc 86 15 8f 3d
       0.037490144 -0.05631094 -0.027464168 0.06986527
0000c0 a6 20 12 3c fc de 93 bd c6 a5 60 3d 6f 7d 78 bd
       0.008918917 -0.07220265 0.054845594 -0.060666498
0000d0 48 d8 c1 bb 16 0d 97 b9 77 c5 24 bd f1 57 27 3d
       -0.0059156753 -0.00028810714 -0.04022738 0.04085535
0000e0 ff 3d 14 bc b9 2c 4c 3d 89 fb 3d 3d ae 37 92 bd
       -0.009047984 0.04984734 0.04638246 -0.07139526
0000f0 ac 9f 8b 3d 3e eb 13 3b 18 9d 93 3d 06 b3 68 3d
       0.06817564 0.0022570635 0.07207698 0.056811355
000100 00 0e dc bc 5a 33 94 bc db c5 08 bd 1b 09 31 bd
       -0.026862144 -0.018090893 -0.033391815 -0.043221574
000110 38 d2 90 3d 6e 53 ae 3d 27 82 25 3d b4 f3 a7 3d
       0.07071346 0.08512007 0.040407326 0.082007796
000120 14 93 fd 3c 29 87 68 3c 51 b8 14 bd fa 78 ae 3d
       0.030953921 0.014192381 -0.03630859 0.08519168
000130 63 84 85 bd a4 18 8a 3d 36 6f 3f bc 44 ba 13 bd
       -0.065193914 0.06742981 -0.01168423 -0.03606631
000140 d9 fc f0 b9 b7 ca 65 3d 41 a2 a5 bd 15 f0 90 bd
       -0.00045964753 0.056101527 -0.08087588 -0.07077042
000150 d6 07 89 bc b0 4c b9 bd 5b ba 4a 3c f8 5e 84 bd
       -0.01672737 -0.0904783 0.012373532 -0.06463426
000160 a5 ce a7 bd ff e3 17 bd d4 5b 48 bd eb e6 00 ba
       -0.08193711 -0.03708267 -0.0489157 -0.0004917222
000170 93 92 7a 3d 0f 3f b6 bc e6 b5 94 3c 84 e6 28 3d
       0.06117494 -0.022246866 0.018153142 0.04123546
000180 04 fd c8 3c 79 35 92 3b e3 8e 73 3c 60 1b 5c 3d
       0.02453471 0.004461941 0.01486561 0.053737044
000190 7a d2 a7 bd d9 e7 14 bd ea 45 a5 3d 2d 46 c4 bc
       -0.08194442 -0.03635392 0.08069976 -0.023959244
0001a0 97 94 6c 3d dc 5c 95 bd 98 d7 a6 3c d5 73 30 bb
       0.057758894 -0.07293102 0.020366475 -0.002692451
0001b0 0a 99 af bd 47 62 a7 3c 0c 0f 1f bc 78 75 b5 bd
       -0.08574112 0.020432604 -0.009708177 -0.08860296
0001c0 0f d5 e8 bc da 07 9a 3d 7a d2 95 3c eb 54 64 bd
       -0.028421907 0.07521029 0.01828884 -0.055745047
0001d0 f9 f7 40 bd 9f 9b 2a bd e6 c4 41 bd 2c 9c 8c 3c
       -0.047111485 -0.041652318 -0.047306918 0.017164312
0001e0 56 89 2f bd 9c 0b 85 3d d0 a1 47 3d 8a 15 89 3d
       -0.042855583 0.06496355 0.0487383 0.066935614
0001f0 65 06 d4 3a f2 ed a8 3d 60 83 9c bd a4 bc 49 bd
       0.0016176222 0.082485095 -0.07642245 -0.049252167
000200 43 ce 54 bd f0 b9 2e 3d 29 c9 b1 bd 0d 2d 31 bd
       -0.05195452 0.042657793 -0.086809464 -0.043255854
000210 f9 0d 15 3d 4c f4 ae 3d 39 4f 73 3d 01 9d 1a 3d
       0.03639028 0.0854269 0.059401724 0.037747387
000220 ae 09 84 bd df e4 e2 3c 51 2a 08 bd 0c ee ac 3b
       -0.06447159 0.027697025 -0.03324348 0.005277401
000230 c7 b6 3f bc e2 f5 ae 3d 26 ec 73 3d b2 56 1c 3c
       -0.011701292 0.08542992 0.05955138 0.009542154
000240 d9 c8 b5 bd 30 7a 92 3d 06 3e 80 3d 42 17 fe 3c
       -0.08876199 0.07152212 0.0626183 0.03101695
000250 58 c4 b8 bd 7f 70 78 bd 24 d8 44 3d 96 66 af bd
       -0.090218246 -0.06065416 0.04805769 -0.085644886
000260 2c a0 1f 3d b7 6f 2c 3c b0 de aa 3d ca 02 00 3d
       0.03897111 0.010524682 0.083432555 0.03125266
000270 c9 86 45 3d 2c 76 f1 3c db 80 30 bd 98 23 4b bd
       0.048224244 0.029475294 -0.043091636 -0.04959449
000280 c9 46 b5 bd 46 9d 69 bc 3a 0a b1 3a a0 99 f1 bc
       -0.08851392 -0.014258688 0.0013507076 -0.0294922
000290 73 7d ce 3c d0 1f 83 3d 07 18 f3 3b b7 3f 11 bd
       0.025206303 0.06402552 0.0074186358 -0.035461154
0002a0 8e e7 a2 bd d4 2b 40 bd 54 3f e6 3c 17 1a ae bd
       -0.07954322 -0.046916798 0.02810637 -0.0850107
0002b0 41 c1 b9 bd f9 0b a2 3b 65 7e 18 3b 55 fd 92 bd
       -0.090700634 0.004945275 0.0023268696 -0.071772255
0002c0 f0 7e b0 3c e3 8d 23 3d cc 84 91 bd ba 41 5e bc
       0.021544904 0.039930236 -0.07105407 -0.013565475
0002d0 67 8f 5d 3d b6 c3 a6 3d f8 c1 82 bd f4 f6 48 bd
       0.054091837 0.08142798 -0.06384653 -0.049063638
0002e0 b3 c3 53 bd b5 57 3e bd 81 64 72 bd 2a 76 8f 3d
       -0.051700305 -0.046470363 -0.05917788 0.0700496
0002f0 cd e5 97 bb 71 31 8e bd f4 7a 84 bd 62 f2 9e bd
       -0.0046355487 -0.06943024 -0.06468764 -0.077610746
000300 61 b1 af bd 75 89 ac 3b 0a 7c 1f 3c 51 e4 56 3d
       -0.08578754 0.0052654096 0.009734163 0.052463833
000310 ee b5 9a 3d d2 d4 83 3d 44 b2 a2 3d d3 26 11 bd
       0.075542316 0.06437077 0.07944158 -0.035437416
000320 53 c5 8c bd be 3c 0a bc 0f 16 a1 bc 2e 86 8e bb
       -0.06873574 -0.008437334 -0.019663839 -0.0043494916
000330 55 8f 0e 3b f1 57 52 bd fb 9d 9f bd 47 cf 19 bd
       0.0021752913 -0.0513534 -0.07793804 -0.03755119
000340 e6 68 8c 3c 44 84 3f 3d 99 aa a7 bd 20 e9 a7 bd
       0.017139863 0.046756998 -0.08186836 -0.08198762
000350 69 aa ab bb f1 4f 0f bd b1 66 18 bd da cd b4 bd
       -0.0052388203 -0.034988347 -0.03720731 -0.088283256
000360 dd f3 27 3d d7 f9 7b bc d6 76 93 3d f8 1e 70 bd
       0.04100405 -0.015379391 0.072004005 -0.058623284
000370 e4 df a9 bd 49 9c 9c ba 07 7b b1 3c eb f3 59 3d
       -0.08294657 -0.0011948432 0.02166511 0.053211134
000380 d1 fc 30 bc 66 9d 8f 3d d3 04 4c bd 1f 5e 9e bd
       -0.010802464 0.07012443 -0.04980929 -0.07732796
000390 3b 77 38 bd 8c 64 15 bd ea 88 01 3d aa a1 95 3d
       -0.045035582 -0.036472842 0.031624712 0.073062256
0003a0 16 a1 af 3d 72 e3 31 bd b7 55 b2 bc 9f 92 72 bc
       0.085756466 -0.0434298 -0.021769388 -0.014805465
0003b0 86 06 09 3d 7c fb e5 bc 0c dc 04 bd ad cf 81 3c
       0.033453487 -0.028074019 -0.032436416 0.015846098
0003c0 96 33 6e bd 92 5d a0 3d 9c 91 a2 bd 48 2a a5 bd
       -0.058154665 0.07830347 -0.07937929 -0.08064705
0003d0 63 7c a3 bb 9c 12 84 bd 2a f1 22 bd 32 ed 57 3d
       -0.0049891933 -0.06448862 -0.039780773 0.05271644
0003e0 93 b6 c7 39 b1 95 2a bc e3 8c ad bd a7 86 f4 bc
       0.00038092266 -0.010411666 -0.08474138 -0.029849363
0003f0 e3 fa f9 bc d8 c3 89 3d ba 09 13 3d 44 a6 09 bc
       -0.03051514 0.06726807 0.035897948 -0.008401457

cnn_apt_1.bias f4 [100]
000000 a2 c2 ad 3d a0 6c 0c 3b 40 d6 3b bb 81 2b 0c 3b
       0.08484389 0.002142705 -0.0028661638 0.0021388235
000010 7e b4 a8 3d fc 8c 97 3d d3 43 38 bd 86 9c fc bc
       0.08237551 0.073999375 -0.044986557 -0.030836355
000020 ed 9d 3f 3d 1a f9 18 3a 95 cb 7a 3d 24 ff 85 3d
       0.04678147 0.0005835459 0.061229307 0.06542805
000030 d0 7e 92 3d c6 06 68 3d 9f ca f1 bc 76 f1 fc bc
       0.07153094 0.056647085 -0.029515563 -0.030876856
000040 d4 57 25 bc cc 8a 88 3d 26 f8 05 3d e2 68 38 bd
       -0.010091741 0.066670984 0.032707356 -0.0450219
000050 57 63 32 bd 33 ac bf bc ec b1 d4 3a 44 4d b5 3d
       -0.04355177 -0.02339754 0.0016227341 0.08852628
000060 13 ed 71 3d ba f7 56 bc e8 b9 2b bd 39 f0 01 bc
       0.059063982 -0.013120586 -0.04192534 -0.007930809
000070 6a 43 f8 bc 95 6b 6e bd a2 60 b7 bd f9 c9 72 bd
       -0.030305583 -0.058208067 -0.08953978 -0.059274647
000080 2a 41 b5 bd f4 03 c0 bc ca 7e 1e 3c 4b 34 ed bc
       -0.0885032 -0.023439385 0.009673784 -0.0289556
000090 e0 5a b2 3d 74 29 a9 bd c7 16 5b 3d 46 d9 39 3d
       0.08708739 -0.0825986 0.05348852 0.045373224
0000a0 e6 5b 99 3d 06 57 89 3d fe 56 bb bc 9f 83 2d 3d
       0.07488231 0.067060515 -0.02286863 0.04236185
0000b0 a1 bb 99 bd 58 0d b7 3d 28 5a 92 bd b3 6e fa bc
       -0.075064905 0.08938092 -0.07146102 -0.030570364
0000c0 c3 87 43 3d c1 3d 99 bb 85 e4 05 bd be 09 4b 3c
       0.047736894 -0.004676551 -0.032688636 0.012392459
0000d0 f6 47 72 3d 58 d0 a5 3d 9e 35 0d bd 92 bc 57 3d
       0.05915066 0.08096379 -0.03447496 0.05267007
0000e0 09 bd 3c bd 40 3a e4 bc 98 9b 0c bd 7e 7f 26 bd
       -0.046078715 -0.027859807 -0.034328073 -0.04064893
0000f0 66 63 97 3d e9 c4 a5 bd b8 aa 03 3c 96 22 01 3d
       0.073920056 -0.08094198 0.008036308 0.031527124
000100 2a 21 ba bc d1 9a bd 3c e1 b2 0e 3d 9a 8c a0 bd
       -0.022720892 0.023145111 0.03483856 -0.078393176
000110 62 fb 03 bd 62 30 ac 3c e0 e7 8c 3d 8c 0c b6 ba
       -0.03222216 0.021019164 0.06880164 -0.0013889237
000120 e2 bc 2a 3d a6 e5 c3 bc 83 26 74 3d 27 19 4c bd
       0.04168404 -0.023913216 0.05960704 -0.049828675
000130 52 35 52 bd b4 cf 59 bd 86 6f ab 3c 72 f2 60 3d
       -0.05132038 -0.053176597 0.020927202 0.054918714
000140 da 3a 0e 3c 05 2c 4d 3d df c3 09 3d ae 87 6a bd
       0.0086810235 0.05009081 0.033634063 -0.0572583
000150 90 09 86 bd 11 e3 57 bd 8c 3b a1 3d af 1d 8b bd
       -0.06544793 -0.05270678 0.07872686 -0.06792771
000160 36 0e ed bc 0c 43 b8 3d 61 98 24 3d ec 70 34 3d
       -0.02893744 0.08997163 0.040184382 0.044053003
000170 6c e8 5a 3c 37 e6 a2 3c 36 d8 6e 3d 24 46 0d bd
       0.013361078 0.019885166 0.058311664 -0.03449072
000180 fe 15 8d bd ac f7 b4 3d 9f 13 a9 3b cc 99 85 bd
       -0.0688896 0.08836302 0.0051598097 -0.06523475

cnn_apt_2.weight f4 [50, 100, 1]
000000 2d 61 ac 3d 6a c3 9b bd ce 58 e2 3c a7 10 aa 3d
       0.08416972 -0.07605632 0.027630236 0.083039574
000010 e5 80 22 bd ce 21 d8 bc d3 e7 8d 3d cb 61 73 3c
       -0.039673705 -0.026383307 0.069289826 0.014854859
000020 4f 33 10 bd f6 63 66 bd 03 82 3c bd 89 b0 37 bd
       -0.03520518 -0.056247674 -0.046022426 -0.04484609
000030 87 c2 ca bd 06 83 80 bd 81 6c af bc 9f f5 0e 3d
       -0.099003844 -0.06274991 -0.021414043 0.03490221
000040 3b 92 81 3d 52 80 71 3d 82 03 0c 3c 8a d4 02 bc
       0.063267194 0.058960266 0.008545758 -0.007985244
000050 13 74 12 3d 61 9c 61 3d 17 15 35 3d 4d e1 63 bd
       0.03575523 0.055080775 0.044209566 -0.055634785
000060 1b 0b c3 3c 61 ff 31 bd 01 86 95 3d b6 12 1e bd
       0.023809006 -0.04345644 0.0730095 -0.038592063
000070 36 e7 98 bd 42 4c 3a bd 29 8a 71 3c 03 78 84 3d
       -0.07465975 -0.04548288 0.014742413 0.06468203
000080 c4 05 b0 3b 5b 3d ca 3c 3b 1b 8d bd 1d 80 a9 3d
       0.005371781 0.02468746 -0.068899594 0.08276389
000090 9b 95 4c ba 95 9c 0a bd 4e e3 7f 3d 18 61 de 3c
       -0.00078042754 -0.033840735 0.062472634 0.027145907
0000a0 d4 67 38 bd 82 bc 68 bc c8 71 68 3c 7c cc bf 3c
       -0.045020893 -0.0142051 0.014187284 0.023412935
0000b0 8d 63 b1 3d 9b f3 b6 bd 5a c6 51 bd b5 63 87 3d
       0.08661566 -0.08933183 -0.051214553 0.066108145
0000c0 da 06 08 3c f5 be a4 bd 9d c5 bc bd 1f 54 c6 bd
       0.008302415 -0.08044235 -0.09217379 -0.096840136
0000d0 d1 82 b6 bc 62 4c 1c 3d 1a 9d 9c bd 4a de 9b bd
       -0.022279175 0.03815878 -0.07647152 -0.07610758
0000e0 cb 42 81 3d 81 82 b2 bb 81 38 00 bd 7d 3f f7 bc
       0.06311568 -0.005447686 -0.031303886 -0.03018164
0000f0 d7 b5 02 3c 71 3e 84 3c 5d b2 a4 bd fb 2a a4 bd
       0.007977924 0.016143056 -0.080418326 -0.080160104
000100 1f ef c2 bd 0d 38 88 3d f5 be 18 bc 9e e0 77 bc
       -0.09518265 0.06651316 -0.009322871 -0.0151292365
000110 9d 3e 89 3d f7 62 c6 3d 01 3a a9 3d c2 50 c9 bc
       0.06701396 0.09686845 0.082630165 -0.024574641
000120 c7 65 59 3d 71 44 bd 3d fb ac cc 3c ea cb 0b 3d
       0.053075578 0.0924157 0.024984827 0.034130014
000130 d0 c8 d9 bc e4 29 62 3d eb 6b 6a bd 72 e0 86 bb
       -0.026585013 0.05521573 -0.057231825 -0.0041161114
000140 89 66 91 3d 63 55 92 3b 06 e3 56 3d c9 f4 9c bc
       0.07099635 0.0044657453 0.0524626 -0.019159691
000150 d3 0b b4 bc 98 3e 3f 3d 83 1e 93 bd aa 86 3f 3d
       -0.021978294 0.046690553 -0.07183554 0.046759285
000160 00 06 1d bd c8 7f c5 bd a1 90 8b 3d a2 01 3f bd
       -0.0383358 -0.09643513 0.06814695 -0.046632417
000170 90 20 18 3d e3 0b 97 3d 1a e8 a3 bc bf 82 eb bc
       0.03714043 0.07375314 -0.020008136 -0.028748868
000180 55 76 b6 bd d3 ad 71 bd 8c b5 0a 3d 58 f0 21 3b
       -0.08909289 -0.059003662 0.033864543 0.0024709906
000190 62 34 bf bb 1e 88 9d bd d7 2b 45 bd e1 db 8a bc
       -0.005835102 -0.07691978 -0.048137512 -0.01695055
0001a0 f2 1a 83 3d 13 65 61 3d 1a 40 35 3b c6 2f a2 3c
       0.06401624 0.055028033 0.0027656616 0.01979817
0001b0 9f d3 04 bb 45 d0 2a 3b 00 d2 4d bd 68 e4 a1 3d
       -0.0020267738 0.002606408 -0.0502491 0.07904893
0001c0 7c 5d e6 bc 3e c9 b5 bd 87 7c 01 bb 75 7d 62 bd
       -0.028120749 -0.088762745 -0.0019758062 -0.055295426
0001d0 56 b2 4b 3d 82 55 cd 3c 34 a1 b0 bd fd f6 79 3d
       0.04973062 0.025065187 -0.08624497 0.061026562
0001e0 d7 b3 b3 3d 94 a1 57 bd 43 5d 81 3d 5e c1 bf 3d
       0.08774536 -0.052644327 0.063166164 0.09363054
0001f0 fa 03 b1 3a 0f 33 7a 3b b9 a7 8d bd 12 5c a4 bd
       0.0013505213 0.0038177406 -0.06916756 -0.080253735
000200 3e 27 52 bd 95 31 80 bc f8 94 5e 3c a3 d3 75 bb
       -0.051306956 -0.015648643 0.013585322 -0.0037510179
000210 19 fb ae 3d 16 84 b2 bd 55 61 94 3d 12 0e a7 3c
       0.08543987 -0.087166 0.07245127 0.020392451
000220 cb 1b e8 3c 30 85 81 bb 93 37 c2 3c 95 90 92 bd
       0.028333565 -0.0039526448 0.02370814 -0.07156483
000230 ce 65 c4 bc 8c 65 84 bd 64 97 47 3d 3b 2a f0 bc
       -0.023974326 -0.06464681 0.04872836 -0.029317012
000240 e3 3f d2 bb 44 4b 86 bd 0f 18 89 3d c3 4f c1 bd
       -0.0064163073 -0.065573245 0.06694042 -0.094390415
000250 96 1c 86 3d 0e 5c 28 3d df 2b 4d 3d 7a e8 5d 3d
       0.06548421 0.041103415 0.050090667 0.054176785
000260 63 e5 94 bc a2 ab 8e bd b7 66 e4 3c af 8a 07 bb
       -0.018175786 -0.0696633 0.02788101 -0.0020682027
000270 37 36 9f bd 81 db 98 3d 8e f9 04 3d 95 ef 9b 3b
       -0.077740125 0.07463742 0.032464556 0.004758785
000280 00 4c 32 3d b2 cf 5d 3c dd 76 31 3d 23 5f 2b bd
       0.04352951 0.013538288 0.043326247 -0.041838776
000290 ef 14 83 3d 8a 5c 89 3d 32 89 79 bd 20 8a 4b bd
       0.06400477 0.067071036 -0.060921855 -0.049692273
0002a0 c0 e6 c2 3d 1d 03 b8 3c c7 b9 4d 3d 1f c3 b7 bc
       0.09516668 0.022462422 0.050226 -0.022431908
0002b0 ec b6 ab 3d c2 c6 92 bc 09 77 bd 3d a2 90 64 bc
       0.08384499 -0.01791704 0.0925122 -0.013950499
0002c0 a5 87 af 3d ac 8e 42 bd 58 7c 0c bb 68 ca 04 3d
       0.08570794 -0.047499344 -0.002143642 0.032419592
0002d0 5a 79 8f 3b 4f b9 82 3c 67 43 89 3d cf a0 a3 3d
       0.00437848 0.015957503 0.06702309 0.07989656
0002e0 e7 aa f7 bc 4d ba 14 bd 61 3b 45 3a d3 14 b5 3d
       -0.03023286 -0.036310483 0.0007523802 0.088418625
0002f0 ab 2f 62 3d 85 a5 ca bd cb d9 41 3d e0 d3 b5 bd
       0.05522124 -0.098948516 0.047326844 -0.088783026
000300 da 9a 90 bd 4d ef ac 3d c7 ad b8 3d c0 14 a0 bc
       -0.070607856 0.084440805 0.090175204 -0.019541144
000310 01 0a 42 3d a2 38 89 bc 49 4a bd 3d 47 53 64 bd
       0.04737282 -0.016750637 0.092426844 -0.055743482
000320 2d c4 1d bd 40 17 c1 bc 56 95 05 3d a3 8b b3 bd
       -0.038517166 -0.023570657 0.03261312 -0.08766868
000330 5d bd b0 3d cc 02 80 bd 80 02 23 3a f8 b4 85 bc
       0.08629868 -0.062505335 0.0006218329 -0.016321644
000340 93 1b b4 bd 06 7f 2f 3d 7a c2 00 3d 0a 32 a0 bd
       -0.08794322 0.04284575 0.031435467 -0.07822044
000350 be d8 2f 3d c8 33 90 3c 11 19 b5 3a b6 b0 20 3d
       0.04293131 0.017602816 0.0013816674 0.039231025
000360 05 c9 ab 3d 58 c8 84 bd 3e 4d 1a 3d 93 00 6c bd
       0.08387951 -0.06483525 0.03767132 -0.057617735
000370 96 51 b1 3b 01 c9 a1 3d d1 94 92 3d 60 b4 d1 bc
       0.005411337 0.078996666 0.07157291 -0.025598705
000380 99 fb 85 3d 73 dc b8 bd eb d1 a6 3d 33 21 5c bd
       0.06542129 -0.09026422 0.081455074 -0.0537426
000390 e8 c0 2a 3c 05 90 83 bd 46 9c 9e bd 56 c7 5e 3d
       0.010421969 -0.06423954 -0.077446505 0.05438932
0003a0 e8 57 4b bc 73 3e c5 bd c1 e1 cb 3d 90 4a df ba
       -0.012411095 -0.09631052 0.099551685 -0.0017035771
0003b0 1e 5b 7d 3d ea 23 b3 bd 13 b6 20 bd 12 91 97 bd
       0.061854474 -0.087470844 -0.03923614 -0.07400717
0003c0 aa 33 2e bd 19 be c7 3d 30 4f 7a 3c 4f b6 8e 3d
       -0.04252974 0.09753055 0.015277669 0.06968366
0003d0 dd bf c1 bd ca 75 45 bd fc 92 0c bd 37 d3 95 3d
       -0.09460423 -0.048208036 -0.034319863 0.07315677
0003e0 1b c4 cb bd 07 42 bc bd b9 c5 c3 3d 0e 34 07 3d
       -0.099495135 -0.09192281 0.09559197 0.033008628
0003f0 2b 0a c8 3d 42 31 49 3d 2a da 78 3d 91 d8 c4 3d
       0.097675644 0.04911924 0.060754932 0.09611619

cnn_apt_2.bias f4 [50]
000000 af dc bd 3d 26 07 2f bd fa 44 54 3d ec 62 04 3d
       0.09270608 -0.042731427 0.051823594 0.0323209
000010 43 2b b5 bd 7a f9 4e bd 05 9a 59 bc fb 44 b6 bd
       -0.08846142 -0.05053089 -0.01328135 -0.08899876
000020 c5 bf c8 bd 63 e9 89 3d 65 14 a2 3c 7c bd 92 3c
       -0.09802202 0.06733968 0.019785115 0.017912619
000030 1b 35 aa 3d f9 65 60 bd 2d 8c e7 bc b0 31 32 bc
       0.0831091 -0.05478475 -0.028265083 -0.010876104
000040 08 a6 30 bd b9 db 37 3b 80 08 44 bd 59 39 c5 3d
       -0.04312709 0.002805455 -0.04785967 0.09630079
000050 5a 31 84 3c a1 34 97 3c af 2b f8 b9 d1 76 92 3d
       0.016136814 0.018457713 -0.00047334793 0.07151569
000060 26 8a 06 bd d1 23 5c 3c f5 2a b1 bd 20 70 87 3b
       -0.032846592 0.013436274 -0.086507715 0.0041332394
000070 63 5f 4e bd ff 36 97 3d 3e a5 9a bd 4b b8 46 3d
       -0.050383937 0.073835365 -0.07551049 0.0485156
000080 9b 21 96 bd c2 6e ce 3b 92 8f cb bd 1c dc 85 bd
       -0.073306285 0.0062998245 -0.09939493 -0.06536123
000090 e6 d9 83 bc 00 82 9a bc d5 6e 88 bd d2 d5 c7 3c
       -0.016095113 -0.018860817 -0.066617645 0.02439395
0000a0 90 4a 1b bd da e3 24 3c 37 84 03 bc 5a f7 0b bd
       -0.037912905 0.01006409 -0.008027128 -0.03417144
0000b0 26 c0 4a 3d 04 41 ba 3d 05 57 97 bd 4e e6 75 bd
       0.049499653 0.09094432 -0.073896445 -0.06003409
0000c0 d2 c9 8c 3c 00 f8 2f bc
       0.01718608 -0.01074028

cnn_pep_1.weight f4 [50, 8, 3]
000000 92 d6 9b bd ec 37 37 3e 6a 53 2b 3e 32 8f 4d 3e
       -0.076092854 0.17892426 0.16731039 0.20074156
000010 00 1e 32 be 04 54 14 3e f4 3a fb 3d 97 47 24 be
       -0.17394257 0.14485174 0.12267104 -0.16042934
000020 aa 01 1a 3e 18 36 85 bd 29 b5 ac 3b 32 1e 19 be
       0.15039697 -0.06504458 0.0052706194 -0.14952925
000030 00 d3 c2 3d 2c 57 d7 3d b7 2c ce bd 3e 77 3b 3e
       0.09512901 0.105146736 -0.100671224 0.18307206
000040 ac 89 8a 3d fb af e9 bd 10 f5 2b 3e 54 16 4c bd
       0.0676454 -0.11410519 0.16792703 -0.04982598
000050 a0 c2 1c be 6a b2 45 be de a7 d9 3c a6 5b 26 3e
       -0.15308619 -0.19306341 0.026569303 0.16245899
000060 1b b7 a6 bd a8 63 ec 3c 68 60 5c 3d fc 10 87 3d
       -0.08140393 0.028856114 0.053802878 0.065950364
000070 2a 49 24 3e e4 e2 a5 3d 03 90 50 bb c8 16 50 3e
       0.16043535 0.080999166 -0.003182412 0.2032119
000080 00 6a 13 be e1 eb e9 bd e3 34 f9 bd 65 b9 47 be
       -0.14395905 -0.114219435 -0.121682905 -0.19504316
000090 68 a5 6f 3d e2 6d 23 3e c4 b4 0d 3e c4 3c 79 bd
       0.058507353 0.15959886 0.13838488 -0.060848966
0000a0 eb 8a 9f bc 4c 19 fb 3d 70 fc fe 3d d0 ee c3 3d
       -0.019475421 0.12260684 0.124504924 0.09567034
0000b0 20 9c 3c 3d cb 67 c6 bd a0 61 01 3e 8c b4 c3 3d
       0.04604733 -0.09687766 0.12634897 0.09555921
0000c0 5b 76 31 be f4 4f 43 3e e4 69 6a bd 54 1a d5 3d
       -0.17330305 0.19073468 -0.05722989 0.10405412
0000d0 f6 9c 08 be 5c 99 43 bd 8b e8 16 be e0 b6 46 bd
       -0.13341126 -0.047753677 -0.14737146 -0.048514247
0000e0 06 b9 31 3e 44 0c 0c 3e 18 fb b7 3d 29 ee 2f 3c
       0.17355737 0.13676554 0.08983439 0.010737934
0000f0 90 af 0d bc b8 19 a2 3d 74 84 17 3e 40 85 90 bd
       -0.008647814 0.07915062 0.1479662 -0.070566654
000100 f0 41 ca 3d 56 2b 10 bd 9a dd f6 bd d3 91 2c be
       0.09875858 -0.03519758 -0.12053986 -0.16852503
000110 75 41 ca bd 48 eb a7 3d 04 d8 db bd 78 e8 78 3d
       -0.09875766 0.08199173 -0.10734561 0.060768574
000120 96 3a a3 bd 4b a7 4d be 2e 40 3a 3e 3d df 53 3d
       -0.07970159 -0.20083348 0.18188545 0.05172657
000130 87 da a5 3c 86 9c 49 be 9a 56 fb bc 7c 0c 0c 3e
       0.020245804 -0.19688615 -0.030680943 0.13676637
000140 50 c8 ac bd bc 7c 95 bc 79 d0 13 be 8a f6 6c 3d
       -0.08436644 -0.018247955 -0.14434995 0.057852305
000150 9c ba cc bd 53 49 a3 3c bc 87 41 3e c1 d7 5a 3d
       -0.099965304 0.019932425 0.18899435 0.053428415
000160 94 48 19 3d e6 ca db bd fa dd 0c 3e 40 9e a1 3d
       0.03742273 -0.10732059 0.13756552 0.07891512
000170 96 4c 2a 3e 85 bd 75 bd 58 e9 5e 3d 43 93 2b be
       0.16630778 -0.059995193 0.054421753 -0.16755395
000180 fa df 23 3e a0 56 14 3d 5d fa eb bd e4 d8 b4 bd
       0.16003409 0.036215425 -0.115223624 -0.08830431
000190 af 87 13 3d e9 fd c7 bd c6 50 00 bd 81 2e e3 3d
       0.03601807 -0.097652264 -0.03132703 0.11092854
0001a0 3c cd b7 bc df b3 24 be 02 41 50 3e 8f 01 60 bd
       -0.02243673 -0.1608424 0.20337299 -0.054688986
0001b0 60 1b 9e 3d 61 a7 05 be c0 1c fd 3d c1 d0 d2 bd
       0.07720065 -0.13052131 0.12358999 -0.10293723
0001c0 d8 f6 fd bd f0 6b ea 3d fd b9 62 3d b8 c8 02 3d
       -0.12400597 0.11446369 0.055353153 0.0319297
0001d0 58 45 c5 3d 84 c6 d4 3d b8 a9 9e 3d f5 70 09 bd
       0.09632367 0.10389426 0.07747215 -0.03355499
0001e0 c8 ca ff bb 84 aa 2e 3e 43 52 1d be a6 d7 1c 3e
       -0.007806156 0.17057234 -0.15363412 0.15316638
0001f0 3c b5 8c 3d 99 fa 6d 3d 87 8b f3 bd 09 cd b3 bc
       0.06870505 0.058100317 -0.11891847 -0.021948354
000200 78 0d 07 3d af 8f 13 3d a6 b1 31 3e 5e e7 d1 bc
       0.03297183 0.0360257 0.17352924 -0.02562302
000210 d6 7e 20 3c 63 f1 21 bd ea 7b 01 3e 59 30 ca bd
       0.009795865 -0.039536845 0.12644926 -0.09872503
000220 2a a8 a6 3c 2e f9 4a bd 1b d0 3b be 1a 8d 57 bd
       0.020343859 -0.049554043 -0.18341105 -0.0526248
000230 05 ec f2 bd d0 21 cc 3d d4 97 a5 3d ca 82 3f 3e
       -0.118614234 0.09967387 0.080855995 0.18702236
000240 3a b7 12 3e 24 ee 51 bd 5c b2 1d 3c c4 d6 82 3d
       0.14327708 -0.0512525 0.009625044 0.063886195
000250 46 b2 85 bd db 85 5f 3d 5a 79 31 3e 2d 0e 5d bd
       -0.065281436 0.054571014 0.17331448 -0.053968597
000260 40 3d 0b 3e 1e 89 43 3e 60 0a ac 3d 5c 5a 47 3d
       0.13597584 0.19095275 0.084004164 0.048670158
000270 1a bc 27 bc c7 1c 78 bc 72 15 1b be 80 70 40 3e
       -0.010237718 -0.01514358 -0.151449 0.18792915
000280 32 f1 25 be d2 31 3f 3d 2c dd f9 3d 6e b8 39 3e
       -0.1620529 0.04667837 0.12200388 0.1813676
000290 f0 65 16 be 18 a4 32 3e 38 5b e2 3d d4 c8 94 3d
       -0.14687324 0.1744541 0.11052555 0.072648674
0002a0 85 58 85 3b fe 0b 20 3e 56 7e 98 bd 8b ab 48 be
       0.0040693902 0.15629575 -0.07445972 -0.19596688
0002b0 54 99 ad 3d 11 82 28 be 6a 1e 02 be 06 c8 0e be
       0.08476511 -0.16455866 -0.12706915 -0.1394349
0002c0 1c 43 3c be 98 1d 05 be 39 7d 2d bd e9 d5 f5 bc
       -0.18384975 -0.1299957 -0.04235575 -0.030009227
0002d0 b1 50 20 be 33 90 43 bb da ab f9 bd 7e ab 4f be
       -0.15655781 -0.0029840588 -0.12190981 -0.20280263
0002e0 cf df 3b be dc 3d 47 3c 64 3f 17 be 12 1b 36 3e
       -0.18347095 0.0121607445 -0.14770275 0.17783764
0002f0 1f f0 d8 bd 79 71 f9 bd a2 0d 31 3e 1e 3c 25 3e
       -0.105926745 -0.12179846 0.17290357 0.16136214
000300 96 49 23 3e 78 75 45 3e bc dc c3 3d 53 e4 4e be
       0.1594604 0.19283092 0.09563586 -0.20204286
000310 ec 2c b8 3d 4c b3 89 3d 90 21 66 3d fe 7a 8b bd
       0.08992943 0.06723651 0.05618435 -0.06810568
000320 61 28 e4 bd 40 3d e0 3d 14 8b d2 3c 1b 4b f0 3c
       -0.11140514 0.109491825 0.025701083 0.029332688
000330 c0 c0 17 bd 60 23 21 3d a8 5f 18 3e f2 77 e0 3b
       -0.037049055 0.039340377 0.1488024 0.006850236
000340 ce 24 42 be 22 83 23 3e cc ef 62 3c 6a 0d 1c be
       -0.18959352 0.15967992 0.013851117 -0.15239492
000350 b7 c0 2a be dc 72 9b bd 50 b7 16 bd af 2e 08 be
       -0.16675077 -0.07590267 -0.036795914 -0.13299058
000360 ec 5c ec 3d 38 8a f7 3d 88 1d d3 bd 1b 89 37 be
       0.11541161 0.1208691 -0.10308367 -0.17923395
000370 3c b4 ed 3d e7 0c 6a 3d 00 04 0c 3d 9b 63 0d 3d
       0.116066426 0.05714121 0.034183502 0.03451882
000380 d9 27 39 be 7e 4a 13 3e 14 c3 02 be b6 ba 12 3e
       -0.18081607 0.14383885 -0.12769729 0.14329037
000390 d4 cb 56 3d a6 bf aa bc 3c 4f 3d be 94 cc ae 3d
       0.05244048 -0.020843338 -0.18487257 0.08535114
0003a0 d8 56 c3 bd 41 02 9d 3c e8 20 1b 3e 94 1e 17 bd
       -0.095380485 0.019166114 0.15149271 -0.036894396
0003b0 1c 6a 23 3e 6c 4e ff 3d c5 b7 69 3d 88 f7 d7 3d
       0.15958446 0.1246613 0.057060022 0.1054526
0003c0 b4 dc a6 3d 8c 4d fe bd 30 21 8f bd f8 68 d9 3d
       0.081475645 -0.12417135 -0.06988752 0.10615724
0003d0 2a 9c 0f 3e 62 de 73 3b 30 7a 4f bc 64 78 bc bd
       0.14024416 0.0037211408 -0.012663409 -0.0920265
0003e0 1c 05 ab 3d 24 35 68 3c b0 41 23 3e f6 29 2d 3e
       0.08350584 0.014172826 0.15943027 0.16910538
0003f0 f6 d0 2e 3e 54 8f b8 bd d4 dc 49 be 52 33 03 be
       0.170719 -0.09011713 -0.19713145 -0.12812546

cnn_pep_1.bias f4 [50]
000000 e5 9e c8 bd 07 5b 53 3c 63 62 b1 bd a6 b6 08 bd
       -0.09795932 0.012900121 -0.08661344 -0.033377312
000010 0e 3a 95 3a ee 23 f0 bd c6 d5 15 3e 5e 8f 31 be
       0.00113851 -0.11725603 0.1463233 -0.17339846
000020 7d 1c 2d be ff c1 a5 bd cc e4 ea bd a1 82 ff bc
       -0.16905399 -0.080936424 -0.11469421 -0.031190218
000030 2e 32 f0 bd ba 8b 22 3e 0d c1 54 bd d1 79 42 be
       -0.11728321 0.15873614 -0.05194192 -0.18991782
000040 42 20 17 bd 52 bc 2f 3e b5 08 49 3d be d9 1d 3d
       -0.036895998 0.17161682 0.04908057 0.038537733
000050 7d 77 27 bd e6 d6 04 be 45 6d 53 3d 0a 39 e4 bd
       -0.040885437 -0.12972602 0.05161788 -0.11143692
000060 a6 65 28 be bf a0 e6 bd eb d2 09 be 92 85 5f 3d
       -0.16445026 -0.11261129 -0.13459365 0.054570742
000070 26 f5 0e 3e bb 95 b8 3d ce a5 00 be a3 84 a6 3d
       0.13960704 0.09012934 -0.1256325 0.08130767
000080 03 e3 4f be 86 ca e6 3d 82 b2 79 3d 38 07 81 3d
       -0.20301442 0.11269097 0.060961254 0.06300205
000090 91 bb 62 bd bc b8 1a be 28 1b 50 3e 55 48 b6 3a
       -0.05535466 -0.15109533 0.2032286 0.0013907055
0000a0 68 bb d7 bd e3 0b 9d bd 9a ac 40 3e 3e 0d 17 3d
       -0.10533792 -0.07668283 0.18815842 0.036877863
0000b0 ea 16 50 3e b6 83 2a 3e 21 08 ea bc 46 98 03 be
       0.20321241 0.16651806 -0.02856833 -0.12851056
0000c0 f2 cb 05 3e ca 99 33 3e
       0.1306608 0.17539135

cnn_pep_2.weight f4 [25, 50, 1]
000000 fd 9f 00 be b0 b9 21 bd c5 eb 60 bd 17 29 bb bd
       -0.1256103 -0.039483726 -0.054912347 -0.09138697
000010 9a 0e b4 bc 3b 85 2c 3d 35 de ea bd 2e 7f f1 bd
       -0.021979619 0.042119246 -0.11468164 -0.11791836
000020 3e 66 43 bd ad df 10 3c d1 5e 47 bd 3e ff c9 3d
       -0.047704928 0.008842391 -0.04867441 0.09863137
000030 84 27 66 bd c2 34 50 bd df b5 c7 3c cc 56 a6 bd
       -0.05619003 -0.050831564 0.024378715 -0.08122024
000040 3f 11 db 3d 4b de 00 3e 86 12 fa 3d e3 8d 07 3e
       0.10696649 0.12584798 0.12210564 0.13237719
000050 2f cd b0 bc 3b cd 0e 3c a6 17 40 3d a4 05 72 bd
       -0.021582214 0.008715923 0.046897553 -0.05908741
000060 5c da 04 3d cb 41 6f bd f2 e7 f4 3d a8 39 e8 3d
       0.032434806 -0.058412354 0.119583026 0.11339122
000070 93 33 0c 3e c7 45 10 be 3c f5 8b 3d fa 41 01 be
       0.13691549 -0.14089118 0.06833884 -0.12622824
000080 c7 25 02 bd 06 8a 83 3d 69 fc 4f 3d 1b a3 9d bd
       -0.03177431 0.0642281 0.050777826 -0.076971255
000090 6c 5b 07 be ea ff d1 3d a6 1c de 3d 22 fe 04 3c
       -0.13218468 0.1025389 0.10845308 0.008117231
0000a0 1c a4 03 be c5 fb 42 3c 01 e2 a4 3d 81 b9 96 bc
       -0.12855572 0.011900847 0.08050919 -0.018399002
0000b0 02 4d 42 3d e6 ac b3 3d 3e bf e9 bc 90 9f b3 bd
       0.04743672 0.08773212 -0.028533574 -0.087706685
0000c0 63 08 9e bd 8f 8c 25 3d df 61 6a 3c b0 ac 4b 3c
       -0.077164434 0.04041725 0.014305561 0.012431309
0000d0 80 6c b2 bc 55 20 00 3e 1f cf af bd 3b 80 fe bd
       -0.021780252 0.12512334 -0.08584427 -0.12426802
0000e0 17 d3 0d bd ee d3 e3 3d 53 89 00 bc e3 53 ed bd
       -0.03462514 0.11124407 -0.007845241 -0.11588266
0000f0 e4 dd d5 bc 3f ba 46 3c c1 da e3 3b 89 de 26 bc
       -0.026106782 0.0121293655 0.0069535677 -0.010184892
000100 0d fb 66 bb b2 e1 71 3d f0 4d ce bc 0e 8e 5f bd
       -0.0035244853 0.05905313 -0.025183648 -0.054578833
000110 fb 90 d2 bd af a6 03 bd ad 15 27 bc ca d2 cc bd
       -0.10281559 -0.032141384 -0.010198039 -0.10001142
000120 31 7c d3 3d 4f 85 0e 3e 50 0f 06 be 5e eb e9 3c
       0.10326422 0.1391804 -0.13091779 0.028554615
000130 03 df 9c 3b 40 2d a7 3d 58 aa 7e bc 39 dc bd bd
       0.0047873273 0.08162928 -0.015543543 -0.0927052
000140 98 35 c8 bd 76 bf 0a 3d 74 ab bc bd 11 76 a9 bd
       -0.09775847 0.033873998 -0.092123896 -0.082744725
000150 1b 51 04 3e 85 f3 03 3e e6 44 01 be f9 5c 60 3d
       0.12921564 0.12885864 -0.12623939 0.054776166
000160 6f 77 09 3e c6 02 cb 3c c3 15 8d 3d 97 37 f6 bd
       0.13424467 0.024781596 0.06888916 -0.12022322
000170 4a 18 20 3a 9d 4e 3c bc b6 a2 8d 3d 71 e8 0a 3e
       0.0006107135 -0.011493352 0.069158 0.13565232
000180 73 ac a1 bd 28 f5 a0 bd 88 39 e0 bd fe b7 92 3c
       -0.0789422 -0.0785926 -0.10948473 0.01791
000190 67 9a 9c bd df 0b ee bd 38 90 35 bd c8 f8 c1 3d
       -0.076466374 -0.11623358 -0.04432699 0.094712794
0001a0 f4 d7 dc 3d a2 c5 f8 3d 50 21 dc bd 17 11 00 be
       0.10783377 0.121470705 -0.10748541 -0.1250652
0001b0 30 5e c5 3c d4 64 bb bd db d5 8d bd 08 71 9b 3d
       0.024092764 -0.09150091 -0.06925555 0.075899184
0001c0 d4 ed f4 bd 47 e4 b0 bd c2 4e aa 3d f8 73 bf 3d
       -0.119594246 -0.086372904 0.08315803 0.09348291
0001d0 3c d6 9a bd e2 b7 ed bd 04 9d d5 bd 0b 73 0c 3e
       -0.07560393 -0.116073385 -0.10430339 0.1371576
0001e0 20 0b 86 bd 47 27 03 3e 71 83 81 bd b0 64 c9 3d
       -0.06545091 0.12807952 -0.063238986 0.09833658
0001f0 a0 38 11 bc 0b bf 0e be d3 42 06 3e 90 33 eb 3c
       -0.008863598 -0.13940065 0.13111429 0.02871111
000200 54 16 5d 3d 70 2e dd 3c 94 e5 f9 bd f4 83 7f 3d
       0.053976372 0.026999682 -0.12201992 0.0623817
000210 80 e4 9f 3a 92 20 a6 bd c0 db 20 3b ec 6c 01 be
       0.0012198836 -0.08111681 0.0024545044 -0.12639207
000220 40 09 10 bb a4 32 b2 3d d9 07 f9 bd 12 ea 90 3d
       -0.002197817 0.08701065 -0.121597 0.07075895
000230 fa ed 5f bd d8 43 c1 bc 18 f7 db 3d 80 8f c5 3d
       -0.05467031 -0.02359192 0.10740489 0.09646511
000240 5a 10 96 bd a4 70 b4 bc b1 9d 00 be b2 d8 9f bd
       -0.073273376 -0.022026367 -0.12560154 -0.07805003
000250 7e 4c c5 3d 05 23 e2 bd b8 97 e9 bc f6 5c 30 bb
       0.0963373 -0.11041836 -0.028514728 -0.0026910878
000260 60 c0 b3 bd de 86 aa 3c 86 c6 e8 bd 9e 61 e3 3d
       -0.08776927 0.020816263 -0.1136599 0.111026034
000270 21 96 ae 3d 2b e8 90 bd ac 4b 4e bd 92 ff c6 bd
       0.085247286 -0.070755325 -0.050365135 -0.09716715
000280 b9 31 bc 3c 4c 7f 0c be 0c 43 da 3d 4a 60 d6 3d
       0.022972928 -0.13720435 0.106573194 0.104675844
000290 dd 10 c1 bc 48 ce 96 bd 51 b6 35 3d c1 e9 f6 bd
       -0.023567611 -0.07363564 0.044363324 -0.12056304
0002a0 04 58 f2 3c bb 5f a3 3d 88 c7 b8 3d 98 dd 13 bc
       0.029582985 0.079772435 0.090224326 -0.009025
0002b0 d6 90 f0 3d 72 91 f5 bd 78 00 eb bd db 83 fc bd
       0.11746375 -0.11990632 -0.11474699 -0.12329837
0002c0 78 f7 e8 bc 3a 10 59 bc 1e 23 4c 3c 36 58 04 be
       -0.028438315 -0.013248498 0.012459544 -0.12924275
0002d0 06 22 0d be 1c a7 c1 bb 52 93 b7 bd aa 04 fb bd
       -0.1378251 -0.0059098136 -0.08963646 -0.12256749
0002e0 b3 31 07 3e ec 9f a0 3d 02 be c7 3c e5 4b 09 be
       0.13202552 0.07843003 0.024382595 -0.13407858
0002f0 fb 0a 81 bd c8 6f 70 bd 46 dc 8a bd f3 cf b4 bc
       -0.063009225 -0.058700353 -0.06780295 -0.022071814
000300 b3 e1 04 3e 54 31 d7 bd 95 d0 04 3e 29 9a 07 3d
       0.12976722 -0.105074555 0.12970193 0.033106003
000310 62 8b c9 3d 6c 68 c7 3d 3f d7 0e 3e ac 89 fb 3c
       0.09841038 0.09736714 0.13949297 0.030705296
000320 48 dd 9f 3d a9 3c 83 bd 5c b4 53 bd 70 7e d2 bd
       0.07805878 -0.064080544 -0.051685676 -0.10278022
000330 40 c0 bf bb 00 b8 ae bd a0 b4 45 3c 80 a1 83 3c
       -0.0058517754 -0.08531189 0.01206699 0.01606822
000340 d6 b9 e6 3d df 8e 0c be a0 04 2a bc 9a 14 b0 3d
       0.11265914 -0.13726376 -0.010377079 0.085976794
000350 2f c4 bb bd 49 4a 0e be 20 be b8 bd 7e 8f d2 bd
       -0.091682784 -0.13895525 -0.090206385 -0.10281275
000360 5b 0c fc bd 54 1b 13 bd ae 27 88 bd 58 b7 a6 bd
       -0.12307044 -0.035914734 -0.06648193 -0.08140439
000370 48 14 ab 3c a4 6a 07 be f7 2e 03 3e 1a 6a f7 bd
       0.020883694 -0.13224274 0.12810884 -0.12080784
000380 68 5a 35 3d f0 99 1f bd 30 52 06 3d 8f f5 fb bd
       0.04427567 -0.038965166 0.032793224 -0.12302696
000390 17 1a c6 bd 9b 06 c0 bd a0 f3 c2 bb 90 ae 0c be
       -0.09672945 -0.0937626 -0.0059494525 -0.13738465
0003a0 9a a2 f3 3d a6 6e 5b bd 7e 95 df bd 60 05 3e bd
       0.11896248 -0.05357232 -0.10917185 -0.046391845
0003b0 e0 83 89 bb d9 c0 0c 3e 54 d3 c5 bd 5b 17 e0 bd
       -0.004196629 0.1374544 -0.09659448 -0.10941955
0003c0 10 c3 d9 3c 00 16 eb bb e0 b2 17 bd d0 f9 1f 3d
       0.02658227 -0.0071742535 -0.037035823 0.0390566
0003d0 b2 d7 d5 bd 4c 1d 0e bd d5 ee 0b 3e e9 c5 b9 bd
       -0.10441531 -0.03469591 0.13665326 -0.090709515
0003e0 08 a5 9d bc 84 c3 0a 3d 9c 88 8d bc 07 3a ef 3c
       -0.019243732 0.033877864 -0.017277054 0.029202474
0003f0 b1 05 3b 3d ba 9a 50 3d 8a 8b 08 be 64 59 5d 3c
       0.045659725 0.05092881 -0.1333448 0.013510082

cnn_pep_2.bias f4 [25]
000000 71 ec ef 3d d0 6e a2 3d 6a 3c 10 be 2a 0f bd 3d
       0.117150195 0.07931292 -0.14085546 0.09231408
000010 f8 21 fb 3c cd 1d 99 bd 13 c3 53 bd 11 90 a1 3d
       0.030655846 -0.07476387 -0.05169971 0.078888066
000020 08 05 40 3d 05 d7 93 3d b5 8b 50 bd f2 24 a4 bd
       0.0468798 0.07218746 -0.050914485 -0.08014859
000030 70 74 75 bc 42 38 bb bb 20 4b 85 bc 2f 99 f1 3d
       -0.014981374 -0.0057134936 -0.016271174 0.117967956
000040 bf 1b c7 bd 8b c0 0f be 54 c3 6e 3c fb d3 fd 3c
       -0.09722089 -0.14038293 0.014572937 0.03098487
000050 2a 90 fe 3c 24 07 99 3d f0 49 36 3d 37 86 c0 3d
       0.031074602 0.07472065 0.044504106 0.094005994
000060 67 07 86 bd
       -0.06544381

cnn_pep_3.weight f4 [10, 25, 1]
000000 b8 f5 08 bd 50 26 10 bc ea f0 d4 bd c0 85 8b 3b
       -0.03343746 -0.008798197 -0.10397513 0.0042578876
000010 18 75 e3 3c ad 8c 28 be c0 ba 9c bc bb 19 19 3e
       0.027765796 -0.16459914 -0.019132018 0.14951222
000020 50 06 a2 3c f4 bf 43 3d d3 60 d1 bd 7e b3 81 3d
       0.0197784 0.047790483 -0.10223546 0.063330635
000030 1d 7b 4a be 00 6d 08 ba e7 97 b2 bd 00 61 58 bd
       -0.19773526 -0.00052042305 -0.08720379 -0.05282688
000040 5b 6c 4c 3e 3a 00 cc bd f1 a5 3d 3e bd 64 0b be
       0.1996321 -0.09960981 0.18520333 -0.13612647
000050 49 ad 4c 3e 42 6c e5 3d ea 7f 21 be d0 1e 0a 3c
       0.19987978 0.11202289 -0.15771452 0.008430198
000060 15 1c 30 be 18 e2 25 3d 10 99 ea 3c 9f f8 46 3e
       -0.17198212 0.040498823 0.028637439 0.19430779
000070 bf d9 14 3e d0 8d da 3c 50 43 d0 bd 00 69 ed 3c
       0.14536189 0.02667895 -0.10169089 0.028980732
000080 0b f2 08 3e 14 0f 01 3d de 3c 1f be 00 ad f4 ba
       0.13373582 0.03150852 -0.15550563 -0.0018667281
000090 80 c5 bc bc d0 6c ae 3c 9b 15 3c 3e 40 57 cf bd
       -0.023043394 0.02129212 0.18367617 -0.101240635
0000a0 0a 95 8f bd 2d 86 cb bd e8 f8 83 3c ac 19 23 bd
       -0.07010849 -0.099377014 0.016109899 -0.039819404
0000b0 06 38 8e 3d 3f e4 2c 3e 1b b1 21 be 52 92 0b be
       0.069442794 0.16883944 -0.15790217 -0.13630036
0000c0 18 f4 d0 bc 82 5f b4 3d b0 f2 fd bc 98 d7 d1 3c
       -0.025507018 0.08807279 -0.030999511 0.025615498
0000d0 2c cb 6e 3d 9a 9a d2 bd 73 17 c7 bd 16 f1 c6 3d
       0.05829923 -0.10283394 -0.097212695 0.09713952
0000e0 24 6d 86 bd 98 10 e3 bc 80 c4 61 bc 73 53 39 3e
       -0.06563786 -0.027717873 -0.013779759 0.1809824
0000f0 d3 de f9 bd af 12 33 be 8c 7a 60 bd 68 33 be bc
       -0.122007035 -0.17487596 -0.05480437 -0.023217872
000100 c6 6e a6 3d ec d3 5d bd 30 4b 21 be 7a df f1 bd
       0.08126597 -0.054157183 -0.15751338 -0.11810203
000110 8c 67 42 bd 28 6d a6 3c 1a 2e 8e 3d 4b 1a 36 3e
       -0.04746203 0.020315722 0.06942387 0.17783467
000120 43 98 36 3e 1b 04 22 be ec 16 79 3d e0 fb 5d bc
       0.1783152 -0.15821879 0.060812876 -0.013548821
000130 f8 b1 16 bd c0 ab db 3b 98 a4 c7 bc c0 a9 a4 3b
       -0.036790818 0.006703824 -0.024370477 0.0050251186
000140 9d b6 46 3e a2 48 1e be c3 b5 1b be 19 15 35 3e
       0.19405599 -0.15457395 -0.15206055 0.1768383
000150 72 c2 fa 3d 31 0d 30 3e e5 67 4b 3e 30 b4 e3 3c
       0.12244119 0.17192532 0.19863851 0.027795881
000160 69 17 39 3e bd bc a2 bd a5 5e 3d 3e 1a a6 a9 3d
       0.18075337 -0.07946155 0.18493135 0.082836345
000170 a0 94 41 bd 60 c1 64 bc 43 a5 12 be d4 8c 36 3d
       -0.04726088 -0.01396212 -0.14320855 0.044567898
000180 c0 24 c6 bc 69 38 41 3e 5d 65 9a bd 20 57 17 bc
       -0.024187446 0.18869175 -0.07538865 -0.009237081
000190 70 6e de bc 74 cf 00 be 62 c7 30 be 60 14 02 be
       -0.02715227 -0.12579137 -0.17263559 -0.12703085
0001a0 65 25 43 be d7 8d f1 bd ab ff 11 be 63 72 16 3e
       -0.19057234 -0.11794632 -0.14257686 0.14692073
0001b0 18 b0 3a be 03 1e d2 bd 55 6a 0c 3e 28 a1 2e be
       -0.18231237 -0.102596305 0.13712437 -0.17053664
0001c0 e8 3e 12 bd 64 63 54 3d 31 f0 2c 3e ac 89 18 bd
       -0.035704523 0.0518526 0.16888501 -0.03724067
0001d0 6a 9d d5 bd 89 b0 13 3e b3 73 2d be 86 54 c9 3d
       -0.10430415 0.14422812 -0.16938667 0.09830575
0001e0 49 06 0e 3e d0 d3 02 bc e3 73 2c be f8 18 42 3d
       0.13869585 -0.00798507 -0.16841082 0.047387093
0001f0 40 8f 21 3d fe 5d b1 3d 55 b7 0c 3e 82 14 81 3d
       0.039443254 0.08660506 0.1374181 0.0630274
000200 62 8e ae 3d 38 98 11 be 41 51 40 3e 02 e1 c0 3d
       0.08523251 -0.14218223 0.18780996 0.09417917
000210 3a bb 3e be 37 11 fd bd 72 23 b2 3d a7 f2 b5 bd
       -0.18626109 -0.12356799 0.08698167 -0.08884173
000220 d0 17 42 3c 19 38 2b 3e 0f 34 24 3e ea b4 8c 3d
       0.011846498 0.16720618 0.16035484 0.06870444
000230 f9 ec 40 3e ed 84 3b 3e fd 66 ba bd 33 d2 b5 bd
       0.18840398 0.18312426 -0.09101675 -0.08877983
000240 18 db 9d 3c 88 77 12 3d c0 f8 ff bb 02 7b 2e be
       0.019269511 0.035758525 -0.0078116357 -0.17039111
000250 0e b9 b0 3d 8b d4 18 be d2 32 40 be e9 8c 2b 3e
       0.086290464 -0.14924829 -0.18769386 0.16752972
000260 e1 69 18 3e a7 7c b5 bd 90 bc 93 3c 62 1c a4 3d
       0.1488414 -0.08861666 0.01803425 0.08013226
000270 79 a5 04 3e eb 42 21 3e 1b 15 01 3e be 09 d4 3d
       0.12953748 0.15748183 0.12605707 0.10353421
000280 d8 77 41 3d 68 49 82 3c 02 40 27 be 24 9d 72 3d
       0.047233433 0.015904143 -0.16333011 0.059231892
000290 b6 30 e7 3d 30 37 2b be a8 c9 5d bd 6d e6 33 be
       0.11288588 -0.16720271 -0.054147393 -0.17568369
0002a0 8b 10 1a be 27 06 cc bd 30 63 46 bc 8a 08 20 be
       -0.15045373 -0.09962111 -0.012108609 -0.15628257
0002b0 13 4b dc bd 90 97 ce bd 02 cf d8 3d b2 cd 92 3d
       -0.10756507 -0.10087502 0.105863586 0.071681395
0002c0 61 3c 24 3e f6 b9 e0 3d 42 8c 36 be 82 f4 c9 3d
       0.16038658 0.10972969 -0.17826942 0.09861089
0002d0 a0 1d 2d be c7 8a ef bd a8 ee 51 bd a0 8e 43 bd
       -0.16905832 -0.116963916 -0.05125299 -0.04774344
0002e0 72 5b 94 3d 30 96 84 3c fd 2b 30 3e 24 87 77 3d
       0.07244004 0.016184896 0.1720428 0.060431615
0002f0 e4 bb 04 be 91 67 11 3e 52 4f 9f 3d 80 f0 90 bd
       -0.129623 0.14199664 0.07778801 -0.07077122
000300 d2 cd 91 3d f2 b4 bf 3d 61 7a 3c 3e 97 bf d6 bd
       0.07119335 0.093606845 0.18406059 -0.104857616
000310 b8 63 21 3d 2b fb 40 be 80 39 1b 3c 80 db 19 be
       0.03940174 -0.18845813 0.009474158 -0.15025139
000320 0c 8e 1e 3d 3d 64 bd bd 52 9a f6 3d cd 71 a9 bd
       0.038709685 -0.092476346 0.12041153 -0.08273659
000330 69 7c 20 3e f0 02 b9 bc 90 8e 96 bc 40 d3 b2 bb
       0.15672459 -0.022584409 -0.018378526 -0.005457312
000340 b0 d4 20 be bb 21 3c 3e 63 72 4c 3e fe 65 fc 3d
       -0.15706134 0.18372242 0.1996551 0.12324141
000350 f4 2b 57 3d f8 8b 2a bd dd 06 f1 bd e2 48 c0 3d
       0.05253215 -0.04163739 -0.11768887 0.09388901
000360 1d da 1b be 98 03 8c bc 67 e3 16 3e ea 80 f5 3d
       -0.15219922 -0.017091557 0.14735185 0.11987479
000370 1a db b3 bd f3 b2 42 3e 3d eb 30 be b2 97 44 be
       -0.08782025 0.19013576 -0.17277236 -0.19198492
000380 ae 70 a6 3d 2a 81 48 be 02 69 d9 3d 77 6c ef bd
       0.08126961 -0.19580522 0.10615732 -0.1169061
000390 31 04 11 3e a0 82 27 3d 1a eb 21 be 35 8e 1e be
       0.14161755 0.040896058 -0.1581234 -0.15483935
0003a0 c0 2c 65 bb 8a a9 cf 3d 60 51 f1 bd 4a 8d c9 3d
       -0.00349693 0.10139759 -0.11783099 0.09841402
0003b0 66 5b f3 3d 00 8a b9 bb cc d1 67 bd 2f 61 39 be
       0.11882667 -0.005662203 -0.056596562 -0.18103479
0003c0 c0 9e 2c be 00 9d be bc 72 90 8b 3d 48 89 01 bd
       -0.16857433 -0.023268223 0.0681466 -0.031625062
0003d0 6a 6a e5 bd e0 7d 07 3c 71 e2 01 3e 6c 2d 7e 3d
       -0.112019375 0.008269757 0.12684037 0.062055036
0003e0 a9 a1 12 3e 00 ef 0d be
       0.14319481 -0.13860703

cnn_pep_3.bias f4 [10]
000000 21 9b 0a 3e d0 15 74 3c 30 02 df 3c f1 58 1a 3e
       0.1353574 0.014897779 0.027222723 0.15072991
000010 98 a6 31 bd da 92 a8 bd b1 ff 03 3e f0 36 90 bc
       -0.043371767 -0.08231135 0.12890507 -0.017604321
000020 4b f7 20 be ad 2a 36 3e
       -0.15719335 0.17789717

cnn_apt.0.weight f4 [100, 40, 3]
000000 c4 1e b4 3d 7e f0 8d 3d b0 04 b8 3d ba c3 e9 bb
       0.087949306 0.06930636 0.08985269 -0.007133928
000010 2d d7 9b bd a0 7a 70 bd 7a 67 c6 bc d5 e8 49 3c
       -0.07609401 -0.058710694 -0.024219263 0.012323578
000020 ad 10 f3 bc 08 6a 57 bd 6b 7b f3 bb 23 d3 6b 3d
       -0.029671038 -0.052591354 -0.007430484 0.057574403
000030 14 71 9b 3d 10 9d 38 bd 27 60 56 bd 24 98 8a bb
       0.07589927 -0.04507166 -0.05233779 -0.0042295624
000040 9f 97 24 3d 5b 60 27 3d 38 2e 0b bd 29 81 01 3d
       0.04018366 0.040863376 -0.033979625 0.031617317
000050 8f ad 7e bc 13 ef 33 bc aa 9c 97 bd 92 ec 85 3d
       -0.015544309 -0.010982293 -0.07402928 0.06539263
000060 f4 d6 83 bd 64 2a ba 3c 2c 23 3b bd 28 9d 9d bd
       -0.064374834 0.022725292 -0.04568784 -0.07695991
000070 12 6e bf bb 84 f6 f7 3c 09 87 ab bd f1 40 d7 3b
       -0.005841979 0.030268915 -0.08375365 0.006569021
000080 54 95 0c bd c8 7d 55 bc f5 bd 26 bd 7e c4 3a bc
       -0.034322098 -0.013030477 -0.0407085 -0.011399386
000090 18 2e a8 3d 89 ba b3 bd b1 e6 30 bd aa e1 9e 3d
       0.08211917 -0.08775813 -0.043188754 0.07757886
0000a0 e2 36 9e bb 50 87 9b bc 51 44 fb 3c ec ed 1d bd
       -0.00482832 -0.01898542 0.030672224 -0.038556978
0000b0 44 8f 19 3d 4d a6 66 bd 89 fc e0 bc 86 15 8f 3d
       0.037490144 -0.05631094 -0.027464168 0.06986527
0000c0 a6 20 12 3c fc de 93 bd c6 a5 60 3d 6f 7d 78 bd
       0.008918917 -0.07220265 0.054845594 -0.060666498
0000d0 48 d8 c1 bb 16 0d 97 b9 77 c5 24 bd f1 57 27 3d
       -0.0059156753 -0.00028810714 -0.04022738 0.04085535
0000e0 ff 3d 14 bc b9 2c 4c 3d 89 fb 3d 3d ae 37 92 bd
       -0.009047984 0.04984734 0.04638246 -0.07139526
0000f0 ac 9f 8b 3d 3e eb 13 3b 18 9d 93 3d 06 b3 68 3d
       0.06817564 0.0022570635 0.07207698 0.056811355
000100 00 0e dc bc 5a 33 94 bc db c5 08 bd 1b 09 31 bd
       -0.026862144 -0.018090893 -0.033391815 -0.043221574
000110 38 d2 90 3d 6e 53 ae 3d 27 82 25 3d b4 f3 a7 3d
       0.07071346 0.08512007 0.040407326 0.082007796
000120 14 93 fd 3c 29 87 68 3c 51 b8 14 bd fa 78 ae 3d
       0.030953921 0.014192381 -0.03630859 0.08519168
000130 63 84 85 bd a4 18 8a 3d 36 6f 3f bc 44 ba 13 bd
       -0.065193914 0.06742981 -0.01168423 -0.03606631
000140 d9 fc f0 b9 b7 ca 65 3d 41 a2 a5 bd 15 f0 90 bd
       -0.00045964753 0.056101527 -0.08087588 -0.07077042
000150 d6 07 89 bc b0 4c b9 bd 5b ba 4a 3c f8 5e 84 bd
       -0.01672737 -0.0904783 0.012373532 -0.06463426
000160 a5 ce a7 bd ff e3 17 bd d4 5b 48 bd eb e6 00 ba
       -0.08193711 -0.03708267 -0.0489157 -0.0004917222
000170 93 92 7a 3d 0f 3f b6 bc e6 b5 94 3c 84 e6 28 3d
       0.06117494 -0.022246866 0.018153142 0.04123546
000180 04 fd c8 3c 79 35 92 3b e3 8e 73 3c 60 1b 5c 3d
       0.02453471 0.004461941 0.01486561 0.053737044
000190 7a d2 a7 bd d9 e7 14 bd ea 45 a5 3d 2d 46 c4 bc
       -0.08194442 -0.03635392 0.08069976 -0.023959244
0001a0 97 94 6c 3d dc 5c 95 bd 98 d7 a6 3c d5 73 30 bb
       0.057758894 -0.07293102 0.020366475 -0.002692451
0001b0 0a 99 af bd 47 62 a7 3c 0c 0f 1f bc 78 75 b5 bd
       -0.08574112 0.020432604 -0.009708177 -0.08860296
0001c0 0f d5 e8 bc da 07 9a 3d 7a d2 95 3c eb 54 64 bd
       -0.028421907 0.07521029 0.01828884 -0.055745047
0001d0 f9 f7 40 bd 9f 9b 2a bd e6 c4 41 bd 2c 9c 8c 3c
       -0.047111485 -0.041652318 -0.047306918 0.017164312
0001e0 56 89 2f bd 9c 0b 85 3d d0 a1 47 3d 8a 15 89 3d
       -0.042855583 0.06496355 0.0487383 0.066935614
0001f0 65 06 d4 3a f2 ed a8 3d 60 83 9c bd a4 bc 49 bd
       0.0016176222 0.082485095 -0.07642245 -0.049252167
000200 43 ce 54 bd f0 b9 2e 3d 29 c9 b1 bd 0d 2d 31 bd
       -0.05195452 0.042657793 -0.086809464 -0.043255854
000210 f9 0d 15 3d 4c f4 ae 3d 39 4f 73 3d 01 9d 1a 3d
       0.03639028 0.0854269 0.059401724 0.037747387
000220 ae 09 84 bd df e4 e2 3c 51 2a 08 bd 0c ee ac 3b
       -0.06447159 0.027697025 -0.03324348 0.005277401
000230 c7 b6 3f bc e2 f5 ae 3d 26 ec 73 3d b2 56 1c 3c
       -0.011701292 0.08542992 0.05955138 0.009542154
000240 d9 c8 b5 bd 30 7a 92 3d 06 3e 80 3d 42 17 fe 3c
       -0.08876199 0.07152212 0.0626183 0.03101695
000250 58 c4 b8 bd 7f 70 78 bd 24 d8 44 3d 96 66 af bd
       -0.090218246 -0.06065416 0.04805769 -0.085644886
000260 2c a0 1f 3d b7 6f 2c 3c b0 de aa 3d ca 02 00 3d
       0.03897111 0.010524682 0.083432555 0.03125266
000270 c9 86 45 3d 2c 76 f1 3c db 80 30 bd 98 23 4b bd
       0.048224244 0.029475294 -0.043091636 -0.04959449
000280 c9 46 b5 bd 46 9d 69 bc 3a 0a b1 3a a0 99 f1 bc
       -0.08851392 -0.014258688 0.0013507076 -0.0294922
000290 73 7d ce 3c d0 1f 83 3d 07 18 f3 3b b7 3f 11 bd
       0.025206303 0.06402552 0.0074186358 -0.035461154
0002a0 8e e7 a2 bd d4 2b 40 bd 54 3f e6 3c 17 1a ae bd
       -0.07954322 -0.046916798 0.02810637 -0.0850107
0002b0 41 c1 b9 bd f9 0b a2 3b 65 7e 18 3b 55 fd 92 bd
       -0.090700634 0.004945275 0.0023268696 -0.071772255
0002c0 f0 7e b0 3c e3 8d 23 3d cc 84 91 bd ba 41 5e bc
       0.021544904 0.039930236 -0.07105407 -0.013565475
0002d0 67 8f 5d 3d b6 c3 a6 3d f8 c1 82 bd f4 f6 48 bd
       0.054091837 0.08142798 -0.06384653 -0.049063638
0002e0 b3 c3 53 bd b5 57 3e bd 81 64 72 bd 2a 76 8f 3d
       -0.051700305 -0.046470363 -0.05917788 0.0700496
0002f0 cd e5 97 bb 71 31 8e bd f4 7a 84 bd 62 f2 9e bd
       -0.0046355487 -0.06943024 -0.06468764 -0.077610746
000300 61 b1 af bd 75 89 ac 3b 0a 7c 1f 3c 51 e4 56 3d
       -0.08578754 0.0052654096 0.009734163 0.052463833
000310 ee b5 9a 3d d2 d4 83 3d 44 b2 a2 3d d3 26 11 bd
       0.075542316 0.06437077 0.07944158 -0.035437416
000320 53 c5 8c bd be 3c 0a bc 0f 16 a1 bc 2e 86 8e bb
       -0.06873574 -0.008437334 -0.019663839 -0.0043494916
000330 55 8f 0e 3b f1 57 52 bd fb 9d 9f bd 47 cf 19 bd
       0.0021752913 -0.0513534 -0.07793804 -0.03755119
000340 e6 68 8c 3c 44 84 3f 3d 99 aa a7 bd 20 e9 a7 bd
       0.017139863 0.046756998 -0.08186836 -0.08198762
000350 69 aa ab bb f1 4f 0f bd b1 66 18 bd da cd b4 bd
       -0.0052388203 -0.034988347 -0.03720731 -0.088283256
000360 dd f3 27 3d d7 f9 7b bc d6 76 93 3d f8 1e 70 bd
       0.04100405 -0.015379391 0.072004005 -0.058623284
000370 e4 df a9 bd 49 9c 9c ba 07 7b b1 3c eb f3 59 3d
       -0.08294657 -0.0011948432 0.02166511 0.053211134
000380 d1 fc 30 bc 66 9d 8f 3d d3 04 4c bd 1f 5e 9e bd
       -0.010802464 0.07012443 -0.04980929 -0.07732796
000390 3b 77 38 bd 8c 64 15 bd ea 88 01 3d aa a1 95 3d
       -0.045035582 -0.036472842 0.031624712 0.073062256
0003a0 16 a1 af 3d 72 e3 31 bd b7 55 b2 bc 9f 92 72 bc
       0.085756466 -0.0434298 -0.021769388 -0.014805465
0003b0 86 06 09 3d 7c fb e5 bc 0c dc 04 bd ad cf 81 3c
       0.033453487 -0.028074019 -0.032436416 0.015846098
0003c0 96 33 6e bd 92 5d a0 3d 9c 91 a2 bd 48 2a a5 bd
       -0.058154665 0.07830347 -0.07937929 -0.08064705
0003d0 63 7c a3 bb 9c 12 84 bd 2a f1 22 bd 32 ed 57 3d
       -0.0049891933 -0.06448862 -0.039780773 0.05271644
0003e0 93 b6 c7 39 b1 95 2a bc e3 8c ad bd a7 86 f4 bc
       0.00038092266 -0.010411666 -0.08474138 -0.029849363
0003f0 e3 fa f9 bc d8 c3 89 3d ba 09 13 3d 44 a6 09 bc
       -0.03051514 0.06726807 0.035897948 -0.008401457
