src/models/model_checkpoints/binary/LinearNet/05042020.pth (torch_old, 124378 bytes, 21 tensors)

fc_apt_1.weight f4 [100, 160]
0	0x3c81933e	0.01581728
1	0x3c90afb2	0.017661903
2	0xbd698552	-0.05701191
3	0x3d841ada	0.06450434
4	0xbd8804e7	-0.0664156
5	0x3d58080d	0.052742053
6	0xbd73a7e9	-0.059486303
7	0x3d32c90d	0.04364877
8	0x3d518e39	0.051161025
9	0xbe0a2a18	-0.1349262
10	0xbcb371e3	-0.021904891
11	0xbd090d8a	-0.033460177
12	0xbd812e26	-0.0630763
13	0xbd7bae39	-0.06144545
14	0xbd677883	-0.056511413
15	0x3e03cda9	0.12871422
16	0x3d9a0aef	0.07521617
17	0xbdd813f3	-0.1055068
18	0xbdb41ecc	-0.087949365
19	0x3d1abf60	0.037780166
20	0x3c9dfe63	0.01928634
21	0x3d8c4b19	0.06850261
22	0xbd4503de	-0.04809939
23	0xbcdc1ee5	-0.0268702
24	0xbd4437ed	-0.047904897
25	0xbcf39c64	-0.029737659
26	0xbdd72f78	-0.10507101
27	0x3d045feb	0.032318037
28	0xbdc1d170	-0.09463775
29	0xbd464531	-0.04840583
30	0x3d2e7c53	0.042599034
31	0x3d9c7287	0.07639032
32	0xbba0d092	-0.004907676
33	0xbd204b91	-0.039134566
34	0xbc019df4	-0.007911194
35	0xba95ed46	-0.0011438511
36	0xbdb6bf8d	-0.08923254
37	0x3c883562	0.016627017
38	0x3d106c58	0.035259575
39	0x3d1a8ed1	0.037733857
40	0xbd5b2900	-0.053505898
41	0xbe031e6b	-0.12804572
42	0x3d5dec8c	0.054180667
43	0xbda9f4b6	-0.08298628
44	0xbda51d3e	-0.08062218
45	0xbc8f7d4d	-0.017515803
46	0xbe15fa36	-0.14646229
47	0x3d1cac60	0.038250327
48	0x3d350cd3	0.044201683
49	0x3d41fb4d	0.0473588
50	0x3de0a07f	0.10968112
51	0xbcdfda94	-0.027325906
52	0x3dca4532	0.09876479
53	0xbc90f1ed	-0.017693484
54	0xbe115279	-0.14191617
55	0x3d892b19	0.06697673
56	0xbe0091d8	-0.12555635
57	0x3c2b2fcb	0.010448406
58	0x3d4106ec	0.04712574
59	0x3e31e602	0.17372897
60	0x3e70102e	0.23443672
61	0xbcaa71ea	-0.020806272
62	0xbe4de0bc	-0.2010526
63	0x3ce2d012	0.027687106
64	0xbd25c5ca	-0.04047183
65	0xbd312621	-0.043249253
66	0xbdc5c09e	-0.096558794
67	0xbc82b9dd	-0.015957767
68	0xbda49b84	-0.08037475
69	0xbdde4def	-0.108547084
70	0x3c3ba353	0.011452514
71	0xbdb3dfbe	-0.0878291
72	0xbc8fb853	-0.017543947
73	0xbae08792	-0.0017130247
74	0xbc5cfd63	-0.0134881465
75	0x3aa410bf	0.0012517198
76	0x3d51a80f	0.051185664
77	0x3e10e46b	0.14149635
78	0xbe0eb83b	-0.13937466
79	0xbd8f48af	-0.06996285
80	0x3b9f1c45	0.004855665
81	0x3c4f3447	0.012646741
82	0xbe3b290c	-0.18277377
83	0xbbc2a85d	-0.0059404806
84	0xbc1700b6	-0.009216478
85	0x3e0c805f	0.13720845
86	0xbce50828	-0.02795799
87	0x3de4addf	0.11165976
88	0x3d83a1cc	0.06427345
89	0xbd1457f9	-0.03621671
90	0xbd712ac0	-0.05887866
91	0x3db686b0	0.08912408
92	0x3cf012db	0.029305866
93	0x3dea277b	0.114333116
94	0x3c7d338f	0.015454187
95	0x3d5400d9	0.05175862
96	0xbcdcbfb6	-0.026946884
97	0xbdc0f99b	-0.094226085
98	0x3c3ebeb3	0.011642146
99	0x3dcec2f2	0.100957766
100	0x3dcc53ec	0.09976944
101	0xbc239184	-0.009983424
102	0xbd0f25df	-0.034948226
103	0x3d3ee71a	0.046607114
104	0x3dbf5538	0.09342426
105	0xbbefd510	-0.0073191
106	0xbd7e15fd	-0.06203269
107	0x3dafd89e	0.08586238
108	0x3cc0497f	0.023472546
109	0x3d2ede53	0.042692494
110	0x3d9a340a	0.07529457
111	0x3d641d98	0.055692285
112	0xbe1c8f2d	-0.15288992
113	0x3cfa5bf4	0.030561425
114	0xbe059a49	-0.13047136
115	0xbcbbd8ef	-0.02293059
116	0x3c0166ad	0.007898015
117	0x3dfcd157	0.12344616
118	0x3dc43f63	0.095824026
119	0xbbebcdb8	-0.0071961544
120	0x3e1cf504	0.15327841
121	0x3c51f602	0.0128150005
122	0xbe0530ce	-0.13006899
123	0x3ded2ce0	0.11580825
124	0x3df70676	0.12061779
125	0xbd13c2ce	-0.036074452
126	0x3cbfb74e	0.023402836
127	0xbca7cc6a	-0.020483214
128	0x3d8c3b00	0.06847191
129	0xbda912ba	-0.08255525
130	0xbe06025e	-0.1308684
131	0x3dece151	0.11566413
132	0x3cd1a769	0.025592523
133	0x3c1f68c0	0.009729564
134	0xbd97c3a4	-0.07410362
135	0xbcd9f53b	-0.026606193
136	0x3d0f9052	0.035049744
137	0x3e1c870f	0.15285896
138	0x3d743143	0.059617292
139	0xbe602d33	-0.21892242
140	0xbd3d2527	-0.04617801
141	0xbd2dae85	-0.042402763
142	0xbe0df435	-0.13862689
143	0x3d8b63da	0.068061545
144	0xbe075c88	-0.13218892
145	0xbca37b03	-0.019956117
146	0xbc7653c0	-0.015034616
147	0xbc59fd0c	-0.01330496
148	0xbb84c101	-0.004051328
149	0x3b3fcb82	0.0029265587
150	0x3d49607d	0.049164284
151	0x3d9942ce	0.07483445
152	0x3d9c4299	0.0762989
153	0xbda8926e	-0.08231054
154	0xbcfada77	-0.03062175
155	0x3d64dfdd	0.055877555
156	0xbcc7a4da	-0.0243706
157	0xbbb0f227	-0.0053999606
158	0xbd6c5388	-0.05769685
159	0xbdeb7ea2	-0.11498763
160	0x3d22765b	0.039663654
161	0x3d7d6f92	0.06187398
162	0xbc42c2e9	-0.0118872905
163	0xbdbce246	-0.09222846
164	0xbceabfcf	-0.028655915
165	0x3dcf4380	0.101202965
166	0x3a9fef82	0.0012202116
167	0x3bf764f1	0.007549875
168	0xbe08c05a	-0.13354626
169	0x3dac25df	0.08405661
170	0x3cb33bcd	0.021879101
171	0xbbdabe2e	-0.006675503
172	0x3d85c942	0.065325275
173	0xbdf2f7af	-0.11863648
174	0x3df69485	0.120400466
175	0xbe20adf2	-0.15691355
176	0xbd34535e	-0.044024818
177	0x3e064dbc	0.13115591
178	0xbcbc690b	-0.022999307
179	0xbe2bafb6	-0.16766247
180	0xbd3bbad7	-0.04583248
181	0x3db23e2d	0.08703265
182	0xbd50d286	-0.05098202
183	0x3dafcf91	0.08584512
184	0xbc4cb8c5	-0.012495224
185	0x3da30bad	0.07961211
186	0x3decd4f6	0.115640566
187	0xbc8599f8	-0.01630877
188	0xbd16fc3c	-0.036861643
189	0x3d6bb3e4	0.057544604
190	0x3e7fee5f	0.24993275
191	0xbd6cc131	-0.05780143
192	0xbcca6199	-0.024704741
193	0xbc1d16ff	-0.009588002
194	0xbdc55d08	-0.09636885
195	0x3dd044b9	0.10169358
196	0x3dc4d7ce	0.09611474
197	0x3d305024	0.043045178
198	0xbd874ac2	-0.06606056
199	0xbe195251	-0.14972807
200	0xbe16fc1e	-0.14744613
201	0xb9b45fb5	-0.00034403583
202	0xbcff1adc	-0.031140737
203	0xbd2b98e8	-0.04189387
204	0xbca10bee	-0.019659009
205	0xbc39aa1f	-0.011332064
206	0x3de92c69	0.11385424
207	0x3d0572dc	0.03258024
208	0x3e56620b	0.20935838
209	0xbd8f0f4d	-0.0698534
210	0x3e1a7f91	0.15087725
211	0xbd8c3de7	-0.068477444
212	0x3dde3349	0.108496256
213	0x3dfccded	0.12343965
214	0xbdd1534e	-0.10220967
215	0xbd216d5c	-0.039410934
216	0xbdc29795	-0.09501568
217	0x3d02c2e1	0.031924132
218	0x3d696cde	0.05698859
219	0xbdd8a1b9	-0.10577721
220	0x3c628ab9	0.013827019
221	0x3d64a77c	0.055823788
222	0xbcefdd3d	-0.0292803
223	0x3c451418	0.0120287165
224	0xbe3ef046	-0.18646345
225	0xbc6d06bf	-0.01446694
226	0x3c5034b7	0.012707881
227	0x3cc656fd	0.024211401
228	0xbd8856ec	-0.06657204
229	0xbdae859d	-0.085215785
230	0xbcbfa6af	-0.02339491
231	0xbdfcec02	-0.123497024
232	0x3dd47ae5	0.10375003
233	0x3d37392b	0.044732254
234	0xbcb640e9	-0.022247748
235	0xbd550895	-0.052010138
236	0x3d4aafa8	0.049483925
237	0x3d061456	0.032734238
238	0xbbfb76f9	-0.0076740948
239	0xbb067173	-0.0020514398
240	0x3d08803a	0.03332541
241	0xbcdac53f	-0.026705382
242	0xbd40e527	-0.047093537
243	0xbd9c8405	-0.07642368
244	0xbdf4a2f5	-0.11945144
245	0x3d3af45b	0.04564319
246	0xbb342439	-0.002748741
247	0x3db20c31	0.086937316
248	0xbdd3d1ba	-0.103427365
249	0xbd3f0910	-0.046639502
250	0xbd6e0e0a	-0.058118857
251	0xbcdb1653	-0.026744043
252	0x3aa7586b	0.001276744
253	0xbdab64e2	-0.08368851
254	0x3bc3ef24	0.0059794355
255	0x3daa2e93	0.083096646

fc_apt_1.bias f4 [100]
0	0x3b57175b	0.0032820317
1	0xbb6c6023	-0.0036068044
2	0x3b3ddb40	0.0028969795
3	0x3b74470a	0.0037273788
4	0x3c8c01e7	0.01709075
5	0xbb1b5044	-0.0023698965
6	0xb9cb31cf	-0.00038756288
7	0xbc9808ed	-0.018558944
8	0x3b120e68	0.0022286419
9	0x3b9247cc	0.0044641253
10	0xbc395058	-0.011310659
11	0xbc191270	-0.009342775
12	0xbc17ea63	-0.009272191
13	0x3b59840c	0.0033190278
14	0x3b2fd8a1	0.0026832002
15	0x3bd55b42	0.006511123
16	0x3c4d73bb	0.012539799
17	0xbc41677d	-0.011804459
18	0x3bd04201	0.0063555245
19	0x3b86ebf0	0.0041174814
20	0xbc3fe834	-0.011713076
21	0x3aa451de	0.0012536605
22	0x3b0f1799	0.0021834134
23	0xbc5e8548	-0.013581581
24	0x3c0a452e	0.008439345
25	0xbc4117a3	-0.011785421
26	0x3c50a91c	0.012735631
27	0x3baf2693	0.0053451746
28	0xbbd2238d	-0.0064129294
29	0xbcc74e2e	-0.024329271
30	0x3c2d6184	0.010582332
31	0x39f281be	0.00046254502
32	0x3c0278f7	0.007963411
33	0x3c02cc36	0.007983258
34	0x395a3bb9	0.00020812349
35	0xbc42a7d1	-0.011880831
36	0xbb5a5945	-0.003331737
37	0xbc6980ec	-0.014251929
38	0xbc74b620	-0.014936
39	0x3b2e1679	0.0026563688
40	0x3c7f47cc	0.015581083
41	0xbc8f42b3	-0.01748786
42	0x3aafb1a5	0.0013404383
43	0x3be40974	0.0069591347
44	0xb9a66f6f	-0.00031745012
45	0xbbdb7c1e	-0.0066981455
46	0xbb7d1d90	-0.0038622357
47	0xbc594ef5	-0.013263454
48	0x3c70180e	0.014654173
49	0x3c1eeaec	0.009699564
50	0x3c3b5c33	0.011435556
51	0x3a863332	0.0010238646
52	0xbb0c935f	-0.0021450145
53	0x37fe2b3c	3.0299292e-05
54	0xbb88f153	-0.0041791587
55	0xba9a0518	-0.0011750786
56	0xbb7fbcad	-0.0039022372
57	0xb91169c8	-0.00013867684
58	0x3c93e6d4	0.018054403
59	0xbbf5ce73	-0.0075014173
60	0x3cdec67e	0.027194258
61	0x38990dec	7.298202e-05
62	0xb8dcd10f	-0.00010529358
63	0xbbf942f6	-0.0076068593
64	0x3b0e24cc	0.0021689413
65	0xbc91e743	-0.01781047
66	0x3c23508d	0.009967935
67	0x3c1d5a66	0.009604072
68	0xbc43fe29	-0.011962452
69	0x3bf72056	0.0075416965
70	0xbc7734b9	-0.015088254
71	0x3b023ae9	0.001987154
72	0x3c4611b9	0.012089186
73	0x3a9bea1a	0.0011895329
74	0x3b0721bb	0.002061947
75	0xbc72ba27	-0.01481489
76	0x3c9f379e	0.0194357
77	0xba6f3b09	-0.00091259234
78	0x3a6b9b67	0.00089876953
79	0x3ae8f9e4	0.0017774669
80	0x3b3ace1f	0.0028504205
81	0x3bde9b2e	0.006793401
82	0xbb8397dd	-0.0040159062
83	0x3bd90f2f	0.0066241245
84	0x3bd1fbc1	0.006408185
85	0xbc32e17c	-0.0109180175
86	0x3c33f83d	0.010984478
87	0x3b94cdfd	0.0045411573
88	0xbb8d94f0	-0.0043207332
89	0xbc27a8c0	-0.010233104
90	0x3b635f0e	0.0034694108
91	0xbc09936c	-0.0083969645
92	0xbad9ea9c	-0.0016625705
93	0xbc1181d9	-0.008881056
94	0xbc1216a9	-0.008916535
95	0xba0e01d0	-0.000541714
96	0x3c26003c	0.010131892
97	0x3abc7244	0.0014377316
98	0x3c170fc4	0.009220067
99	0x3c24f9d6	0.010069331

fc_apt_2.weight f4 [50, 100]
0	0xbd12899e	-0.035775773
1	0xbe71f81c	-0.23629802
2	0xbe1daa4c	-0.15396994
3	0x3d09e730	0.033667743
4	0x3dcaea93	0.09908023
5	0xbd848494	-0.064706
6	0xbe120718	-0.14260519
7	0x3dc08e4b	0.0940214
8	0xbd8e77c6	-0.06956439
9	0xbd962ffb	-0.0733337
10	0x3d567655	0.052358944
11	0x3de39e23	0.111141466
12	0x3dc108fb	0.09425541
13	0x3ceb5294	0.0287259
14	0xbd722d32	-0.059125133
15	0xbd87e44a	-0.066353396
16	0xbd6ccfe1	-0.057815436
17	0xba744ee5	-0.00093196175
18	0xbdc9c8d0	-0.09852755
19	0xbe8dcc0a	-0.27694732
20	0xbd0c1140	-0.03419614
21	0xbe372a9f	-0.17887352
22	0xbd8f5c91	-0.070000775
23	0xbda501fc	-0.08057019
24	0xbe2889cc	-0.16458815
25	0x3cdd5461	0.027017774
26	0xbdcab0e1	-0.09897018
27	0xbcbc3b4e	-0.022977497
28	0x3db68ce9	0.08913595
29	0xbd55799c	-0.05211793
30	0xbcb72e4e	-0.022360947
31	0x3cb3c7a1	0.021945776
32	0x3e199302	0.14997485
33	0xbd85d0a6	-0.06533937
34	0x3e2add34	0.16685945
35	0xbe126f19	-0.14300193
36	0x3d80cc0a	0.06288917
37	0x3cf87a00	0.030331612
38	0xbe73bf65	-0.2380348
39	0x3da3d6f2	0.07999982
40	0x3e122543	0.14272027
41	0xbd38e60a	-0.045141257
42	0x3de1899a	0.110125735
43	0x3ccc6cd9	0.024954246
44	0xbe19a6f9	-0.15005101
45	0x3db556b4	0.08854428
46	0x3db27554	0.08713785
47	0xbe442cf0	-0.19157767
48	0xbdc2eb75	-0.09517566
49	0x3d697175	0.056992967
50	0x3d32a754	0.043616608
51	0xbe9ab898	-0.3021896
52	0xbe6b544e	-0.22981378
53	0x3b6442b6	0.0034829802
54	0xba13d875	-0.00056398596
55	0xbd55613f	-0.052094694
56	0xbde51239	-0.11185116
57	0x3d8f8028	0.07006866
58	0xbe20d8c0	-0.15707684
59	0xbdc33955	-0.095324196
60	0x3e34696d	0.17618342
61	0xbdf4aab1	-0.11946619
62	0xbdc76912	-0.097368374
63	0x3d46c405	0.048526783
64	0x3da08fa3	0.078398965
65	0x3dae147c	0.08500001
66	0x3c54495a	0.0129569415
67	0xbdd4511c	-0.10367033
68	0xbcd29f3d	-0.025710696
69	0xbc315dde	-0.010825602
70	0xbda5ef7e	-0.0810232
71	0x3e455b86	0.19273195
72	0xbda9a5b1	-0.08283556
73	0x3e2ab6bc	0.1667127
74	0x3dc399a6	0.095507905
75	0x3d82eac9	0.06392438
76	0xbe3152cc	-0.17316741
77	0x3ce76e75	0.028250912
78	0x3d3050e0	0.04304588
79	0xbe26e1f1	-0.16297127
80	0xbaffec83	-0.0019525442
81	0xbe3bc02c	-0.18335027
82	0x3dcd6527	0.10029059
83	0x3db4fd28	0.08837348
84	0x3e53b50e	0.20674536
85	0x3db4ba42	0.08824588
86	0x3e48e761	0.19619514
87	0xbca567a9	-0.02019103
88	0xbc98cf40	-0.018653512
89	0x3dfb5542	0.12272121
90	0xbdd9f1a5	-0.10641793
91	0xbdfcd690	-0.12345612
92	0xbdd334d4	-0.103128105
93	0x3e56406e	0.20923015
94	0x3d81a04b	0.063294016
95	0x3dc0c8e0	0.09413314
96	0x3c8ade45	0.01695169
97	0xbe1b15c7	-0.15145026
98	0x398bfccd	0.00026700497
99	0x3e377cce	0.17918703
100	0x3cc1efb0	0.023673862
101	0xbe02bff2	-0.12768534
102	0xbc444e43	-0.01198155
103	0xbe143eb8	-0.1447705
104	0xbc45b657	-0.012067399
105	0x3d8a6226	0.067570016
106	0xbe177ee6	-0.14794502
107	0xbdcc905c	-0.09988472
108	0x3e16195b	0.1465811
109	0xbcee6c2c	-0.029104315
110	0xbd4f6cf0	-0.050641
111	0x3dc9a746	0.09846358
112	0x3e31c7e3	0.17361407
113	0xbe2c4b8b	-0.16825692
114	0x3e63eca7	0.22258244
115	0xbdd6ced1	-0.10488666
116	0x3bf73ff4	0.0075454656
117	0xbe27885c	-0.1636061
118	0xbca6a257	-0.020341082
119	0x3d9380b3	0.07202282
120	0x3d404b0c	0.04694657
121	0xbe002295	-0.12513192
122	0x3e1566df	0.14590023
123	0x3de15d06	0.11004071
124	0x3bd876d2	0.0066059614
125	0xbd6c556e	-0.05769866
126	0xbc137ebb	-0.009002383
127	0xbdb761b3	-0.089541815
128	0xbd0cb45a	-0.034351684
129	0x3d86a191	0.06573785
130	0xbdf3feb6	-0.11913817
131	0x3d9c354f	0.07627355
132	0xbc99e979	-0.018788086
133	0xbd5f536c	-0.054522917
134	0xbe10ab0a	-0.14127746
135	0x3d76c1e0	0.060243487
136	0xbe13d080	-0.14435005
137	0xbd7ce306	-0.061739944
138	0x3df7430e	0.120733365
139	0xbc7bfac3	-0.0153796105
140	0xbe05f577	-0.13081919
141	0x3ca91a29	0.020642357
142	0xbdf53fda	-0.11975069
143	0xbe0007df	-0.12503003
144	0x3cf7d987	0.030255092
145	0x3cf4b9ac	0.029873691
146	0xbd3e058a	-0.046392
147	0xbdb3b479	-0.08774657
148	0xbc2697e4	-0.0101680495
149	0xbce8cf69	-0.028419213
150	0xbe37fe80	-0.17968178
151	0xbd066e6c	-0.03282015
152	0xbe0fc685	-0.14040573
153	0x3d30bdd2	0.043149777
154	0x3dfa4eee	0.12222086
155	0xbce1a979	-0.027546631
156	0xbc4a75e7	-0.012357212
157	0x3e45f031	0.19329907
158	0xbd947476	-0.07248776
159	0x3ad3a733	0.0016147852
160	0xbdd5fd6a	-0.104487255
161	0x3be6b58c	0.007040685
162	0x3da959ff	0.082691185
163	0xbd56c03c	-0.052429423
164	0xbd58e7f0	-0.052955568
165	0xbc39fdc4	-0.011352006
166	0xbdb5fc15	-0.088859715
167	0xbdc1c113	-0.09460654
168	0xbe798afd	-0.24369426
169	0xbcdf7b6e	-0.027280536
170	0x3d3d2e84	0.04618694
171	0x3e2b9b2a	0.16758409
172	0xbdea38ae	-0.11436592
173	0xbe2a558e	-0.16634199
174	0xbc721fb2	-0.014778065
175	0xbd566bc2	-0.05234886
176	0xb8eb4747	-0.0001121895
177	0xbc3a6720	-0.011377126
178	0xbcbb7c36	-0.022886377
179	0xbd7f1eb5	-0.062285144
180	0xbe461551	-0.19344069
181	0xbd69b4c6	-0.057057165
182	0xbdeb3d4a	-0.11486299
183	0xbd7c50d0	-0.061600506
184	0x3d8d2cff	0.06893348
185	0xbd4e4f63	-0.050368678
186	0xbddd0cfe	-0.10793494
187	0xbe52e58f	-0.20595382
188	0xbdea86b4	-0.11451474
189	0xbe84f7fd	-0.2597045
190	0xbdc598eb	-0.096483074
191	0xbc5680c3	-0.013092223
192	0x3d10956c	0.03529875
193	0x3e15ba31	0.14621808
194	0xbba41470	-0.005007319
195	0x3db884d6	0.090097114
196	0xbc48531f	-0.012226849
197	0xbe96c584	-0.29447567
198	0x3e104da1	0.14092113
199	0xbdfb9c8b	-0.122857176
200	0xbe46f805	-0.1943055
201	0xbe05d8eb	-0.13071029
202	0x3d8e5009	0.06948859
203	0xbcf787af	-0.030216066
204	0xbda77738	-0.08177036
205	0x3e27bb0b	0.16379945
206	0x3de93905	0.11387829
207	0xbd3f0416	-0.046634756
208	0xbd0ca126	-0.03433337
209	0x3b15dc05	0.0022866738
210	0xbc451381	-0.012028576
211	0x3e143975	0.14475043
212	0x3d1791e8	0.03700438
213	0xbd754586	-0.059880756
214	0x3dc8dab9	0.09807343
215	0xbe486d81	-0.19573022
216	0xbd3b7b7e	-0.04577207
217	0xbd226237	-0.039644446
218	0x3e3088cd	0.17239685
219	0x3dc62471	0.096749194
220	0x3d883ce7	0.06652241
221	0xbd4ee4d5	-0.0505112
222	0xbd1f936f	-0.038958963
223	0x3d844f03	0.06460383
224	0xbca944d7	-0.020662708
225	0x3d1f1270	0.038835943
226	0x3c0a4d0f	0.008441224
227	0x3d7b4d54	0.061353043
228	0x3c1eaa3d	0.009684143
229	0xbd062267	-0.032747652
230	0xbdead375	-0.114661135
231	0x3dbd3112	0.09237875
232	0x3c800b6b	0.015630445
233	0xbcd3230b	-0.025773546
234	0xbb92f041	-0.004484207
235	0x3dd38217	0.10327547
236	0x3e631762	0.22176889
237	0xbe31e0ed	-0.17370959
238	0xbcef4d2f	-0.029211609
239	0x3d0aa1ed	0.03384583
240	0xbcf35617	-0.029704137
241	0xbe0dae5f	-0.13836049
242	0xbe12afc2	-0.14324859
243	0x3d3843c2	0.044986494
244	0x3d20cf09	0.039259944
245	0xbdeae720	-0.11469865
246	0xbe39d5af	-0.1814792
247	0xbe448380	-0.19190788
248	0xbca8d013	-0.02060703
249	0xbd045928	-0.03231159
250	0x3ce0e2b5	0.027451852
251	0x3d5375bc	0.051625952
252	0xbe058d9d	-0.13042302
253	0xbbafc193	-0.005363652
254	0x3cbda014	0.02314762
255	0x3db8a497	0.09015768

fc_apt_2.bias f4 [50]
0	0xba3aff2f	-0.0007133362
1	0xbc1e8a5b	-0.009676541
2	0xbaab2c69	-0.00130595
3	0x3c771a0a	0.015081892
4	0x3c2120ba	0.009834463
5	0x3b89a9b3	0.004201138
6	0x3bceafc4	0.006307574
7	0xbba1f5b0	-0.0049426183
8	0x3bed87b8	0.007248845
9	0x3b3a5cc9	0.0028436652
10	0x3b9de9a2	0.004819111
11	0xbba80c6a	-0.005128433
12	0x3bba9569	0.0056940806
13	0xba8a59ac	-0.0010555289
14	0x3b5f87e0	0.0034108087
15	0xbb67ee5e	-0.003538988
16	0x3c6906d7	0.014222822
17	0xbbf3ed68	-0.0074440725
18	0x3a16da29	0.00057545543
19	0x3c4a6a78	0.012354486
20	0x3b77508d	0.003773722
21	0xbc376761	-0.011194081
22	0xbb518d37	-0.003197504
23	0x39337f10	0.00017118105
24	0xbc1d3ee1	-0.009597511
25	0xbc7761c9	-0.015098997
26	0xba232517	-0.00062234834
27	0x39b64d3e	0.00034771295
28	0xba811da8	-0.0009850757
29	0xbab48192	-0.0013771525
30	0x3bc6285d	0.006047292
31	0x3b300139	0.0026856198
32	0x3c04305a	0.008068169
33	0xbb471384	-0.0030376622
34	0x3b226824	0.002478131
35	0xbb500203	-0.003173948
36	0x3b674bd0	0.003529299
37	0x3baa1c11	0.005191334
38	0x3b9a5848	0.004710231
39	0xbb155c92	-0.0022790772
40	0x3c3f9760	0.011693805
41	0x3c42dd48	0.011893578
42	0xbbbcb66e	-0.005759052
43	0x3b830850	0.0039987937
44	0x3c22a05e	0.00992593
45	0xbbd188ff	-0.006394505
46	0xbc91a89c	-0.017780595
47	0xbb7c41a9	-0.0038491285
48	0xbc1971cd	-0.009365511
49	0x3c539dd9	0.012916052

fc_apt_3.weight f4 [10, 50]
0	0x3d91dfc1	0.07122756
1	0x3bf7279b	0.007542563
2	0x3e3d41b1	0.1848209
3	0xbc2b3448	-0.010449477
4	0x3e717415	0.23579438
5	0x3e060dd9	0.1309122
6	0x3e6e846b	0.23292701
7	0x3db3b91b	0.087755404
8	0x3ecf4359	0.4048107
9	0xbdae2187	-0.085024886
10	0x3e8a3a8f	0.26997802
11	0xbd5bef68	-0.053695112
12	0x3e924325	0.28566852
13	0x3df7c84c	0.120987505
14	0x3d896704	0.06709102
15	0xbd637f28	-0.055541188
16	0xbe594fc4	-0.21221834
17	0x3d54dde2	0.051969416
18	0x3d34d8db	0.044152122
19	0xbdc61a13	-0.09672942
20	0xbccf75c0	-0.025324702
21	0x3c61816d	0.013763768
22	0x3e974f9c	0.29552925
23	0xbd67339f	-0.056445714
24	0xbd99efd1	-0.075164445
25	0x3c2dd0ef	0.010608896
26	0xbc7ca629	-0.015420475
27	0xbe11e92c	-0.14249104
28	0xbd46224a	-0.048372544
29	0x3ded92ba	0.116002515
30	0x3ce96f01	0.028495314
31	0xbe41feaf	-0.1894481
32	0xbe140787	-0.14455996
33	0xbd57bb8b	-0.05266909
34	0xbd9c838a	-0.076422766
35	0x3de44959	0.111468025
36	0xbdfdc9c5	-0.12392
37	0xbe92eb4f	-0.2869515
38	0xbda7bde7	-0.08190518
39	0x3d1cfc23	0.038326394
40	0x3beb7409	0.0071854633
41	0xbe49ffa0	-0.1972642
42	0xbd78d959	-0.060754154
43	0x3d09a55c	0.033604965
44	0xbd0aad3f	-0.033856627
45	0x3d25ce16	0.040479742
46	0x3e090781	0.13381769
47	0x3e747582	0.2387295
48	0xbb4c8b8d	-0.0031211108
49	0x3e473fe9	0.19457974
50	0x3dfc271e	0.123121485
51	0xbdf30bb6	-0.11867468
52	0xbdbe5e1f	-0.09295296
53	0x3c6c0c93	0.014407295
54	0xbe006a92	-0.12540653
55	0x3d27a124	0.04092516
56	0xbc40f6e7	-0.011777616
57	0x3dd4cd37	0.10390704
58	0x3e0c1265	0.13678892
59	0xbc15d6b3	-0.009145427
60	0xbdf03bac	-0.117301315
61	0x3e54aa19	0.20768012
62	0x3d7335e2	0.05937756
63	0xbdd08989	-0.10182483
64	0x3e2d00cc	0.16894835
65	0x3df11d91	0.117732175
66	0x3dcd64af	0.100289695
67	0xbbb53e08	-0.0055310763
68	0xbd97e546	-0.07416777
69	0xbde84d1a	-0.11342831
70	0x3b6d8a63	0.0036245815
71	0xbe886f33	-0.26647338
72	0x3e80d1cd	0.25160065
73	0x3e9e885f	0.30963418
74	0xbd24bd65	-0.040219683
75	0xbdb3cb2c	-0.08778986
76	0x3e12360c	0.1427843
77	0xbe062b25	-0.13102396
78	0xbe431172	-0.19049624
79	0x3c705c2f	0.014670416
80	0xbcbc7b5c	-0.023008041
81	0xbd9dfe2b	-0.07714494
82	0xbd47488e	-0.048653178
83	0xbe17e277	-0.14832483
84	0xbe0279e2	-0.12741807
85	0xbe1378a0	-0.14401484
86	0x3e387770	0.18014312
87	0xbd58534e	-0.05281382
88	0xbe1c3017	-0.1525272
89	0xbe1a7b9c	-0.15086216
90	0x3ba628f6	0.005070801
91	0xbe5950de	-0.21222255
92	0x3d7995ee	0.060934
93	0xbabab566	-0.0014244735
94	0x3d6585d9	0.05603585
95	0xbd947bf4	-0.07250205
96	0x3dae210b	0.08502396
97	0x3eb443d8	0.3520801
98	0x3eaddf8b	0.33959612
99	0xbe25e376	-0.1620005
100	0xbe065edc	-0.13122123
101	0xbb18a736	-0.0023293025
102	0xbbcaeb3b	-0.0061925924
103	0xbd4f9324	-0.050677434
104	0xbca1e5de	-0.01976293
105	0x3dac8ea0	0.08425641
106	0xbd49a465	-0.049229044
107	0x3e05052f	0.12990259
108	0x3d3fa768	0.04679051
109	0xbc0d0369	-0.00860677
110	0xbd8171ce	-0.06320535
111	0xbe14d69f	-0.14534996
112	0xbd8b0879	-0.067887254
113	0x3bfff667	0.007811356
114	0xbd82c4a7	-0.06385165
115	0x3e1a7e8b	0.15087335
116	0x3d7c01e6	0.061525248
117	0xbdb3f9d9	-0.08787889
118	0x3d64b746	0.055838846
119	0xbd8d0dad	-0.06887374
120	0xbdb9dc3f	-0.09075212
121	0x3dbc7fd5	0.092040695
122	0x3dd7549b	0.10514184
123	0xbcfd59da	-0.030926634
124	0xbd2ae183	-0.04171897
125	0x3ed6294a	0.41828376
126	0xbd82cb1b	-0.063863955
127	0xbc1c61d2	-0.009544807
128	0xbd6a0a51	-0.057138745
129	0x3c410a4e	0.011782242
130	0xbea4815e	-0.3212995
131	0xbc9af0b4	-0.018913604
132	0xbdd9d7a9	-0.10636837
133	0x3cf2b197	0.029625697
134	0x3cc124a7	0.023577048
135	0x3df505ef	0.11964022
136	0x3c48ea46	0.012262886
137	0x3ec88478	0.39163566
138	0x3e2396ca	0.1597549
139	0xbe99098a	-0.2989009
140	0xbe88d1b9	-0.26722506
141	0x3e06547f	0.1311817
142	0x3d9fb5eb	0.0779837
143	0xbe3385de	-0.17531535
144	0x3e0f486a	0.13992468
145	0x3e3694ed	0.17830248
146	0xbd349d95	-0.044095594
147	0x3dd97da7	0.106196694
148	0x3e5710d4	0.21002513
149	0xbc183cc5	-0.009291832
150	0x3e260e17	0.16216312
151	0xbe39a6eb	-0.1813008
152	0xbd3a2f57	-0.045455303
153	0xbe3dc905	-0.18533714
154	0xbe906980	-0.2820549
155	0xbe1c7361	-0.15278389
156	0xbd1523c9	-0.03641108
157	0xbe38ebfa	-0.18058768
158	0x3d953924	0.07286289
159	0xbe90614e	-0.28199238
160	0x3da30bc3	0.07961228
161	0xbce3ce5a	-0.027808357
162	0x3d9e258b	0.077220045
163	0xbdd86616	-0.10566346
164	0xbe715a0b	-0.23569505
165	0x3e118ba0	0.14213419
166	0xbdf88759	-0.121351905
167	0xbd24b744	-0.04021384
168	0xbe92b05a	-0.2865017
169	0x3e03bf15	0.12865861
170	0x3e64232c	0.22279042
171	0xbd223a2e	-0.039606266
172	0x3c9083ae	0.017640915
173	0xbce5b2ee	-0.028039422
174	0x3e8d1a9e	0.2755937
175	0xbd8a1be1	-0.06743599
176	0xbde32db8	-0.110927045
177	0xbc292afa	-0.010325188
178	0x3b674846	0.003529088
179	0xbd2fc05d	-0.04290806
180	0x3da73a03	0.08165362
181	0xbe1e8499	-0.1548027
182	0xbe3f234f	-0.18665813
183	0xbdafd6f8	-0.08585924
184	0x3d9f0776	0.07765095
185	0x3cb28777	0.02179311
186	0x3cfab085	0.03060175
187	0x3d6c76ea	0.057730593
188	0x3c5392fa	0.01291346
189	0xbd81b136	-0.063326284
190	0xbdbd91c6	-0.0925632
191	0x3e1db13b	0.1539964
192	0xbd20abed	-0.03922646
193	0x3dc4dd1d	0.096124865
194	0xbcfe76f6	-0.031062584
195	0xbd2e8503	-0.04260732
196	0x3ed502c1	0.41603664
197	0xbce4c069	-0.02792378
198	0x3c520470	0.012818441
199	0x3c86e68e	0.016467359
200	0xbd9aef37	-0.07565158
201	0x3dc94e13	0.098293446
202	0xbdff28ee	-0.124589786
203	0x3e347dc4	0.17626101
204	0xbe040065	-0.12890776
205	0xbe975203	-0.29554757
206	0xbd360109	-0.04443458
207	0xbcbe34c5	-0.023218522
208	0x3e5f436b	0.21803062
209	0x3e248bdf	0.16068982
210	0xbe75c2c6	-0.24000081
211	0x3e9cf17b	0.30652985
212	0x3ce0df6f	0.027450291
213	0x3c81b7b7	0.015834672
214	0x3e323976	0.17404732
215	0xbda208fa	-0.079118684
216	0x3e396767	0.18105851
217	0xbe80ad6c	-0.2513231
218	0x3e736fda	0.23773137
219	0x3e681bff	0.2266693
220	0xbe2aef1d	-0.16692777
221	0xbe111de2	-0.14171556
222	0xbd85703f	-0.0651555
223	0xbd4a9b63	-0.049464595
224	0xbe41272d	-0.188626
225	0xbe11da0d	-0.14243336
226	0x3caccee9	0.021094756
227	0x3da2792e	0.079332694
228	0x3e33f751	0.17574812
229	0xbe5c103a	-0.21490565
230	0x3ccf5446	0.02530874
231	0xbec2bf27	-0.38036463
232	0xbe1f4bd0	-0.15556264
233	0xbc692540	-0.0142300725
234	0xbd4ecbba	-0.050487258
235	0xbe225658	-0.1585325
236	0xbe4b4346	-0.19849882
237	0x3d6d0404	0.057865158
238	0x3cb1a12f	0.021683304
239	0x3e5d4f44	0.21612269
240	0x3e80a1f3	0.25123557
241	0xbd5f5833	-0.054527473
242	0x3dc0f977	0.09422582
243	0x3cfce6cb	0.03087177
244	0x3c8dca2d	0.017308319
245	0xbe26b64e	-0.16280481
246	0xbe57adbf	-0.21062373
247	0x3e5c8e25	0.21538599
248	0xbe4068a5	-0.18789919
249	0xbc8edb84	-0.017438658
250	0x3dc9c1ce	0.098514184
251	0xbe4c4680	-0.19948769
252	0xbc062c2f	-0.008189245
253	0x3e29f950	0.16599011
254	0xbc8217cf	-0.015880493
255	0xbcdc048c	-0.026857637

fc_apt_3.bias f4 [10]
0	0xbc1c204c	-0.009529185
1	0xbbcafccd	-0.006194687
2	0xbc99a21b	-0.018754056
3	0xbadf7c18	-0.0017050533
4	0x3c0f50a6	0.008747255
5	0x3ccb365b	0.024806192
6	0x3c1b5f59	0.009483182
7	0x3c2447f6	0.010026922
8	0xbc9237cc	-0.017848872
9	0x3b9cffd7	0.0047912407

fc_pep_1.weight f4 [50, 160]
0	0x3e0ad6de	0.13558528
1	0xbd23ff6a	-0.040038504
2	0xbd655d23	-0.055997025
3	0xbce15578	-0.027506575
4	0xbdc4cfff	-0.096099846
5	0xbd0a5aaf	-0.03377789
6	0x3dd1edc6	0.1025043
7	0xbd2d6653	-0.042333912
8	0xbda05ae1	-0.07829834
9	0xbe42ba5e	-0.19016406
10	0xbd6c985e	-0.057762496
11	0x3d000016	0.031250082
12	0x3cb4274e	0.021991398
13	0x3b2fe48a	0.00268391
14	0xbc97a0d0	-0.018509299
15	0xbba53692	-0.0050419057
16	0x3d3b9357	0.04579481
17	0xbd7e30b2	-0.06205816
18	0xbcbc64bb	-0.02299725
19	0xbc1f25e0	-0.00971362
20	0xbd4e88cd	-0.050423432
21	0xbe1538af	-0.14572404
22	0xbc945d0d	-0.018110776
23	0x3d1c217a	0.038117863
24	0xbdafc566	-0.08582573
25	0x3dda15e9	0.1064871
26	0xbdb2a871	-0.08723534
27	0xbe17da2f	-0.14829324
28	0xbced75af	-0.02898678
29	0x3d412042	0.047149904
30	0xbde0fb16	-0.10985391
31	0x3e0c2411	0.13685633
32	0x3d5201bc	0.051271185
33	0x3c683258	0.014172159
34	0xbd6790dd	-0.056534637
35	0x3c01d99e	0.007925419
36	0x3d4658e6	0.048424624
37	0x3d5c12ed	0.053728987
38	0x3da00322	0.078130975
39	0xbd7a0866	-0.061043166
40	0xbda3ddc8	-0.08001286
41	0xbe41a344	-0.18909937
42	0xbdd32ed8	-0.10311669
43	0xbd400974	-0.046884015
44	0xbe12b7fc	-0.14327997
45	0x3dda8244	0.106693774
46	0x3e0a9b5a	0.13535824
47	0xbd17b462	-0.03703726
48	0x3da4999a	0.0803711
49	0x3d94c33b	0.072638
50	0xbcb7f8d6	-0.022457521
51	0x3d26e078	0.040741414
52	0x3e192da7	0.14958821
53	0xbd46cd08	-0.048535377
54	0x3de97166	0.11398582
55	0xbd585eb7	-0.052824702
56	0xbd47fe8d	-0.048826743
57	0x3d2dafb4	0.04240389
58	0xbd12462b	-0.03571145
59	0x3de63199	0.11239929
60	0xbd44e4a4	-0.04806961
61	0x3bb50385	0.005524101
62	0xbe05517f	-0.1301937
63	0xbe12773d	-0.14303298
64	0xbddeabdd	-0.10872624
65	0x3da9ac05	0.08284763
66	0x3d9725a4	0.07380226
67	0x3cba8a4c	0.022771023
68	0x3d34cc31	0.044140045
69	0xbd82ea23	-0.06392314
70	0xbd6330c6	-0.055466436
71	0xbd6d0a5b	-0.057871204
72	0xbe1488ee	-0.1450536
73	0x3e14358e	0.14473554
74	0x3d489782	0.048972614
75	0xbd03cf05	-0.03217985
76	0x3cbd0be6	0.023076963
77	0x3ba34065	0.0049820417
78	0xbb3da1c1	-0.0028935524
79	0x3d824fbc	0.063628644
80	0x3d259639	0.040426467
81	0x3e33e597	0.1756805
82	0xbd034f38	-0.03205797
83	0x3c582ad5	0.013193806
84	0x3bf851ad	0.007578096
85	0xbc14e82b	-0.009088556
86	0x3dad3ad3	0.084584855
87	0xbddb93c7	-0.10721546
88	0x3cb95a72	0.022626135
89	0x3c9c95c6	0.019114386
90	0xbe253c95	-0.16136391
91	0xbd0bfdfb	-0.03417776
92	0xbbc21816	-0.0059232814
93	0x3ab747bd	0.0013983172
94	0x3db6dafe	0.08928488
95	0xbcee6b7d	-0.029103989
96	0x3dcbcd36	0.0995125
97	0xbe09c4cf	-0.13453983
98	0xbca3be3e	-0.019988175
99	0xbe48d19d	-0.19611211
100	0x3d776112	0.060395308
101	0x3dea2b0e	0.11433993
102	0xbdabeb3f	-0.08394479
103	0x3d0869f3	0.033304166
104	0x3de958d3	0.11393895
105	0xbd0272cb	-0.031847756
106	0xbe06de63	-0.13170771
107	0x3d8af1d2	0.06784405
108	0x3d51caf0	0.051218927
109	0xbc5ea19d	-0.013588336
110	0x3cd99e48	0.026564732
111	0x3ddbcbf3	0.107322596
112	0xbd9d75e3	-0.07688501
113	0x3cac854e	0.021059658
114	0xbd7e88f0	-0.062142313
115	0x3d113e4f	0.035459813
116	0xbdabf670	-0.083966136
117	0xbd7772c1	-0.060412172
118	0x3c9d4015	0.019195596
119	0x3ce7549f	0.028238593
120	0x3dc8025b	0.09766074
121	0x3d9b41b5	0.07580892
122	0x3d1ae1cf	0.037813004
123	0x3d4c2cfc	0.049847588
124	0xbdb2b5a7	-0.08726054
125	0x3c9e98c2	0.01935995
126	0x3d97bedd	0.07409451
127	0x3db20dab	0.08694013
128	0x3d1134f7	0.0354509
129	0x3d2c918b	0.042130988
130	0x3dfeb04a	0.12435968
131	0x3c2d042c	0.010560077
132	0xbc96ce19	-0.018408822
133	0x3dace767	0.08442574
134	0xbc4663ac	-0.012108725
135	0xbd7d7399	-0.06187782
136	0x3d06860d	0.032842685
137	0xbe1110d1	-0.14166571
138	0xbd4e4558	-0.0503591
139	0xbd7618c8	-0.060082227
140	0x3d9101d6	0.07080428
141	0x3df061af	0.11737382
142	0xbd3dd59e	-0.0463463
143	0xbd302446	-0.043003343
144	0xbd187093	-0.037216734
145	0xbcdb88d7	-0.026798649
146	0x3d2b6a90	0.041849673
147	0xbdb38939	-0.087664075
148	0x3e1e4ac5	0.1545821
149	0x3dc365a2	0.09540869
150	0x3da4fcb7	0.08056014
151	0x3d187cf5	0.037228543
152	0x3d657bf5	0.056026418
153	0x3d013d5a	0.03155265
154	0x3d34c034	0.04412861
155	0xbda6565d	-0.08121941
156	0x3dc37dde	0.09545492
157	0x39d1da11	0.0004002606
158	0xbcfc0dac	-0.030768238
159	0x3d35f412	0.044422217
160	0xbd964d05	-0.07338909
161	0xbd0e4a68	-0.034738928
162	0xbd5133a9	-0.051074658
163	0x3d8942bd	0.067021824
164	0xbdbd17b4	-0.09233037
165	0xbc92cf3a	-0.017921079
166	0xbd44ba65	-0.048029322
167	0xbdb34610	-0.08753598
168	0x3cb97ce0	0.022642553
169	0x3d698a98	0.05701694
170	0x3dd072a1	0.10178114
171	0x3c8f943f	0.017526744
172	0x3e0cd8aa	0.13754526
173	0x3c78a1e8	0.01517532
174	0x3de720c4	0.112855464
175	0xbd320cf5	-0.043469388
176	0xbcdcb49d	-0.026941592
177	0x3db397c9	0.08769185
178	0x3d01cfc6	0.03169229
179	0x3badbb1e	0.005301847
180	0x3e054d6f	0.1301782
181	0x3d983db5	0.07433645
182	0x3cecd98b	0.028912326
183	0x3da1fcb7	0.0790953
184	0x3e5391c8	0.2066108
185	0xbddbba22	-0.107288614
186	0x3c0ac040	0.0084686875
187	0x3e0ed89a	0.13949814
188	0xbe623c58	-0.22093332
189	0x3d555620	0.05208409
190	0x3e5017c9	0.20321573
191	0xbdb3b667	-0.08775025
192	0x3c55f0da	0.013057912
193	0xbde28afa	-0.11061664
194	0x3bce840f	0.0063023637
195	0x3d5e859b	0.054326635
196	0xbd22ad3a	-0.039715983
197	0x3d038498	0.032108873
198	0x3e6b901f	0.23004197
199	0x3d09207b	0.03347824
200	0x3e2551f9	0.16144551
201	0xbd7ecfcc	-0.06220989
202	0x3d95f806	0.07322697
203	0x3db076d5	0.086164154
204	0x3e2bff46	0.16796598
205	0xbdacc1ef	-0.084354274
206	0xbdbc8632	-0.09205283
207	0xbd1ce05e	-0.03829991
208	0xbe2852b8	-0.16437805
209	0x3c3faf81	0.011699558
210	0x3d4df7a6	0.050285004
211	0xbcb629f4	-0.022236802
212	0x3da9b2b4	0.08286038
213	0xbe10336d	-0.14082117
214	0xbd211cee	-0.03933423
215	0x3e1afe08	0.15135968
216	0xbc8c2764	-0.017108627
217	0xbe1891be	-0.14899346
218	0x3da9452a	0.08265145
219	0xbdad5bc5	-0.08464769
220	0x3de39042	0.11111499
221	0x3d8f447f	0.069954865
222	0xbd632b9a	-0.055461504
223	0x3cea6e25	0.028616974
224	0x3e4397de	0.19100901
225	0xbd7950a8	-0.060867935
226	0x3abbe8cf	0.001433635
227	0x3dac6036	0.08416788
228	0xbe0316ed	-0.12801714
229	0xbdefb254	-0.11703935
230	0x3ddc1c76	0.10747616
231	0x3d107b29	0.035273705
232	0x3cb0780f	0.021541623
233	0xbe6dd04d	-0.23223992
234	0xbe08d93b	-0.13364117
235	0xbd66b685	-0.056326408
236	0x3d82a5a2	0.06379248
237	0xbd8a0e35	-0.06740991
238	0x3bd1b841	0.0064001386
239	0xbe36de1e	-0.17858168
240	0x3e3bdeee	0.1834676
241	0xbe2e40de	-0.17016932
242	0xbdaa91f1	-0.08328617
243	0xbdb17fe9	-0.08666975
244	0x3d08de92	0.033415385
245	0xbdc77193	-0.097384594
246	0xbd8a34c7	-0.06748348
247	0xbba8b5b3	-0.0051486134
248	0xbdd5bc6a	-0.10436328
249	0xbd30d8ba	-0.043175437
250	0x3d65a671	0.056066934
251	0xbd09e1a0	-0.03366244
252	0x3d2a8fd5	0.041641075
253	0x3b8524f7	0.0040632444
254	0xbda3a00d	-0.07989512
255	0x3caecd69	0.021338182

fc_pep_1.bias f4 [50]
0	0x3a760206	0.0009384457
1	0xbd598196	-0.0531021
2	0x3bf6df18	0.007533919
3	0xbca8a5a7	-0.020586802
4	0x3c86fd9a	0.016478349
5	0xbcc3e97f	-0.02391505
6	0xbc0b0750	-0.00848563
7	0x3b54d34c	0.0032474576
8	0x3c7c68a0	0.015405804
9	0xbd0138ca	-0.0315483
10	0x3cc27f75	0.023742417
11	0x3d0d95f1	0.034566823
12	0x3c7afeb0	0.015319511
13	0xbcb7f7e2	-0.022457067
14	0xbb89a163	-0.004200147
15	0x3cf18a88	0.029485002
16	0x3caae9f4	0.02086351
17	0xbcc01556	-0.023447674
18	0xbc46ea06	-0.0121407565
19	0xbc573cb1	-0.013137029
20	0xbcd8e20e	-0.026474979
21	0x3c2efc2c	0.01068024
22	0x3bc364d5	0.005962948
23	0x3c88b453	0.016687548
24	0xbce18601	-0.027529718
25	0xbbcfc5e7	-0.0063407305
26	0xbc424fb1	-0.01185982
27	0x3b854531	0.004067086
28	0x3d0e64dd	0.03476416
29	0xbbd7d1eb	-0.0065863035
30	0xbbce038e	-0.006287045
31	0xbb4a50df	-0.0030870957
32	0x3cedabc0	0.02901256
33	0xbbf3b50f	-0.0074373554
34	0xbd0f866e	-0.03504031
35	0xbb1b1172	-0.0023661521
36	0xbd0532f3	-0.032519292
37	0xbc93126f	-0.017953126
38	0x3c3b9560	0.011449188
39	0x3c49ac3f	0.012309133
40	0xbc42a0b1	-0.011879132
41	0x368cb41b	4.193292e-06
42	0x3ba90399	0.0051578996
43	0xb870719e	-5.7326273e-05
44	0x3c6e44f8	0.014542811
45	0x3c2f91bb	0.010715897
46	0xbcbffb96	-0.023435395
47	0xbcfa3593	-0.030543124
48	0x3ca9ae16	0.020712893
49	0x3c9d10b6	0.019173007

fc_pep_2.weight f4 [10, 50]
0	0xbe39bf78	-0.18139446
1	0xbe7501c6	-0.23926458
2	0x3c8aadcb	0.016928574
3	0x3e64a9c1	0.22330381
4	0x3d55106c	0.052017614
5	0xbddb1cc7	-0.10698848
6	0xbd25ce2b	-0.04047982
7	0x3e9748b9	0.2954767
8	0x3e22b302	0.15888599
9	0xbd85a0c1	-0.06524802
10	0xbdbddc2b	-0.09270509
11	0x3e6492c6	0.22321615
12	0xbd49292b	-0.049111526
13	0xbe013efa	-0.1262168
14	0x3d84787c	0.06468293
15	0x3e361dfa	0.17784873
16	0x3d8c78ab	0.06858953
17	0x3e2f1235	0.17096789
18	0xbe6f666e	-0.23378918
19	0xbe8236c5	-0.2543241
20	0xbd72fc90	-0.059322894
21	0xbdfcb7ae	-0.123397216
22	0x3c331ae4	0.010931704
23	0x3e05155f	0.12996434
24	0xbecbea4d	-0.39827195
25	0x3c6db5cd	0.014508677
26	0xbda312fb	-0.079626046
27	0xbe125ec3	-0.14293961
28	0x3e57310f	0.21014808
29	0xbe297766	-0.16549453
30	0xbe049b27	-0.12949811
31	0xbed45a45	-0.4147512
32	0x3eb3bae1	0.35103515
33	0xbeaae88a	-0.33380538
34	0xbea0981d	-0.31366053
35	0x3df28d15	0.118433155
36	0xbd3b7088	-0.045761615
37	0xbe7a6646	-0.24453077
38	0x3e30cff1	0.17266823
39	0xbd9ef841	-0.077621944
40	0xbcd4908a	-0.025947828
41	0x3e273a74	0.16330892
42	0x3e54c604	0.20778662
43	0xbd069ce5	-0.03286447
44	0x3bd79cf6	0.0065799905
45	0x3da17bd7	0.07884949
46	0x3e640d95	0.22270806
47	0xbc6018ea	-0.013677815
48	0x3d2ffd16	0.04296597
49	0x3cba0771	0.022708626
50	0xbd77d50b	-0.060505908
51	0x3dcb2724	0.09919575
52	0x3dcc2d46	0.09969573
53	0x3eae7317	0.34072182
54	0xbe02bfda	-0.12768498
55	0x3eaaa6a1	0.33330253
56	0x3d1df4c4	0.038563505
57	0xbda894ce	-0.08231507
58	0xbe1dd89a	-0.15414658
59	0xbcfcaf7d	-0.030845398
60	0x3de31be9	0.11089308
61	0xbe4cafd0	-0.19988942
62	0xbd9208f2	-0.071306124
63	0x3d509a2c	0.05092828
64	0xbde0fcf0	-0.10985744
65	0x3ce191b7	0.027535303
66	0xbd9a0cf3	-0.07522001
67	0xbdc369e0	-0.095416784
68	0x3d8268fc	0.063676804
69	0x3e053061	0.13006736
70	0xbe2b43ae	-0.16725037
71	0xbe911b0d	-0.2834095
72	0x3e819903	0.2531205
73	0xbd042931	-0.032265846
74	0x3e5ab82d	0.2135932
75	0x3dcfb6d2	0.10142292
76	0xbb17ff4d	-0.0023192943
77	0x3ddab3c9	0.106788225
78	0xbda9df47	-0.0829454
79	0xbb4b87ac	-0.0031056209
80	0xbe433566	-0.19063339
81	0xbe9099c1	-0.28242305
82	0xbc554022	-0.013015779
83	0x3dbb343a	0.09140821
84	0xbd2e1aac	-0.042505905
85	0xbe20ec65	-0.15715177
86	0xbe80b310	-0.25136614
87	0xbdc3a159	-0.09552259
88	0x3e64ff09	0.22362913
89	0xbe774178	-0.24146068
90	0xbde1873f	-0.11012124
91	0xbde2bd59	-0.110712714
92	0x3df29043	0.11843922
93	0x3d661703	0.05617429
94	0x3e078295	0.13233407
95	0xbdb7e3d3	-0.08979001
96	0xbd3f0609	-0.046636615
97	0xbe82a2cc	-0.2551483
98	0x3d529003	0.05140687
99	0x3e110c7b	0.14164917
100	0x3edd60c5	0.43237892
101	0x3b1452c1	0.0022632333
102	0xbd92d638	-0.07169765
103	0x3d7c9c13	0.06167228
104	0x3e7d03d8	0.24708498
105	0xbe160eb9	-0.14654054
106	0x3dd1da98	0.102467716
107	0xbe203e00	-0.15648651
108	0xbdc85788	-0.0978232
109	0xbdb56bfd	-0.08858488
110	0xbde10c90	-0.10988724
111	0x3e8a470c	0.2700733
112	0xbb0e81ae	-0.0021744776
113	0xbddec6da	-0.10877772
114	0x3d0594a2	0.03261245
115	0xbcf4a53f	-0.029863952
116	0x3e806a47	0.25081083
117	0x3ddd0729	0.10792381
118	0x3dae2c35	0.085045256
119	0x3e4a0bc1	0.19731046
120	0x3defb55d	0.11704514
121	0x3e92dc54	0.28683722
122	0xbd940670	-0.0722779
123	0xbad7365d	-0.00164194
124	0xbee83942	-0.45356184
125	0xbe3a7f7c	-0.18212694
126	0xbd8c6745	-0.068556346
127	0x3da83c06	0.082145736
128	0x3d4fa4b0	0.050694168
129	0x3c2aaab0	0.010416672
130	0xbc380528	-0.011231698
131	0x3c354390	0.011063471
132	0xbd26900e	-0.040664725
133	0x3e1f205a	0.15539685
134	0x3e61376e	0.21993801
135	0xbe5a23bd	-0.21302696
136	0xbc993e1a	-0.01870637
137	0x3c35c10a	0.011093387
138	0xbe0d88dc	-0.13821739
139	0x3e0b2c29	0.13591065
140	0x3dff77ea	0.12474044
141	0xbe1fac4d	-0.15593071
142	0xbc2a556c	-0.010396343
143	0x3ca3f560	0.020014465
144	0x3e85445d	0.2602872
145	0x3e1ab4a0	0.15107965
146	0x3c9e3618	0.019312903
147	0x3d9893d7	0.07450073
148	0xbdabe321	-0.08392931
149	0x3e1308ea	0.14358869
150	0x3cdaad6c	0.026694022
151	0xbea71fe8	-0.3264153
152	0x3eb25ca5	0.34836307
153	0xbea33154	-0.31873572
154	0x3df754fe	0.12076758
155	0xbdd7a83f	-0.10530137
156	0xbd615d16	-0.055020414
157	0xbddf2f24	-0.10897663
158	0x3e3b4463	0.18287806
159	0xbe6ef397	-0.2333511
160	0x3e21208f	0.15735076
161	0x3eae68b7	0.34064266
162	0x3c932f58	0.017966911
163	0xbe24afd3	-0.16082697
164	0xbdcfe64e	-0.10151349
165	0x3e960e76	0.29307908
166	0xbd16c21a	-0.036806203
167	0xbe4a4618	-0.19753301
168	0x3d361034	0.044449046
169	0x3dd4b409	0.103859015
170	0xbe147542	-0.14497855
171	0x3d546ff2	0.051864572
172	0x3c96d730	0.018413156
173	0xbc9f1f82	-0.019424204
174	0xbe8880b6	-0.266607
175	0x3cb4b7bf	0.022060273
176	0xbddbac6e	-0.10726248
177	0xbe533ee5	-0.20629461
178	0x3e26cc3e	0.1628885
179	0xbdab203a	-0.08355756
180	0xbe3bb233	-0.18329696
181	0x3e66e39b	0.22547762
182	0x3dc8def2	0.098081484
183	0xbe7a5c97	-0.24449383
184	0xbe94813c	-0.29004848
185	0x3e9ea121	0.30982307
186	0xbe9bbbe4	-0.30416787
187	0x3e0c180b	0.13681047
188	0x3e0e7304	0.13911062
189	0x3dff0114	0.124513775
190	0xbe6ffa28	-0.23435271
191	0x3d2b6997	0.041848745
192	0xbd47bb03	-0.048762333
193	0xbb9ac7c9	-0.0047235233
194	0xbdf92aa5	-0.12166337
195	0xbd8ac5f8	-0.06776041
196	0xbde27aa7	-0.1105855
197	0xbec4ee6b	-0.38463148
198	0x3df89523	0.121378206
199	0x3e394cbb	0.18095677
200	0xbcce4e5f	-0.025183855
201	0xbe4991a4	-0.19684464
202	0xbe277650	-0.16353726
203	0xbcbd7046	-0.023124825
204	0x3e1a93a4	0.15095383
205	0xbc738b43	-0.014864746
206	0xbe0743bf	-0.13209437
207	0x3df42bff	0.11922454
208	0xbd8add38	-0.067804754
209	0xbe830290	-0.25587893
210	0x3d9c3751	0.07627738
211	0x3bd527a2	0.0065049687
212	0x3e24527b	0.16047089
213	0xbdd0cbde	-0.101951346
214	0xbd48077b	-0.04883526
215	0x3e22afe6	0.15887412
216	0x3e07f2e0	0.13276243
217	0x3e599553	0.21248369
218	0x3cd8d116	0.026466887
219	0xbd72eb74	-0.059306577
220	0x3adf90fe	0.0017056761
221	0xbc476254	-0.012169439
222	0x3e5260c8	0.20544732
223	0x3e85da8f	0.2614331
224	0x3d9c45f0	0.07630527
225	0x3e155975	0.14584906
226	0x3cf1bf7d	0.029510254
227	0x3ca4bdd3	0.020110046
228	0xbd8416b0	-0.0644964
229	0xbeab40c7	-0.3344786
230	0x3cc9d4ad	0.024637545
231	0xbd97c4b8	-0.07410568
232	0xbe254466	-0.16139373
233	0x3db18ab3	0.08669033
234	0xbdbc9d0d	-0.092096426
235	0xbe9b74a0	-0.30362415
236	0xbeb9ace3	-0.36264715
237	0xbeaf9a46	-0.3429739
238	0x3e73135b	0.23737852
239	0xbd8d1901	-0.06889535
240	0xbd0e66e2	-0.034766085
241	0xbea7a788	-0.32745004
242	0xbd9055d0	-0.070476174
243	0x3db85132	0.08999862
244	0xbe5a77e3	-0.21334796
245	0x3e3d12b6	0.18464169
246	0xbc4fe8f6	-0.01268982
247	0xbe3e49ab	-0.1858279
248	0x3dd2addb	0.102870665
249	0x3e261e41	0.16222478
250	0xbd084e3e	-0.033277743
251	0xbe216fde	-0.1576533
252	0xbe71c2be	-0.23609444
253	0xbe0ae6fd	-0.13564678
254	0xbcfaabfd	-0.030599589
255	0x3c5b771a	0.013395095

fc_pep_2.bias f4 [10]
0	0x3d01b8ab	0.031670254
1	0xbab658db	-0.0013911979
2	0x3ca21be1	0.019788684
3	0x3d5d8bf2	0.05408854
4	0x3cd662aa	0.026170094
5	0x3c5372e8	0.012905814
6	0x3c0d6f88	0.008632548
7	0xbbd81ddb	-0.006595356
8	0xbcf1f164	-0.02953405
9	0x3be67040	0.007032424

fc_apt.0.weight f4 [100, 160]
0	0x3c81933e	0.01581728
1	0x3c90afb2	0.017661903
2	0xbd698552	-0.05701191
3	0x3d841ada	0.06450434
4	0xbd8804e7	-0.0664156
5	0x3d58080d	0.052742053
6	0xbd73a7e9	-0.059486303
7	0x3d32c90d	0.04364877
8	0x3d518e39	0.051161025
9	0xbe0a2a18	-0.1349262
10	0xbcb371e3	-0.021904891
11	0xbd090d8a	-0.033460177
12	0xbd812e26	-0.0630763
13	0xbd7bae39	-0.06144545
14	0xbd677883	-0.056511413
15	0x3e03cda9	0.12871422
16	0x3d9a0aef	0.07521617
17	0xbdd813f3	-0.1055068
18	0xbdb41ecc	-0.087949365
19	0x3d1abf60	0.037780166
20	0x3c9dfe63	0.01928634
21	0x3d8c4b19	0.06850261
22	0xbd4503de	-0.04809939
23	0xbcdc1ee5	-0.0268702
24	0xbd4437ed	-0.047904897
25	0xbcf39c64	-0.029737659
26	0xbdd72f78	-0.10507101
27	0x3d045feb	0.032318037
28	0xbdc1d170	-0.09463775
29	0xbd464531	-0.04840583
30	0x3d2e7c53	0.042599034
31	0x3d9c7287	0.07639032
32	0xbba0d092	-0.004907676
33	0xbd204b91	-0.039134566
34	0xbc019df4	-0.007911194
35	0xba95ed46	-0.0011438511
36	0xbdb6bf8d	-0.08923254
37	0x3c883562	0.016627017
38	0x3d106c58	0.035259575
39	0x3d1a8ed1	0.037733857
40	0xbd5b2900	-0.053505898
41	0xbe031e6b	-0.12804572
42	0x3d5dec8c	0.054180667
43	0xbda9f4b6	-0.08298628
44	0xbda51d3e	-0.08062218
45	0xbc8f7d4d	-0.017515803
46	0xbe15fa36	-0.14646229
47	0x3d1cac60	0.038250327
48	0x3d350cd3	0.044201683
49	0x3d41fb4d	0.0473588
50	0x3de0a07f	0.10968112
51	0xbcdfda94	-0.027325906
52	0x3dca4532	0.09876479
53	0xbc90f1ed	-0.017693484
54	0xbe115279	-0.14191617
55	0x3d892b19	0.06697673
56	0xbe0091d8	-0.12555635
57	0x3c2b2fcb	0.010448406
58	0x3d4106ec	0.04712574
59	0x3e31e602	0.17372897
60	0x3e70102e	0.23443672
61	0xbcaa71ea	-0.020806272
62	0xbe4de0bc	-0.2010526
63	0x3ce2d012	0.027687106
64	0xbd25c5ca	-0.04047183
65	0xbd312621	-0.043249253
66	0xbdc5c09e	-0.096558794
67	0xbc82b9dd	-0.015957767
68	0xbda49b84	-0.08037475
69	0xbdde4def	-0.108547084
70	0x3c3ba353	0.011452514
71	0xbdb3dfbe	-0.0878291
72	0xbc8fb853	-0.017543947
73	0xbae08792	-0.0017130247
74	0xbc5cfd63	-0.0134881465
75	0x3aa410bf	0.0012517198
76	0x3d51a80f	0.051185664
77	0x3e10e46b	0.14149635
78	0xbe0eb83b	-0.13937466
79	0xbd8f48af	-0.06996285
80	0x3b9f1c45	0.004855665
81	0x3c4f3447	0.012646741
82	0xbe3b290c	-0.18277377
83	0xbbc2a85d	-0.0059404806
84	0xbc1700b6	-0.009216478
85	0x3e0c805f	0.13720845
86	0xbce50828	-0.02795799
87	0x3de4addf	0.11165976
88	0x3d83a1cc	0.06427345
89	0xbd1457f9	-0.03621671
90	0xbd712ac0	-0.05887866
91	0x3db686b0	0.08912408
92	0x3cf012db	0.029305866
93	0x3dea277b	0.114333116
94	0x3c7d338f	0.015454187
95	0x3d5400d9	0.05175862
96	0xbcdcbfb6	-0.026946884
97	0xbdc0f99b	-0.094226085
98	0x3c3ebeb3	0.011642146
99	0x3dcec2f2	0.100957766
100	0x3dcc53ec	0.09976944
101	0xbc239184	-0.009983424
102	0xbd0f25df	-0.034948226
103	0x3d3ee71a	0.046607114
104	0x3dbf5538	0.09342426
105	0xbbefd510	-0.0073191
106	0xbd7e15fd	-0.06203269
107	0x3dafd89e	0.08586238
108	0x3cc0497f	0.023472546
109	0x3d2ede53	0.042692494
110	0x3d9a340a	0.07529457
111	0x3d641d98	0.055692285
112	0xbe1c8f2d	-0.15288992
113	0x3cfa5bf4	0.030561425
114	0xbe059a49	-0.13047136
115	0xbcbbd8ef	-0.02293059
116	0x3c0166ad	0.007898015
117	0x3dfcd157	0.12344616
118	0x3dc43f63	0.095824026
119	0xbbebcdb8	-0.0071961544
120	0x3e1cf504	0.15327841
121	0x3c51f602	0.0128150005
122	0xbe0530ce	-0.13006899
123	0x3ded2ce0	0.11580825
124	0x3df70676	0.12061779
125	0xbd13c2ce	-0.036074452
126	0x3cbfb74e	0.023402836
127	0xbca7cc6a	-0.020483214
128	0x3d8c3b00	0.06847191
129	0xbda912ba	-0.08255525
130	0xbe06025e	-0.1308684
131	0x3dece151	0.11566413
132	0x3cd1a769	0.025592523
133	0x3c1f68c0	0.009729564
134	0xbd97c3a4	-0.07410362
135	0xbcd9f53b	-0.026606193
136	0x3d0f9052	0.035049744
137	0x3e1c870f	0.15285896
138	0x3d743143	0.059617292
139	0xbe602d33	-0.21892242
140	0xbd3d2527	-0.04617801
141	0xbd2dae85	-0.042402763
142	0xbe0df435	-0.13862689
143	0x3d8b63da	0.068061545
144	0xbe075c88	-0.13218892
145	0xbca37b03	-0.019956117
146	0xbc7653c0	-0.015034616
147	0xbc59fd0c	-0.01330496
148	0xbb84c101	-0.004051328
149	0x3b3fcb82	0.0029265587
150	0x3d49607d	0.049164284
151	0x3d9942ce	0.07483445
152	0x3d9c4299	0.0762989
153	0xbda8926e	-0.08231054
154	0xbcfada77	-0.03062175
155	0x3d64dfdd	0.055877555
156	0xbcc7a4da	-0.0243706
157	0xbbb0f227	-0.0053999606
158	0xbd6c5388	-0.05769685
159	0xbdeb7ea2	-0.11498763
160	0x3d22765b	0.039663654
161	0x3d7d6f92	0.06187398
162	0xbc42c2e9	-0.0118872905
163	0xbdbce246	-0.09222846
164	0xbceabfcf	-0.028655915
165	0x3dcf4380	0.101202965
166	0x3a9fef82	0.0012202116
167	0x3bf764f1	0.007549875
168	0xbe08c05a	-0.13354626
169	0x3dac25df	0.08405661
170	0x3cb33bcd	0.021879101
171	0xbbdabe2e	-0.006675503
172	0x3d85c942	0.065325275
173	0xbdf2f7af	-0.11863648
174	0x3df69485	0.120400466
175	0xbe20adf2	-0.15691355
176	0xbd34535e	-0.044024818
177	0x3e064dbc	0.13115591
178	0xbcbc690b	-0.022999307
179	0xbe2bafb6	-0.16766247
180	0xbd3bbad7	-0.04583248
181	0x3db23e2d	0.08703265
182	0xbd50d286	-0.05098202
183	0x3dafcf91	0.08584512
184	0xbc4cb8c5	-0.012495224
185	0x3da30bad	0.07961211
186	0x3decd4f6	0.115640566
187	0xbc8599f8	-0.01630877
188	0xbd16fc3c	-0.036861643
189	0x3d6bb3e4	0.057544604
190	0x3e7fee5f	0.24993275
191	0xbd6cc131	-0.05780143
192	0xbcca6199	-0.024704741
193	0xbc1d16ff	-0.009588002
194	0xbdc55d08	-0.09636885
195	0x3dd044b9	0.10169358
196	0x3dc4d7ce	0.09611474
197	0x3d305024	0.043045178
198	0xbd874ac2	-0.06606056
199	0xbe195251	-0.14972807
200	0xbe16fc1e	-0.14744613
201	0xb9b45fb5	-0.00034403583
202	0xbcff1adc	-0.031140737
203	0xbd2b98e8	-0.04189387
204	0xbca10bee	-0.019659009
205	0xbc39aa1f	-0.011332064
206	0x3de92c69	0.11385424
207	0x3d0572dc	0.03258024
208	0x3e56620b	0.20935838
209	0xbd8f0f4d	-0.0698534
210	0x3e1a7f91	0.15087725
211	0xbd8c3de7	-0.068477444
212	0x3dde3349	0.108496256
213	0x3dfccded	0.12343965
214	0xbdd1534e	-0.10220967
215	0xbd216d5c	-0.039410934
216	0xbdc29795	-0.09501568
217	0x3d02c2e1	0.031924132
218	0x3d696cde	0.05698859
219	0xbdd8a1b9	-0.10577721
220	0x3c628ab9	0.013827019
221	0x3d64a77c	0.055823788
222	0xbcefdd3d	-0.0292803
223	0x3c451418	0.0120287165
224	0xbe3ef046	-0.18646345
225	0xbc6d06bf	-0.01446694
226	0x3c5034b7	0.012707881
227	0x3cc656fd	0.024211401
228	0xbd8856ec	-0.06657204
229	0xbdae859d	-0.085215785
230	0xbcbfa6af	-0.02339491
231	0xbdfcec02	-0.123497024
232	0x3dd47ae5	0.10375003
233	0x3d37392b	0.044732254
234	0xbcb640e9	-0.022247748
235	0xbd550895	-0.052010138
236	0x3d4aafa8	0.049483925
237	0x3d061456	0.032734238
238	0xbbfb76f9	-0.0076740948
239	0xbb067173	-0.0020514398
240	0x3d08803a	0.03332541
241	0xbcdac53f	-0.026705382
242	0xbd40e527	-0.047093537
243	0xbd9c8405	-0.07642368
244	0xbdf4a2f5	-0.11945144
245	0x3d3af45b	0.04564319
246	0xbb342439	-0.002748741
247	0x3db20c31	0.086937316
248	0xbdd3d1ba	-0.103427365
249	0xbd3f0910	-0.046639502
250	0xbd6e0e0a	-0.058118857
251	0xbcdb1653	-0.026744043
252	0x3aa7586b	0.001276744
253	0xbdab64e2	-0.08368851
254	0x3bc3ef24	0.0059794355
255	0x3daa2e93	0.083096646

fc_apt.0.bias f4 [100]
0	0x3b57175b	0.0032820317
1	0xbb6c6023	-0.0036068044
2	0x3b3ddb40	0.0028969795
3	0x3b74470a	0.0037273788
4	0x3c8c01e7	0.01709075
5	0xbb1b5044	-0.0023698965
6	0xb9cb31cf	-0.00038756288
7	0xbc9808ed	-0.018558944
8	0x3b120e68	0.0022286419
9	0x3b9247cc	0.0044641253
10	0xbc395058	-0.011310659
11	0xbc191270	-0.009342775
12	0xbc17ea63	-0.009272191
13	0x3b59840c	0.0033190278
14	0x3b2fd8a1	0.0026832002
15	0x3bd55b42	0.006511123
16	0x3c4d73bb	0.012539799
17	0xbc41677d	-0.011804459
18	0x3bd04201	0.0063555245
19	0x3b86ebf0	0.0041174814
20	0xbc3fe834	-0.011713076
21	0x3aa451de	0.0012536605
22	0x3b0f1799	0.0021834134
23	0xbc5e8548	-0.013581581
24	0x3c0a452e	0.008439345
25	0xbc4117a3	-0.011785421
26	0x3c50a91c	0.012735631
27	0x3baf2693	0.0053451746
28	0xbbd2238d	-0.0064129294
29	0xbcc74e2e	-0.024329271
30	0x3c2d6184	0.010582332
31	0x39f281be	0.00046254502
32	0x3c0278f7	0.007963411
33	0x3c02cc36	0.007983258
34	0x395a3bb9	0.00020812349
35	0xbc42a7d1	-0.011880831
36	0xbb5a5945	-0.003331737
37	0xbc6980ec	-0.014251929
38	0xbc74b620	-0.014936
39	0x3b2e1679	0.0026563688
40	0x3c7f47cc	0.015581083
41	0xbc8f42b3	-0.01748786
42	0x3aafb1a5	0.0013404383
43	0x3be40974	0.0069591347
44	0xb9a66f6f	-0.00031745012
45	0xbbdb7c1e	-0.0066981455
46	0xbb7d1d90	-0.0038622357
47	0xbc594ef5	-0.013263454
48	0x3c70180e	0.014654173
49	0x3c1eeaec	0.009699564
50	0x3c3b5c33	0.011435556
51	0x3a863332	0.0010238646
52	0xbb0c935f	-0.0021450145
53	0x37fe2b3c	3.0299292e-05
54	0xbb88f153	-0.0041791587
55	0xba9a0518	-0.0011750786
56	0xbb7fbcad	-0.0039022372
57	0xb91169c8	-0.00013867684
58	0x3c93e6d4	0.018054403
59	0xbbf5ce73	-0.0075014173
60	0x3cdec67e	0.027194258
61	0x38990dec	7.298202e-05
62	0xb8dcd10f	-0.00010529358
63	0xbbf942f6	-0.0076068593
64	0x3b0e24cc	0.0021689413
65	0xbc91e743	-0.01781047
66	0x3c23508d	0.009967935
67	0x3c1d5a66	0.009604072
68	0xbc43fe29	-0.011962452
69	0x3bf72056	0.0075416965
70	0xbc7734b9	-0.015088254
71	0x3b023ae9	0.001987154
72	0x3c4611b9	0.012089186
73	0x3a9bea1a	0.0011895329
74	0x3b0721bb	0.002061947
75	0xbc72ba27	-0.01481489
76	0x3c9f379e	0.0194357
77	0xba6f3b09	-0.00091259234
78	0x3a6b9b67	0.00089876953
79	0x3ae8f9e4	0.0017774669
80	0x3b3ace1f	0.0028504205
81	0x3bde9b2e	0.006793401
82	0xbb8397dd	-0.0040159062
83	0x3bd90f2f	0.0066241245
84	0x3bd1fbc1	0.006408185
85	0xbc32e17c	-0.0109180175
86	0x3c33f83d	0.010984478
87	0x3b94cdfd	0.0045411573
88	0xbb8d94f0	-0.0043207332
89	0xbc27a8c0	-0.010233104
90	0x3b635f0e	0.0034694108
91	0xbc09936c	-0.0083969645
92	0xbad9ea9c	-0.0016625705
93	0xbc1181d9	-0.008881056
94	0xbc1216a9	-0.008916535
95	0xba0e01d0	-0.000541714
96	0x3c26003c	0.010131892
97	0x3abc7244	0.0014377316
98	0x3c170fc4	0.009220067
99	0x3c24f9d6	0.010069331
