src/models/model_checkpoints/SimpleConvNet/SimpleConvNet_lambda=5_gamma=1e-3.pth (torch_old, 63550 bytes, 19 tensors)

cnn_apt_1.weight f4 [120, 1, 4, 4]
-0.048330657 0.036160838 0.093844235 -0.06828453 0.066425316 0.10966644 -0.013313486 -0.077390805
0.013744777 -0.1373821 -0.06787713 0.023064239 -0.022878803 -0.021711951 0.003805273 0.09479102
0.013823713 -0.05142916 -0.041164413 0.106564194 0.10971811 -0.19496821 -0.005642395 0.025201706
-0.015944174 0.0021099932 -0.16836897 0.18021803 0.24579893 -0.07997858 -0.09010104 -0.045537412
-0.07739346 0.17719312 -0.14078075 -0.06456639 0.0016724105 0.124020815 -0.10038715 -0.06685357
-0.0740801 0.015615635 -0.06585601 0.0043135793 -0.036507394 0.13573885 -0.03552216 -0.09259514
0.015456048 -0.06009002 -0.064699255 -0.07654703 -0.07254347 0.024206445 0.08820817 -0.018594312
0.058271553 -0.033435922 0.0009220987 -0.078108616 0.040024236 0.05854695 0.032561954 -0.058342233
0.03746538 0.00047061473 -0.015929822 0.046602644 -0.007541908 -0.005923751 0.05561541 0.0063796197
0.046241652 -0.0025176308 -0.07578587 -0.018619912 -0.031733975 -0.05330523 -0.04343735 -0.08417633
0.028768169 -0.008409673 0.013320678 0.026137525 0.12341622 -0.05052234 0.019954365 0.033041283
-0.0051938635 0.08933043 -0.097793646 -0.06908976 -0.035162672 -0.14479835 -0.04183436 -0.008816717
0.15942998 -0.14834483 -0.17619324 0.0712236 0.024283914 -0.072786376 -0.07374952 -0.07593616
-0.013998339 -0.050164048 -0.035038803 0.1945171 -0.03127577 -0.12813438 -0.074638546 0.2517346
-0.12914851 0.06736366 0.11282805 -0.064889975 -0.040915012 0.051423404 0.10188162 -0.0820111
-0.039841358 -0.005933073 -0.07284944 0.037720814 -0.11228018 -0.0909079 0.0413609 -0.010237498
-0.0047635697 -0.19139703 0.2839236 -0.12625769 0.13961041 -0.034756243 -0.12568805 -0.1691627
0.03802831 0.0098114405 -0.14380677 -0.052974183 -0.19609226 0.07185905 0.108996384 -0.117812306
-0.06687953 -0.050900918 0.046108406 0.016414233 -0.046977818 -0.01918155 -0.010632399 0.0036291727
0.015811644 0.029118637 -0.036495835 -0.0661293 -0.01337038 -0.028348539 -0.05708496 -0.07724428
-0.1743875 0.10158315 0.30316496 -0.10495395 0.019678444 -0.004417057 0.14285451 -0.07669026
0.015372492 -0.02799319 0.13472459 -0.041280642 -0.119678535 -0.08673098 0.15895721 0.03874335
0.04113497 0.036956392 0.009250904 -0.081534386 -0.06599704 -0.0550957 -0.0006699612 0.07410899
-0.04860389 -0.10577721 0.08727804 -0.084659405 -0.057540618 0.11278577 0.036746766 0.023902806
-0.018984824 -0.055643104 0.24552915 -0.16252832 0.10979142 0.17091946 -0.050091483 -0.117897026
-0.027069233 0.06490469 -0.09024833 0.0302986 -0.15453994 -0.08738887 0.19797012 -0.1183641
0.13252825 -0.044743285 0.07019367 0.010221412 -0.0017771078 0.079171665 -0.0851049 -0.018929038
-0.08623874 -0.07688016 0.14974324 0.012650836 -0.010247169 -0.031204207 -0.056396607 -0.10318212
0.04742644 -0.09975478 -0.012063522 0.0016661827 0.0117148645 -0.057593096 0.09035526 -0.07141795
0.053149626 0.0695291 -0.02493427 -0.10337482 -0.06712348 0.18007424 -0.028578913 -0.061074965
-0.0014064818 -0.029769905 0.09076882 -0.034568038 0.060295507 -0.11935887 0.07403794 -0.094545156
0.10580624 0.017955868 -0.06622533 -0.014535783 -0.112894565 0.13309045 0.13719171 -0.10329606
00000000: 5ef6 45bd 631d 143d 6831 c03d c2d8 8bbd
00000010: ff09 883d cc98 e03d cf20 5abc 127f 9ebd
00000020: c631 613c e5ad 0cbe 2a03 8bbd 37f1 bc3c
00000030: 546c bbbc 43dd b1bc e361 793b cb21 c23d
00000040: db7c 623c 62a7 52bd 049c 28bd 543e da3d
00000050: e3b3 e03d bfa5 47be d7e3 b8bb cf73 ce3c
00000060: 5b9d 82bc d047 0a3b ea68 2cbe 138b 383e
00000070: b7b2 7b3e cfcb a3bd e586 b8bd 7085 3abd
00000080: 7680 9ebd 1d72 353e d428 10be 623b 84bd
00000090: c934 db3a a0fe fd3d c797 cdbd 86ea 88bd
000000a0: 4fb7 97bd b8d8 7f3c 84df 86bd ed58 8d3b
000000b0: c788 15bd 20ff 0a3e af7f 11bd 85a2 bdbd
000000c0: 5d3b 7d3c f420 76bd 0b81 84bd b0c4 9cbd
000000d0: ac91 94bd 984c c63c 7ca6 b43d 1953 98bc
000000e0: 27ae 6e3d 1bf4 08bd ffb8 713a 69f7 9fbd
000000f0: 74f0 233d edce 6f3d af5f 053d 44f8 6ebd
00000100: 4c75 193d d7bc f639 427f 82bc 6ae2 3e3d
00000110: 1c22 f7bb 061c c2bb fccc 633d 210c d13b
00000120: e367 3d3d d6fe 24bb 9f35 9bbd c988 98bc
00000130: 7cfb 01bd 9656 5abd 5deb 31bd a464 acbd
00000140: 39ab eb3c bac8 09bc f93e 5a3c 5d1e d63c
00000150: a5c1 fc3d 83f0 4ebd 5677 a33c 4c56 073d
00000160: 4931 aabb dff2 b63d 0948 c8bd ef7e 8dbd
00000170: bc06 10bd 0546 14be 825a 2bbd fe73 10bc
00000180: 9d41 233e b5e7 17be 006c 34be aedd 913d
00000190: 0fef c63c 0611 95bd fd09 97bd 6b84 9bbd
000001a0: 4a59 65bc d178 4dbd d984 0fbd 7e2f 473e
000001b0: 061b 00bd a935 03be 18dc 98bd 5ce3 803e
000001c0: 823f 04be f5f5 893d 6512 e73d 09e5 84bd
000001d0: 8096 27bd 59a1 523d 50a7 d03d 70f5 a7bd
000001e0: b130 23bd 396a c2bb 1632 95bd 2481 1a3d
000001f0: 27f3 e5bd ec2d babd 0c6a 293d 2ebb 27bc
00000200: b817 9cbb 95fd 43be 6f5e 913e b249 01be
00000210: 08f6 0e3e 905c 0ebd 5eb4 00be fd38 2dbe
00000220: 93c3 1b3d 2ac0 203c 1542 13be 75fb 58bd
00000230: 69cc 48be d62a 933d 7f39 df3d 9447 f1bd
00000240: 23f8 88bd 7b7d 50bd 2bdc 3c3d 2477 863c
00000250: d06b 40bd a022 9dbc 8333 2ebc 6ad7 6d3b
00000260: 6c87 813c 358a ee3c a87c 15bd cc6e 87bd
00000270: 700f 5bbc 323b e8bc ebd1 69bd 4032 9ebd
00000280: a392 32be d40a d03d 7038 9b3e 19f2 d6bd
00000290: b034 a13c f6bc 90bb 7448 123e c80f 9dbd
000002a0: e8dc 7b3c f951 e5bc 3ef5 093e e415 29bd
000002b0: 051a f5bd 03a0 b1bd aec5 223e 59b1 1e3d
000002c0: 247d 283d 965f 173d 1b91 173c 80fb a6bd
000002d0: 7529 87bd 07ac 61bd 56a0 2fba 74c6 973d
000002e0: df14 47bd b9a1 d8bd d4be b23d e961 adbd
000002f0: b6af 6bbd 3afc e63d c783 163d d1cf c33c
00000300: 1086 9bbc 06ea 63bd fe6b 7b3e d36d 26be
00000310: 53da e03d 8305 2f3e ba2c 4dbd ff73 f1bd
00000320: 4cc0 ddbc c0ec 843d 1ed4 b8bd c534 f83c
00000330: b83f 1ebe f0f8 b2bd aeb8 4a3e e168 f2bd
00000340: 7cb5 073e bc44 37bd b3c1 8f3d b677 273c
00000350: d8ed e8ba c124 a23d 7a4b aebd 1211 9bbc
00000360: f09d b0bd 5873 9dbd 4b56 193e 7445 4f3c
00000370: bee3 27bc f79f ffbc 2100 67bd 2651 d3bd
00000380: 3a42 423d 3c4c ccbd 14a6 45bc d063 da3a
00000390: b4ef 3f3c bde6 6bbd 2e0c b93d 9343 92bd
000003a0: 6cb3 593d 4665 8e3d f442 ccbc 2db6 d3bd
000003b0: 0978 89bd 6265 383e 531e eabc be29 7abd
000003c0: b359 b8ba 04e0 f3bc 01e5 b93d 3797 0dbd
000003d0: 6cf8 763d 6c72 f4bd 34a1 973d e4a0 c1bd
000003e0: f1b0 d83d 2f18 933c 25a1 87bd 7e27 6ebc
000003f0: 4435 e7bd dd48 083e fc7b 0c3e e28c d3bd

cnn_apt_1.bias f4 [120]
-0.06636124 -0.0556842 -0.024738824 -0.02234857 -0.043013543 -0.05598819 -0.033972632 -0.055187322
-0.08500837 -0.049300335 -0.035722442 -0.006634118 -0.04275003 0.009568965 -0.0059254165 -0.09449765
-0.052512918 -0.06520612 -0.028945185 -0.028182283 -0.007571432 -0.052100364 -0.03689983 -0.041680306
-0.0032014234 -0.114714526 -0.04519999 -0.001975621 0.01972133 -0.029117374 -0.032858096 -0.03253853
-0.05912195 0.0014433046 -0.060746238 -0.12929635 -0.006913799 -0.005536191 -0.017645668 0.024112534
-0.044368345 -0.0033758937 -0.045745533 0.007953273 -0.043911215 -0.10865772 -0.06838765 -0.043780655
-0.04187296 0.0019696213 -0.0569505 -0.06786565 0.032178614 -0.07408224 -0.06257508 -0.048724983
-0.047215454 -0.0792496 0.015145275 -0.010864521 -0.057239704 -0.02314586 -0.041889004 0.004571804
-0.068370864 -0.06252636 -0.027473163 -0.030984575 0.02521774 -0.032103036 -0.054562025 -0.041381355
-0.004540228 -0.010545574 -0.051526204 -0.049865894 -0.05947802 -0.050919425 -0.052379455 -0.05600744
-0.075589426 -0.027320206 -0.02183833 0.0057217185 -0.046211943 -0.058793277 -0.042753622 -0.00486668
-0.03441367 -0.0338463 -0.00079547917 0.011818654 -0.011885665 0.0018235703 -0.043552056 -0.054204423
-0.06569744 -0.011748806 -0.03387432 -0.031095264 -0.04371443 -0.09385367 -0.116949424 -0.030869415
-0.06736947 -0.016565412 -0.06453162 -0.05309237 -0.012574429 -0.043399926 -0.03618218 -0.035341363
0.056008816 -0.033029698 0.0061127045 -0.03143662 -0.049209394 -0.011370147 -0.057664517 -0.010920962
00000000: 67e8 87bd 1e15 64bd 13a9 cabc 5914 b7bc
00000010: f82e 30bd df53 65bd e326 0bbd 1a0c 62bd
00000020: de18 aebd 26ef 49bd b251 12bd 0463 d9bb
00000030: a81a 2fbd 26c7 1c3c ff29 c2bb fc87 c1bd
00000040: c917 57bd c98a 85bd 741e edbc 88de e6bc
00000050: c619 f8bb 3167 55bd 4724 17bd f8b8 2abd
00000060: f9ce 51bb 73ef eabd a023 39bd 6c79 01bb
00000070: a08e a13c 8f87 eebc 3696 06bd 1f47 05bd
00000080: dc29 72bd 442d bd3a 0cd1 78bd 4366 04be
00000090: 268d e2bb f068 b5bb a68d 90bc a687 c53c
000000a0: 95bb 35bd 193e 5dbb ab5f 3bbd 724e 023c
000000b0: 3fdc 33bd f087 debd d30e 8cbd 5853 33bd
000000c0: fb82 2bbd c314 013b ed44 69bd 25fd 8abd
000000d0: b9cd 033d 6eb8 97bd 5d27 80bd d993 47bd
000000e0: fe64 41bd 9d4d a2bd e323 783c 1b01 32bc
000000f0: 2e74 6abd 639c bdbc ce93 2bbd 12cf 953b
00000100: 0606 8cbd d20d 80bd 660f e1bc 5dd3 fdbc
00000110: 6f95 ce3c 797e 03bd 6e7c 5fbd 7f7f 29bd
00000120: 31c6 94bb 58c7 2cbc 240d 53bd 2e40 4cbd
00000130: 399f 73bd e390 50bd d78b 56bd 0f68 65bd
00000140: a1ce 9abd a0ce dfbc 4ce6 b2bc 417d bb3b
00000150: bc48 3dbd 38d1 70bd 6c1e 2fbd ac78 9fbb
00000160: 59f5 0cbd 6ba2 0abd b487 50ba 07a3 413c
00000170: 18bc 42bc de04 ef3a a463 32bd 7505 5ebd
00000180: 618c 86bd 107e 40bc cdbf 0abd 7fbb febc
00000190: e70d 33bd 5a36 c0bd 2e83 efbd dbe1 fcbc
000001a0: 01f9 89bd 30b4 87bc 2729 84bd 6377 59bd
000001b0: fa04 4ebc 1fc4 31bd c433 14bd 1bc2 10bd
000001c0: 8069 653d 264a 07bd 154d c83b afc3 00bd
000001d0: ca8f 49bd da49 3abc a131 6cbd d6ed 32bc

cnn_apt_2.weight f4 [50, 120, 1, 1]
0.09038699 0.22820976 -0.22970833 0.03271333 -0.2255434 0.12070925 0.037615713 0.012786244
0.08021097 -0.26231292 -0.22871657 -0.1447881 0.1853804 0.12746614 0.0011180084 -0.15136403
-0.12240573 -0.022287836 -0.07087292 -0.0661219 -0.09354889 -0.1305249 0.13311808 0.21044487
0.015278529 -0.18438219 -0.054801147 -0.096154206 -0.024239354 0.15178363 -0.16745462 -0.18464866
0.077751406 0.023078796 0.08184657 0.24241337 -0.063902624 -0.060997773 0.09723389 0.19341043
-0.16908437 -0.1449866 -0.20334107 -0.1881953 0.12107916 -0.15057802 -0.019398345 0.041468713
0.09845946 -0.06885272 -0.20914245 0.18379146 0.08407816 0.08468136 -0.098255605 0.0992022
0.076384015 0.13649955 0.052326057 -0.16144165 0.16974302 -0.068566054 -0.16270173 -0.1418888
-0.086433955 0.16192938 -0.019427419 0.12563795 0.03313759 -0.22646278 0.03698692 -0.05316763
-0.26820624 -0.26669085 -0.15688069 0.14627288 0.24485949 -0.008679901 -0.0027216754 -0.1989612
0.11687911 -0.16787091 0.01035804 -0.2347465 -0.0136027895 -0.123999156 0.19331288 0.13782942
-0.0061387722 -0.24114779 -0.070810325 0.14465024 -0.009525802 0.23966773 -0.13638987 0.08329165
0.04059827 -0.081312954 -0.16823338 0.16384163 -0.028423073 0.08657894 0.23340733 0.102094546
-0.038844667 -0.13030675 0.033222985 0.19143766 -0.030492257 -0.12409844 -0.07236489 0.048812926
0.17404416 -0.14092278 0.05715562 0.102975495 0.1719142 -0.009141887 0.16105583 0.08461192
0.2133655 -0.25508213 0.109087825 -0.059958745 0.18335953 -0.060796037 -0.07484176 0.044781756
-0.20754272 0.22995348 -0.016426032 -0.04610956 -0.2485091 0.12111682 -0.15320595 -0.062167685
-0.13238032 0.1704514 0.036177818 0.12013096 0.2154193 -0.008477723 0.24826458 0.11192218
-0.1738912 0.21942675 -0.038587246 0.14318097 0.045401573 0.05909614 -0.03326965 0.12670392
-0.05261042 0.08583665 -0.027104119 0.13861993 -0.15578485 -0.041595064 -0.022158323 0.047609627
-0.25223038 0.055616226 -0.2832404 0.03497098 0.056518983 0.06454524 0.01863276 -0.15698352
-0.18584953 -0.25551322 0.0094854925 -0.11877501 0.255789 -0.008284699 0.25374502 -0.23049054
0.24432135 0.028893963 -0.03217515 -0.2152252 0.2199402 -0.2049956 -0.060284797 0.08334653
-0.03451704 -0.06214208 0.23931357 0.14776847 -0.03669217 0.10306763 0.23331426 -0.140633
-0.10719484 0.21395268 0.23117377 0.02469106 0.04957022 0.21155882 0.11876887 -0.12486104
0.019124536 0.1375926 0.07555804 -0.0954408 -0.018068021 -0.25346547 -0.09991844 0.23019993
0.09574194 -0.14378484 0.16709358 0.0087925065 -0.21268444 -0.066010416 -0.018827785 -0.26856375
-0.22513849 -0.0357324 0.15845118 0.22567692 0.068998225 -0.26433316 -0.15906297 0.23195283
-0.065613836 -0.07352507 0.07807547 -0.12968181 -0.010267049 0.13486446 -0.16668412 -0.076874055
-0.20936881 0.17607999 0.0723467 0.17719014 0.14542706 -0.101806894 -0.24678527 0.15244962
-0.1299811 -0.17077991 -0.25545767 -0.0070582326 -0.10293016 7.8052755e-05 0.07201755 0.23562102
-0.17460223 0.22265805 0.04446241 0.13822576 0.16950257 -0.21064028 0.068801634 0.14563194
00000000: d01c b93d d2af 693e a938 6bbe 6afe 053d
00000010: d9f4 66be 6936 f73d ef12 1a3d 657d 513c
00000020: a645 a43d e14d 86be ad34 6abe 5543 14be
00000030: 5cd4 3d3e 7c86 023e 238a 923a 2cff 1abe
00000040: dbaf fabd fb94 b6bc d225 91bd eb6a 87bd
00000050: 8f96 bfbd 52a8 05be 1b50 083e dc7e 573e
00000060: cc52 7a3c afce 3cbe 2b77 60bd 7fec c4bd
00000070: 9c91 c6bc 2b6d 1b3e 3979 2bbe 8a14 3dbe
00000080: 213c 9f3d be0f bd3c 2d9f a73d 363b 783e
00000090: 61df 82bd cdd8 79bd 9022 c73d 620d 463e
000000a0: 7424 2dbe 5e77 14be a438 50be 45b6 40be
000000b0: 5af8 f73d 2031 1abe 47e9 9ebc 19db 293d
000000c0: 1da5 c93d a802 8dbd 7029 56be d433 3c3e
000000d0: 2c31 ac3d 6c6d ad3d 3c3a c9bd 862a cb3d
000000e0: 396f 9c3d 8ac6 0b3e d953 563d f650 25be
000000f0: 1dd1 2d3e 5c6c 8cbd 489b 26be 4c4b 11be
00000100: 4904 b1bd d1d0 253e 4026 9fbc 3ca7 003e
00000110: 48bb 073d dce5 67be 997f 173d 4dc6 59bd
00000120: 5452 89be b48b 88be 55a5 20be 8fc8 153e
00000130: 72bc 7a3e 2536 0ebc 235e 32bb 7cbc 4bbe
00000140: 515e ef3d 5ae6 2bbe c5b4 293c 6361 70be
00000150: 3cde 5ebc 45f3 fdbd d0f3 453e 2823 0d3e
00000160: c127 c9bb 72ef 76be 0105 91bd 311f 143e
00000170: 1c12 1cbc 756b 753e c9a9 0bbe d094 aa3d
00000180: 5f4a 263d 6887 a6bd 5f45 2cbe 1ac6 273e
00000190: 81d7 e8bc 4d50 b13d 5502 6f3e f216 d13d
000001a0: 961b 1fbd 226f 05be d314 083d 3c08 443e
000001b0: e6ca f9bc 5327 febd 0b34 94bd 10f0 473d
000001c0: a238 323e 104e 10be 031c 6a3d d1e4 d23d
000001d0: 470a 303e dac7 15bc d2eb 243e 0449 ad3d
000001e0: 7c7c 5a3e 209a 82be 7069 df3d 4d97 75bd
000001f0: 9ac2 3b3e 4405 79bd a346 99bd 136d 373d
00000200: 1486 54be ed78 6b3e e38f 86bc 61dd 3cbd
00000210: 2b79 7ebe 180c f83d 05e2 1cbe 8ba3 7ebd
00000220: b58e 07be d08a 2e3e 312f 143d 3907 f63d
00000230: e196 5c3e 26e6 0abc 1239 7e3e 7537 e53d
00000240: 8910 32be 68b1 603e a90d 1ebd 089e 123e
00000250: 00f7 393d cb0e 723d c245 08bd acbe 013e
00000260: 067e 57bd 20cb af3d 7509 debc 62f2 0d3e
00000270: 1086 1fbe 965f 2abd 5f85 b5bc 5002 433d
00000280: 5724 81be d7cd 633d e304 91be bb3d 0f3d
00000290: 7380 673d 4b30 843d bba3 983c 4ac0 20be
000002a0: 574f 3ebe a1d2 82be 0a69 1b3c 5040 f3bd
000002b0: c7f6 823e 8cbc 07bc deea 813e b605 6cbe
000002c0: 602f 7a3e 08b3 ec3c 17ca 03bd ff63 5cbe
000002d0: 0138 613e 5eea 51be 31ed 76bd 96b1 aa3d
000002e0: bd61 0dbd b288 7ebd 9e0e 753e 9e50 173e
000002f0: 874a 16bd 1f15 d33d efe9 6e3e 1902 10be
00000300: f888 dbbd 6916 5b3e d1b8 6c3e e844 ca3c
00000310: 250a 4b3d e0a2 583e 183d f33d 25b7 ffbd
00000320: 0fab 9c3c 13e5 0c3e 2cbe 9a3d 7776 c3bd
00000330: 6303 94bc 3ac6 81be 0aa2 ccbd 88b9 6b3e
00000340: 5a14 c43d 553c 13be 941a 2b3e 720e 103c
00000350: f3c9 59be 7830 87bd ba3c 9abc 3081 89be
00000360: b48a 66be 235c 12bd 0741 223e da17 673e
00000370: f14e 8d3d ad56 87be 67e1 22be 0b85 6d3e
00000380: 8c60 86bd 5094 96bd 08e6 9f3d 4fcb 04be
00000390: 2037 28bc e919 0a3e 3eaf 2abe 2570 9dbd
000003a0: c764 56be 504e 343e 822a 943d 5571 353e
000003b0: d5ea 143e 2280 d0bd 47b5 7cbe c11b 1c3e
000003c0: c419 05be eee0 2ebe 59cb 82be bf48 e7bb
000003d0: 0ccd d2bd 41b0 a338 f07d 933d a346 713e
000003e0: edca 32be 7900 643e 371e 363d 0e8b 0d3e
000003f0: 1592 2d3e 16b2 57be dfe7 8c3d 8a20 153e

cnn_apt_2.bias f4 [50]
-0.05936457 -0.009703078 0.009831139 -0.2002197 -0.16027918 -0.051035818 -0.06796769 -0.06216125
-0.049592596 -0.010858266 -0.025620215 -0.051274225 -0.0075905463 0.0072424067 0.0074924976 0.043406673
-0.035828047 0.0026307432 -0.13246916 -0.017579291 -0.05577018 -0.092653155 -0.015394691 0.0083935065
0.06371503 -0.10262243 -0.026159566 -0.084664315 -0.005140249 -0.018037323 -0.072015285 -0.010398084
-0.068065934 -0.010235002 0.012762011 -0.031768616 -0.01648822 0.02076451 -0.035406243 -0.010572179
0.001904978 -0.21128587 -0.06547265 -0.1570787 -0.047163136 -0.09011846 -0.042422745 -0.09267964
-0.027747529 -0.12740898
00000000: 4328 73bd a9f9 1ebc c912 213c 6506 4dbe
00000010: 3a20 24be ef0a 51bd a532 8bbd cb9c 7ebd
00000020: 9b21 4bbd dee6 31bc 7ce1 d1bc ec04 52bd
00000030: 1eba f8bb b651 ed3b a083 f53b 32cb 313d
00000040: 6ec0 12bd 8c68 2c3b ffa5 07be 7202 90bc
00000050: 466f 64bd f0c0 bdbd 043a 7cbc eb84 093c
00000060: 077d 823d b52b d2bd 964c d6bc 7c64 adbd
00000070: 896f a8bb 02c3 93bc c07c 93bd ba5c 2abc
00000080: 2766 8bbd b6b0 27bc c117 513c cf1f 02bd
00000090: 4e12 87bc 551a aa3c 2306 11bd ef36 2dbc
000000a0: 74b0 f93a 535b 58be 8616 86bd 3dd9 20be
000000b0: 222e 41bd 0790 b8bd 79c3 2dbd d3ce bdbd
000000c0: c94e e3bc 8077 02be

cnn_apt_3.weight f4 [10, 50, 1, 1]
0.38047785 -0.17541978 -0.093976825 -0.39868468 -0.27810314 0.40601337 -0.12428358 -0.11015087
0.29643726 0.08223206 0.25430322 0.07658583 0.15295589 0.082830906 0.19871008 0.16021198
-0.34203342 0.06875789 -0.11948481 -0.20272788 -0.32315338 0.28901452 0.05211222 -0.060939103
0.13267261 0.2315141 0.2796527 -0.1105147 -0.42174676 0.18786258 0.06208861 0.21711057
0.28233385 0.37816215 0.30925566 -0.43261126 0.29191583 0.34114444 0.12287104 -0.30004787
-0.3303463 -0.4196082 -0.21936348 0.3170358 0.1713233 0.30781507 -0.17008117 0.12828207
-0.36282122 -0.27649423 -0.29849273 0.2264508 -0.4101892 -0.27122408 -0.3467834 -0.2880872
0.05665815 -0.23899403 -0.34436545 -0.4314536 0.08198351 -0.14380515 -0.3665885 0.21830738
-0.4173718 0.06773287 -0.16837588 -0.43858692 -0.23394617 -0.09119451 0.38707495 -0.32265604
-0.14989719 -0.21970335 0.16065967 -0.030519158 0.4171515 -0.069413036 -0.40819564 -0.42337772
0.43789315 0.2068206 0.4062028 0.09984928 -0.2325927 0.34618753 -0.20342164 0.26294053
-0.40159386 0.3451513 -0.31810212 0.30010247 0.33661228 -0.008430004 0.15857339 -0.19669718
-0.19080123 -0.44708025 0.025936246 -0.13356647 0.17666501 0.1414882 0.4427222 0.38582933
0.270101 -0.27233177 -0.18354276 0.033551693 -0.33663607 0.0748117 0.046640188 0.19414127
-0.28305835 -0.11139712 -0.035402745 -0.39032638 -0.21710055 -0.11001596 0.38796866 -0.0021614432
0.3835641 -0.05152878 0.3727427 -0.4177056 -0.38913682 0.18437558 0.09516555 0.042133123
-0.11754894 -0.22278558 -0.098380506 -0.0987131 0.37920022 -0.04982087 -0.14599869 -0.42984474
-0.20534524 0.42666018 0.42636216 0.24629247 -0.07666907 0.26677442 0.064014256 -0.42515218
0.2947281 0.09769827 -0.43212926 -0.03869748 0.1289131 -0.3093313 -0.35986224 -0.35724726
-0.35613683 0.07918334 -0.2876583 -0.28643644 0.11698955 0.34273136 -0.3098087 -0.040894747
-0.37542397 0.17167467 -0.41183457 0.39033872 0.21971798 -0.048405647 0.3390265 -0.21904393
0.24687535 0.04425794 -0.1405864 -0.39495912 0.16085565 0.001950115 0.15221632 -0.015912354
0.22477359 0.37787837 -0.27202797 0.16706157 0.25127417 -0.08262786 -0.102256596 -0.18203455
-0.02477184 0.1857652 -0.16750124 -0.33037227 0.23925376 -0.4000543 0.1163978 0.19330287
0.14350832 0.25681067 0.4038003 -0.23503257 -0.26044098 0.12480438 -0.36072147 0.33586597
-0.1301311 -0.006366998 -0.29794464 0.41734415 0.13816965 0.4126562 0.35763973 -0.3480041
-0.21324155 0.44648856 -0.20661658 -0.1108346 0.23742402 -0.2942344 -0.3578392 0.4083838
-0.027098984 0.21321172 -0.07988697 0.35121185 -0.15503529 0.19135159 0.10235202 0.22738397
-0.033934534 0.3316486 -0.17022201 0.2749306 0.29517537 0.10811901 -0.26481533 0.1350649
0.21798271 0.09131658 0.09942043 -0.14242503 0.34162486 0.3413273 0.36016208 0.05701089
0.22721404 0.2243678 0.36397344 0.14464438 0.42643327 0.20308262 -0.43627086 -0.41617507
0.03148982 -0.19555059 0.3040201 0.38722962 -0.4374784 -0.08983368 0.18038279 0.19718438
00000000: fecd c23e 3ea1 33be ec76 c0bd 6620 ccbe
00000010: 8963 8ebe fce0 cf3e 6488 febd c896 e1bd
00000020: a0c6 973e 4869 a83d 0834 823e 08d9 9c3d
00000030: 78a0 1c3e 40a3 a93d a87a 4b3e 9c0e 243e
00000040: 011f afbe f0d0 8c3d 74b4 f4bd e697 4fbe
00000050: 5c74 a5be b6f9 933e a073 553d 489b 79bd
00000060: 54db 073e 0812 6d3e a42e 8f3e 8855 e2bd
00000070: 31ef d7be 0c5f 403e a050 7e3d 3c52 5e3e
00000080: 108e 903e 789e c13e c256 9e3e 397f ddbe
00000090: fe75 953e 7caa ae3e d0a3 fb3d e09f 99be
000000a0: 2623 a9be e3d6 d6be d2a0 60be 8452 a23e
000000b0: 606f 2f3e f099 9d3e c229 2ebe 605c 033e
000000c0: b4c3 b9be a790 8dbe 0ad4 98be b8e2 673e
000000d0: 5204 d2be e2dd 8abe 988d b1be 2a80 93be
000000e0: 6012 683d daba 74be ab50 b0be 7ce7 dcbe
000000f0: f8e6 a73d a841 13be 7db1 bbbe f88b 5f3e
00000100: c2b1 d5be 88b7 8a3d ba6a 2cbe 778e e0be
00000110: 968f 6fbe 30c4 babd b02e c63e 2c33 a5be
00000120: a67e 19be eaf9 60be f883 243e 5003 fabc
00000130: e294 d53e 6c28 8ebd 05ff d0be f7c4 d8be
00000140: 8833 e03e c8c8 533e d0f9 cf3e c87d cc3d
00000150: c82c 6ebe 7e3f b13e c34d 50be 24a0 863e
00000160: b69d cdbe acb7 b03e 48de a2be 08a7 993e
00000170: 7258 ac3e 001e 0abc 1061 223e fc6a 49be
00000180: 6661 43be b4e7 e4be 4078 d43c a6c5 08be
00000190: ace7 343e 48e2 103e 7cac e23e 6c8b c53e
000001a0: ae4a 8a3e 126f 8bbe a2f2 3bbe 806d 093d
000001b0: 905b acbe e036 993d c809 3f3d f8cc 463e
000001c0: 06ed 90be 2c24 e4bd 7802 11bd dcd8 c7be
000001d0: 9b4f 5ebe 0c50 e1bd d4a3 c63e 00a7 0dbb
000001e0: 8462 c43e d80f 53bd 22d8 be3e 82dd d5be
000001f0: f13c c7be f4cc 3c3e 28e6 c23d c893 2c3d
00000200: 80bd f0bd e721 64be b87b c9bd 182a cabd
00000210: 8826 c23e f810 4cbd ae80 15be 9c14 dcbe
00000220: 0646 52be 3473 da3e 244c da3e 1834 7c3e
00000230: ac04 9dbd a896 883e e819 833d 8cad d9be
00000240: 9ae6 963e 0816 c83d 0c40 ddbe 4081 1ebd
00000250: cc01 043e ac60 9ebe dd3f b8be 1de9 b6be
00000260: 9157 b6be e02a a23d f347 93be cca7 92be
00000270: 3898 ef3d 7c7a af3e 3f9f 9ebe 4081 27bd
00000280: 9237 c0be 7ccb 2f3e fbdb d2be 7ada c73e
00000290: c0fd 603e 0045 46bd e294 ad3e 0d4d 60be
000002a0: e4cc 7c3e d047 353d e2f5 0fbe 1538 cabe
000002b0: 58b7 243e 009b ff3a 98de 1b3e a05a 82bc
000002c0: 0c2b 663e 4679 c13e 4047 8bbe 3012 2b3e
000002d0: 02a7 803e cc38 a9bd e86b d1bd 4467 3abe
000002e0: 50ee cabc 3c39 3e3e 7285 2bbe 8e26 a9be
000002f0: f0fe 743e ebd3 ccbe f861 ee3d 30f1 453e
00000300: d8f3 123e b07c 833e eabe ce3e 61ac 70be
00000310: 8558 85be 7099 ff3d 7cb0 b8be a0f6 ab3e
00000320: 1641 05be 40a2 d0bb 338c 98be 22ae d53e
00000330: 587c 0d3e ac47 d33e 8e1c b73e 982d b2be
00000340: fe5b 5abe 269a e43e 4c93 53be 40fd e2bd
00000350: 481f 733e e4a5 96be b336 b7be ae17 d13e
00000360: b0fe ddbc 2c54 5a3e c89b a3bd 0ad2 b33e
00000370: 92c1 1ebe acf1 433e f09d d13d 58d7 683e
00000380: f0fe 0abd d8cd a93e ae4e 2ebe b4c3 8c3e
00000390: 3a21 973e 806d dd3d e095 87be 744e 0a3e
000003a0: dc36 5f3e 3004 bb3d f09c cb3d ded7 11be
000003b0: 74e9 ae3e 74c2 ae3e 2a67 b83e 4084 693d
000003c0: ccaa 683e acc0 653e ba5a ba3e a81d 143e
000003d0: 7655 da3e e4f4 4f3e e55e dfbe e614 d5be
000003e0: 78fb 003d 6a3e 48be 86a8 9b3e f642 c63e
000003f0: 2bfd dfbe b8fa b7bd 44b6 383e b4ea 493e

cnn_apt_3.bias f4 [10]
0.0 0.0 0.0 0.0 0.0 0.0 0.0 0.0
0.0 0.0
00000000: 0000 0000 0000 0000 0000 0000 0000 0000
00000010: 0000 0000 0000 0000 0000 0000 0000 0000
00000020: 0000 0000 0000 0000

cnn_pep_1.weight f4 [50, 1, 4, 20]
0.008021679 -0.010245175 0.059002172 0.046346065 0.06889763 0.077225365 0.023378784 0.00080632407
-0.008050673 0.0029469687 0.07099189 0.050164778 0.014960727 0.028225701 0.0099414885 0.1126815
-0.045820445 -0.010322293 -0.06038666 0.06251951 -0.066145495 -0.03186665 0.020053064 0.05672197
-0.034969587 0.13296337 0.047991853 -0.064136766 0.06808635 0.043430835 -0.09927037 0.0034187918
-0.016229425 0.15533999 0.09435759 0.0031107953 -0.027150523 0.0120489355 -0.103117324 0.013655262
-0.06857708 0.023709843 0.08002705 -0.12642123 -0.24059807 0.20674151 0.14138643 -0.16977283
0.11343808 0.046967033 -0.04924672 0.12781578 -0.15626922 0.22370896 0.09037371 0.044637013
0.031656183 0.09229926 -0.13080847 0.07542349 -0.14075072 0.05762352 0.091921605 -0.05339387
-0.17267264 0.26425114 0.09326515 -0.13270046 0.19964422 -0.0102923615 -0.059585582 0.0869707
-0.11581833 0.1398012 0.07623481 0.06943427 0.0115259 0.0615824 -0.21452795 0.09178848
0.021490248 0.026548408 0.03602242 -0.047458913 -0.043740798 0.010684602 0.058914684 -0.022721149
0.12687461 0.07629209 0.013131018 0.05872645 -0.06365352 0.13624278 0.11262371 0.04511361
-0.09602484 0.091044396 -0.13551188 0.02100592 -0.04411436 -0.042043015 0.11512087 0.022385605
-0.04448868 0.04946857 0.09190141 -0.06911817 -0.0155608365 -0.004641782 -0.032444485 0.0033027867
0.006458589 0.09155179 0.06220018 -0.019211836 -0.094951674 0.046289057 -0.08102966 0.08326387
-0.046770085 0.07916007 0.1010917 -0.046319295 -0.1355569 0.108024865 0.09150736 -0.08909219
0.071712 -0.010147461 0.018867733 0.12417696 -0.11666373 0.18749616 0.12329935 -0.040061336
0.004756012 0.084300056 -0.19235173 0.16971903 -0.05861747 0.072262704 0.14194839 -0.14062743
-0.19806376 0.20423861 0.19916368 -0.21081312 0.22274745 -0.019023249 -0.14015664 0.031390674
-0.18420045 0.039042205 0.105569564 0.17210077 0.093354605 0.06802009 -0.16775587 0.2177159
-0.08270865 -0.018729849 0.0129871955 0.048272625 -0.01309351 0.045400843 0.007830281 -0.01950543
-0.0034630783 0.016376955 0.05810279 0.012215212 0.06350076 0.007127231 0.0486601 -0.07500426
0.059364893 0.017854435 -0.05372597 -0.0011582321 -0.009486425 -0.102471694 -0.017383773 0.012978808
0.03614442 0.07510125 0.067260765 -0.12536722 0.066285565 -0.043910064 0.009592639 0.037556067
0.029370997 -0.014556432 0.004525716 0.018513918 -0.07510918 -0.03424517 -0.04098986 -0.048596136
-0.05196367 -0.06968366 0.03251395 -0.019265393 -0.06025978 0.07240909 0.06413453 -0.05176733
0.03484613 0.060860474 -0.012771016 0.081559196 -0.0105233025 0.07129153 0.010049224 0.013062917
-0.034007967 0.0020101059 -0.039230727 0.053956375 -0.056703165 0.025614798 0.039044127 0.052798063
-0.14209114 0.17552504 0.06163502 -0.09981687 0.079681456 0.05072837 -0.002632159 -0.03573122
-0.07228957 0.09429138 0.006882561 -0.018169664 -0.042167448 0.016171886 -0.14310977 -0.0035300078
0.035682827 0.009397166 0.06699474 -0.0035612693 -0.016450284 0.0723433 -0.002176915 -0.050578553
-0.0061364723 0.03889431 -0.049684376 0.036364596 -0.09441896 -0.017443884 -0.041868415 -0.027041504
00000000: 5c6d 033c 61db 27bc 43ac 713d 5fd5 3d3d
00000010: 331a 8d3d 5528 9e3d dd84 bf3c 7e5f 533a
00000020: f8e6 03bc ee21 413b 3264 913d 9579 4d3d
00000030: d61d 753c 9639 e73c a0e1 223c 8fc5 e63d
00000040: 38ae 3bbd d61e 29bc 0158 77bd 3b0a 803d
00000050: 4a77 87bd 9b86 02bd 5346 a43c 4c55 683d
00000060: 453c 0fbd 8d27 083e 1b93 443d 235a 83bd
00000070: db70 8b3d 88e4 313d 444e cbbd cf0d 603b
00000080: 92f3 84bc 7211 1f3e 8d3e c13d 7cde 4b3b
00000090: c66a debc e668 453c 2d2f d3bd 52ba 5f3c
000000a0: 2472 8cbd 253b c23c 39e5 a33d 9174 01be
000000b0: 575f 76be 0cb4 533e 9bc7 103e eed8 2dbe
000000c0: 3952 e83d 8160 403d eeb6 49bd 24e2 023e
000000d0: 0a05 20be f613 653e da15 b93d 4dd5 363d
000000e0: eaa9 013d 6507 bd3d a8f2 05be a177 9a3d
000000f0: f520 10be a406 6c3d 6541 bc3d 88b3 5abd
00000100: 19d1 30be ed4b 873e cd01 bf3d a1e2 07be
00000110: 896f 4c3e 4ba1 28bc 0310 74bd b21d b23d
00000120: 2932 edbd 0c28 0f3e ff20 9c3d 8e33 8e3d
00000130: 21d7 3c3c d43d 7c3d 37ad 5bbe 99fb bb3d
00000140: 510c b03c 0c7c d93c 3f8c 133d 4764 42bd
00000150: 8d29 33bd 780e 2f3c 8650 713d b421 babc
00000160: 6beb 013e 073f 9c3d 7b23 573c 258b 703d
00000170: c75c 82bd 3a83 0b3e 42a7 e63d 0cc9 383d
00000180: aca8 c4bd 7c75 ba3d a0c3 0abe 9b14 ac3c
00000190: 42b1 34bd 4c35 2cbd 7ec4 eb3d 0462 b73c
000001a0: c339 36bd 8e9f 4a3d ce36 bc3d d48d 8dbd
000001b0: e1f2 7ebc 171a 98bb 82e4 04bd 9173 583b
000001c0: 92a2 d33b 817f bb3d 9ec5 7e3d 2462 9dbc
000001d0: 0676 c2bd 9899 3d3d e1f2 a5bd 3f86 aa3d
000001e0: fd91 3fbd ad1e a23d 2a09 cf3d 4db9 3dbd
000001f0: 6ecf 0abe 243c dd3d 3668 bb3d f775 b6bd
00000200: bedd 923d 8941 26bc 8190 9a3c 7d50 fe3d
00000210: 65ed eebd fefe 3f3e 5f84 fc3d 5b17 24bd
00000220: 52d8 9b3b 82a5 ac3d daf7 44be d3ca 2d3e
00000230: df18 70bd 78fe 933d eb5a 113e a300 10be
00000240: 3ad1 4abe ed23 513e 90f1 4b3e 65df 57be
00000250: e817 643e a5d6 9bbc 3985 0fbe 8293 003d
00000260: 0b9f 3cbe b8ea 1f3d db34 d83d 2f3b 303e
00000270: b330 bf3d 1e4e 8b3d 32c8 2bbe ebf0 5e3e
00000280: 2763 a9bd 576f 99bc 3fc8 543c 84b9 453d
00000290: 2986 56bc 3cf6 393d 944a 003c dac9 9fbc
000002a0: d0f4 62bb f728 863c 31fd 6d3d 5022 483c
000002b0: b00c 823d 8c8b e93b d04f 473d d59b 99bd
000002c0: 9a28 733d 7743 923c c30f 5cbd d2cf 97ba
000002d0: f36c 1bbc aedc d1bd 6a68 8ebc 11a5 543c
000002e0: 2c0c 143d afce 993d 03c0 893d 4460 00be
000002f0: bac0 873d 0adb 33bd 722a 1d3c 64d4 193d
00000300: 729b f03c 1a7e 6ebc 754c 943b 80aa 973c
00000310: d7d2 99bd aa44 0cbd fce4 27bd be0c 47bd
00000320: dbd7 54bd 4fb6 8ebd 592d 053d 75d2 9dbc
00000330: f6d2 76bd 384b 943d f758 833d fb09 54bd
00000340: d1ba 0e3d d548 793d 863d 51bc 8208 a73d
00000350: ee69 2cbc 4b01 923d 80a5 243c d805 563c
00000360: f04b 0bbd fbbb 033b 66b0 20bd 5c01 5d3d
00000370: 9441 68bd 20d6 d13c bcec 1f3d c842 583d
00000380: 5780 11be d6bc 333e 0175 7c3d ca6c ccbd
00000390: 0830 a33d 8dc8 4f3d 4d80 2cbb e65a 12bd
000003a0: 8e0c 94bd d71b c13d 1b87 e13b 8cd8 94bc
000003b0: c6b7 2cbd e77a 843c 5e8b 12be b457 67bb
000003c0: 2828 123d 92f6 193c 8a34 893d 2f64 69bb
000003d0: bfc2 86bc b928 943d 93aa 0ebb 752b 4fbd
000003e0: 7614 c9bb a44f 1f3d d881 4bbd 0bf3 143d
000003f0: ba5e c1bd 7ae6 8ebc 377e 2bbd 2586 ddbc

cnn_pep_1.bias f4 [50]
0.30593252 0.37325275 0.012179375 0.14400868 0.19108431 0.014650363 -0.08790326 0.015871365
-0.002147361 0.07021489 0.0612704 -0.042681493 0.07385291 0.015166017 0.021542309 0.0398253
0.026693584 -0.025553651 0.0473191 -0.06948514 -0.033148315 -0.06715997 -0.12274119 -0.06622211
-0.051356234 0.008592757 -0.15224308 -0.02447633 0.262421 0.0867102 -0.09256262 0.082688645
-0.040890235 -0.015243513 0.09842391 0.010365908 0.051269684 -0.012624618 -0.100275375 0.06461456
0.087904595 0.26137528 0.08945823 -0.07454319 0.04443727 -0.0052400813 -0.45645776 -0.0063634603
0.1239904 0.0022160462
00000000: 30a3 9c3e fc1a bf3e 008c 473c 0377 133e
00000010: 9bab 433e 1308 703c a006 b4bd aa04 823c
00000020: bdba 0cbb d3cc 8f3d acf6 7a3d cad2 2ebd
00000030: 3240 973d e37a 783c 7f79 b03c db1f 233d
00000040: 81ac da3c e455 d1bc acd1 413d 3a4e 8ebd
00000050: 87c6 07bd 2b8b 89bd bc5f fbbd 759f 87bd
00000060: ea5a 52bd a3c8 0c3c 9ce5 1bbe 9682 c8bc
00000070: 0c5c 863e 1e95 b13d 7991 bdbd aa58 a93d
00000080: 857c 27bd edbf 79bc 7a92 c93d c5d5 293c
00000090: 2900 523d 7cd7 4ebc 2d5d cdbd a354 843d
000000a0: 5307 b43d fbd2 853e e035 b73d 1aaa 98bd
000000b0: db03 363d fdb4 abbb d5b4 e9be 9384 d0bb
000000c0: aeee fd3d 163b 113b

cnn_pep_2.weight f4 [10, 50, 1, 1]
0.32974392 -0.41914433 0.22375348 -0.35830382 -0.20336737 -0.2355291 0.3759467 -0.36555162
-0.0027215315 0.107784405 -0.28874227 -0.36911 0.39852828 -0.37865245 -0.19342123 0.02599666
0.30880594 -0.4149845 -0.042563632 0.4087485 -0.18512698 0.2812417 -0.26580846 -0.28099853
0.063225046 -0.13905688 0.37661514 0.3176133 0.19887064 -0.38045394 -0.026852297 0.3802551
0.19428621 -0.3495548 0.0055103125 -0.43071255 0.052102674 0.39110616 -0.2785657 0.12900639
0.15761785 0.016104957 -0.3814989 -0.25043643 -0.20464256 -0.43739098 -0.42290634 -0.32224098
-0.29867858 -0.36583298 -0.4102934 -0.3649918 0.44115788 -0.18679026 -0.005141588 -0.31417194
-0.02102964 0.32626954 0.05118155 -0.36862865 -0.16545494 0.19910367 -0.0077494015 0.22863077
0.091255635 0.422648 0.11211765 -0.41725332 -0.29420954 -0.024550438 -0.15827997 0.26789764
0.4507322 -0.16842613 0.3635824 0.34124565 0.39544842 -0.38397753 -0.3437806 0.13871185
0.11903148 0.01697394 -0.37392744 0.3802745 0.26920438 0.41840377 0.26172686 0.38982642
-0.030184543 0.17256783 -0.12104903 0.40625724 0.2102317 -0.42824098 0.30434155 0.07346044
0.56853336 0.23087192 0.40345326 -0.43963802 0.20650814 -0.2787373 0.31837833 0.4923194
-0.06404336 0.0051257145 -0.22063945 -0.43478233 -0.03427052 0.20257762 -0.22038615 -0.009707614
-0.4209718 -0.38013804 0.38837573 -0.099057116 0.09531606 0.39436054 0.23490301 -0.33552188
0.43526563 0.29511365 0.24939597 0.16535561 -0.22972581 -0.040227294 0.2856865 -0.27189666
0.18084703 0.3101266 -0.00012091361 0.0006583034 -0.40836826 0.27976534 -0.11796058 0.19286837
-0.28672403 0.14802143 -0.35523537 0.49154872 -0.3903435 -0.016196357 -0.060457602 -0.10613189
0.38223466 0.36990356 -0.053299583 -0.4188457 0.44657904 -0.33583522 -0.43247074 -0.12907855
-0.3044422 -0.098546416 -0.40793037 0.34422827 0.14262098 0.37396914 -0.39366826 -0.3730059
0.46219692 -0.16639952 -0.05465082 0.269269 -0.071910314 0.23537838 0.29844782 0.26697397
-0.42901078 -0.34483302 0.033797856 -0.10289941 0.35733616 -0.3008573 0.19600047 -0.011546541
0.40637907 -0.32039967 0.3508078 -0.20182022 -0.17399804 -0.36896765 -0.19949539 0.13832217
-0.18746887 0.4198706 0.4143149 0.15826723 0.18628226 -0.22928868 -0.2924368 0.23813832
-0.12596795 -0.29998377 -0.16071044 -0.018011995 -0.14658101 0.15188162 0.15752104 0.12853456
0.3294441 0.19458622 0.2440781 0.089383274 0.39707714 -0.34635714 -0.2795993 0.098289646
-0.09402788 0.26710948 -0.042274043 -0.08542971 -0.026482444 -0.076787055 0.21892428 0.20566788
0.13975088 -0.4824809 -0.15143822 -0.4377338 -0.16740115 0.27767172 -0.123206824 0.39055666
0.14279644 -0.093454 0.11419834 0.046547957 0.3763487 -0.29026 0.30198282 0.22299649
-0.16272949 -0.24999575 -0.09280314 0.076241225 0.26131806 0.116022125 -0.14234339 0.41491547
0.08907528 0.46963483 0.19243938 -0.42656404 -0.19888878 -0.050194483 -0.47342712 0.014882723
0.2458155 0.31446812 -0.060721792 0.031366806 -0.3489479 -0.3048682 -0.22426578 0.3546811
00000000: 32d4 a83e 169a d6be a21f 653e 9973 b7be
00000010: 893f 50be 8a2e 71be 167c c03e 9529 bbbe
00000020: b95b 32bb 12be dc3d 07d6 93be fcfb bcbe
00000030: e60b cc3e bcde c1be 3710 46be f3f6 d43c
00000040: d01b 9e3e d978 d4be 3457 2ebd 7c47 d13e
00000050: ed91 3dbe e9fe 8f3e 0c18 88be 0adf 8fbe
00000060: 227c 813d ed64 0ebe b3d3 c03e 369e a23e
00000070: bfa4 4b3e dcca c2be 59f9 dbbc ccb0 c23e
00000080: f7f2 463e d9f8 b2be da8f b43b 5b86 dcbe
00000090: 9d69 553d 113f c83e 2aa0 8ebe 401a 043e
000000a0: 9366 213e 8bee 833c d353 c3be 3439 80be
000000b0: d28d 51be b6f1 dfbe 2e87 d8be c5fc a4be
000000c0: 66ec 98be 764e bbbe fa11 d2be 35e0 babe
000000d0: 72df e13e f245 3fbe c47a a8bb 25db a0be
000000e0: 5a46 acbc cd0c a73e bfa3 513d e5bc bcbe
000000f0: 056d 29be d5e1 4b3e b1ee fdbb 2f1e 6a3e
00000100: 3ce4 ba3d 5265 d83e f09d e53d 3aa2 d5be
00000110: a2a2 96be 001e c9bc 2514 22be e129 893e
00000120: 5fc6 e63e e677 2cbe 7927 ba3e c0b7 ae3e
00000130: 3778 ca3e b498 c4be 0304 b0be 7b0a 0e3e
00000140: c7c6 f33d ef0c 8b3c 6b73 bfbe 57b3 c23e
00000150: 28d5 893e 0539 d63e 1001 863e 5497 c73e
00000160: 9345 f7bc 9fb5 303e 8ee8 f7bd f300 d03e
00000170: fb46 573e 6742 dbbe a8d2 9b3e 6d72 963d
00000180: 678b 113f b069 6c3e 6d91 ce3e 3c18 e1be
00000190: df76 533e a8b6 8ebe 7c02 a33e 4a11 fc3e
000001a0: 2a29 83bd 9cf5 a73b 4fef 61be ca9b debe
000001b0: 3f5f 0cbd 8270 4f3e e8ac 61be af0c 1fbc
000001c0: 9e89 d7be 74a1 c2be 2fd9 c63e 75de cabd
000001d0: 1135 c33d a0e9 c93e 6a8a 703e 86c9 abbe
000001e0: 23db de3e 2319 973e a861 7f3e fb52 293e
000001f0: 3e3d 6bbe 60c5 24bd 8045 923e 0a36 8bbe
00000200: f72f 393e eac8 9e3e 0093 fdb8 fe91 2c3a
00000210: a515 d1be 673d 8f3e 5195 f1bd 497f 453e
00000220: 7ecd 92be ee92 173e 69e1 b5be 46ac fb3e
00000230: 1adb c7be 39ae 84bc 64a2 77bd ad5b d9bd
00000240: 43b4 c33e 0064 bd3e aa50 5abd f272 d6be
00000250: 02a6 e43e 98f2 abbe ce6c ddbe 2b2d 04be
00000260: d9df 9bbe b4d2 c9bd 40dc d0be b03e b03e
00000270: 3c0b 123e e278 bf3e e38e c9be a1fa bebe
00000280: 13a5 ec3e a364 2abe 8ad9 5fbd a0dd 893e
00000290: b745 93bd 0807 713e 27ce 983e d0b0 883e
000002a0: 4da7 dbbe f48d b0be 9f6f 0a3d edbc d2bd
000002b0: c4f4 b63e f809 9abe 59b4 483e b42d 3dbc
000002c0: eb10 d03e 6d0b a4be 149d b33e f6a9 4ebe
000002d0: 8b2c 32be 54e9 bcbe 8548 4cbe 54a4 0d3e
000002e0: d7f7 3fbe 47f9 d63e 1521 d43e ce10 223e
000002f0: c7c0 3e3e a7ca 6abe 47ba 95be 88da 733e
00000300: befd 00be 7997 99be 4791 24be e48d 93bc
00000310: 5519 16be db86 1b3e 324d 213e 909e 033e
00000320: e6ac a83e 9c41 473e 9cef 793e 940e b73d
00000330: b24d cb3e b955 b1be a427 8fbe 154c c93d
00000340: b091 c0bd 93c2 883e 8c27 2dbd c6f5 aebd
00000350: b6f1 d8bc 8842 9dbd b02d 603e 9a9a 523e
00000360: db1a 0f3e bd07 f7be 9f12 1bbe a51e e0be
00000370: 356b 2bbe fd2a 8e3e dc53 fcbd 0bf7 c73e
00000380: 3b39 123e d064 bfbd d2e0 e93d 12a9 3e3d
00000390: c7b0 c03e f59c 94be 7e9d 9a3e 3159 643e
000003a0: 8fa2 26be e3fe 7fbe 930f bebd 5c24 9c3d
000003b0: 7bcb 853e 029d ed3d 77c2 11be cd6f d43e
000003c0: 1a6d b63d fa73 f03e d40e 453e 9a66 dabe
000003d0: 80a9 4bbe bb98 4dbd 0a65 f2be aad6 733c
000003e0: 0fb7 7b3e f701 a13e 6ab7 78bd 7b7a 003d
000003f0: 4da9 b2be af17 9cbe eea5 65be c398 b53e

cnn_pep_2.bias f4 [10]
-0.01420242 -0.04141757 0.09858529 -0.031052165 0.0925547 0.101623915 -0.023698661 -0.007843044
0.026406331 0.07446843
00000000: 44b1 68bc 78a5 29bd 16e7 c93d 1c61 febc
00000010: 528d bd3d 3320 d03d b223 c2bc 1c80 00bc
00000020: 1752 d83c e782 983d

cnn_apt.0.weight f4 [120, 1, 4, 4]
-0.048330657 0.036160838 0.093844235 -0.06828453 0.066425316 0.10966644 -0.013313486 -0.077390805
0.013744777 -0.1373821 -0.06787713 0.023064239 -0.022878803 -0.021711951 0.003805273 0.09479102
0.013823713 -0.05142916 -0.041164413 0.106564194 0.10971811 -0.19496821 -0.005642395 0.025201706
-0.015944174 0.0021099932 -0.16836897 0.18021803 0.24579893 -0.07997858 -0.09010104 -0.045537412
-0.07739346 0.17719312 -0.14078075 -0.06456639 0.0016724105 0.124020815 -0.10038715 -0.06685357
-0.0740801 0.015615635 -0.06585601 0.0043135793 -0.036507394 0.13573885 -0.03552216 -0.09259514
0.015456048 -0.06009002 -0.064699255 -0.07654703 -0.07254347 0.024206445 0.08820817 -0.018594312
0.058271553 -0.033435922 0.0009220987 -0.078108616 0.040024236 0.05854695 0.032561954 -0.058342233
0.03746538 0.00047061473 -0.015929822 0.046602644 -0.007541908 -0.005923751 0.05561541 0.0063796197
0.046241652 -0.0025176308 -0.07578587 -0.018619912 -0.031733975 -0.05330523 -0.04343735 -0.08417633
0.028768169 -0.008409673 0.013320678 0.026137525 0.12341622 -0.05052234 0.019954365 0.033041283
-0.0051938635 0.08933043 -0.097793646 -0.06908976 -0.035162672 -0.14479835 -0.04183436 -0.008816717
0.15942998 -0.14834483 -0.17619324 0.0712236 0.024283914 -0.072786376 -0.07374952 -0.07593616
-0.013998339 -0.050164048 -0.035038803 0.1945171 -0.03127577 -0.12813438 -0.074638546 0.2517346
-0.12914851 0.06736366 0.11282805 -0.064889975 -0.040915012 0.051423404 0.10188162 -0.0820111
-0.039841358 -0.005933073 -0.07284944 0.037720814 -0.11228018 -0.0909079 0.0413609 -0.010237498
-0.0047635697 -0.19139703 0.2839236 -0.12625769 0.13961041 -0.034756243 -0.12568805 -0.1691627
0.03802831 0.0098114405 -0.14380677 -0.052974183 -0.19609226 0.07185905 0.108996384 -0.117812306
-0.06687953 -0.050900918 0.046108406 0.016414233 -0.046977818 -0.01918155 -0.010632399 0.0036291727
0.015811644 0.029118637 -0.036495835 -0.0661293 -0.01337038 -0.028348539 -0.05708496 -0.07724428
-0.1743875 0.10158315 0.30316496 -0.10495395 0.019678444 -0.004417057 0.14285451 -0.07669026
0.015372492 -0.02799319 0.13472459 -0.041280642 -0.119678535 -0.08673098 0.15895721 0.03874335
0.04113497 0.036956392 0.009250904 -0.081534386 -0.06599704 -0.0550957 -0.0006699612 0.07410899
-0.04860389 -0.10577721 0.08727804 -0.084659405 -0.057540618 0.11278577 0.036746766 0.023902806
-0.018984824 -0.055643104 0.24552915 -0.16252832 0.10979142 0.17091946 -0.050091483 -0.117897026
-0.027069233 0.06490469 -0.09024833 0.0302986 -0.15453994 -0.08738887 0.19797012 -0.1183641
0.13252825 -0.044743285 0.07019367 0.010221412 -0.0017771078 0.079171665 -0.0851049 -0.018929038
-0.08623874 -0.07688016 0.14974324 0.012650836 -0.010247169 -0.031204207 -0.056396607 -0.10318212
0.04742644 -0.09975478 -0.012063522 0.0016661827 0.0117148645 -0.057593096 0.09035526 -0.07141795
0.053149626 0.0695291 -0.02493427 -0.10337482 -0.06712348 0.18007424 -0.028578913 -0.061074965
-0.0014064818 -0.029769905 0.09076882 -0.034568038 0.060295507 -0.11935887 0.07403794 -0.094545156
0.10580624 0.017955868 -0.06622533 -0.014535783 -0.112894565 0.13309045 0.13719171 -0.10329606
00000000: 5ef6 45bd 631d 143d 6831 c03d c2d8 8bbd
00000010: ff09 883d cc98 e03d cf20 5abc 127f 9ebd
00000020: c631 613c e5ad 0cbe 2a03 8bbd 37f1 bc3c
00000030: 546c bbbc 43dd b1bc e361 793b cb21 c23d
00000040: db7c 623c 62a7 52bd 049c 28bd 543e da3d
00000050: e3b3 e03d bfa5 47be d7e3 b8bb cf73 ce3c
00000060: 5b9d 82bc d047 0a3b ea68 2cbe 138b 383e
00000070: b7b2 7b3e cfcb a3bd e586 b8bd 7085 3abd
00000080: 7680 9ebd 1d72 353e d428 10be 623b 84bd
00000090: c934 db3a a0fe fd3d c797 cdbd 86ea 88bd
000000a0: 4fb7 97bd b8d8 7f3c 84df 86bd ed58 8d3b
000000b0: c788 15bd 20ff 0a3e af7f 11bd 85a2 bdbd
000000c0: 5d3b 7d3c f420 76bd 0b81 84bd b0c4 9cbd
000000d0: ac91 94bd 984c c63c 7ca6 b43d 1953 98bc
000000e0: 27ae 6e3d 1bf4 08bd ffb8 713a 69f7 9fbd
000000f0: 74f0 233d edce 6f3d af5f 053d 44f8 6ebd
00000100: 4c75 193d d7bc f639 427f 82bc 6ae2 3e3d
00000110: 1c22 f7bb 061c c2bb fccc 633d 210c d13b
00000120: e367 3d3d d6fe 24bb 9f35 9bbd c988 98bc
00000130: 7cfb 01bd 9656 5abd 5deb 31bd a464 acbd
00000140: 39ab eb3c bac8 09bc f93e 5a3c 5d1e d63c
00000150: a5c1 fc3d 83f0 4ebd 5677 a33c 4c56 073d
00000160: 4931 aabb dff2 b63d 0948 c8bd ef7e 8dbd
00000170: bc06 10bd 0546 14be 825a 2bbd fe73 10bc
00000180: 9d41 233e b5e7 17be 006c 34be aedd 913d
00000190: 0fef c63c 0611 95bd fd09 97bd 6b84 9bbd
000001a0: 4a59 65bc d178 4dbd d984 0fbd 7e2f 473e
000001b0: 061b 00bd a935 03be 18dc 98bd 5ce3 803e
000001c0: 823f 04be f5f5 893d 6512 e73d 09e5 84bd
000001d0: 8096 27bd 59a1 523d 50a7 d03d 70f5 a7bd
000001e0: b130 23bd 396a c2bb 1632 95bd 2481 1a3d
000001f0: 27f3 e5bd ec2d babd 0c6a 293d 2ebb 27bc
00000200: b817 9cbb 95fd 43be 6f5e 913e b249 01be
00000210: 08f6 0e3e 905c 0ebd 5eb4 00be fd38 2dbe
00000220: 93c3 1b3d 2ac0 203c 1542 13be 75fb 58bd
00000230: 69cc 48be d62a 933d 7f39 df3d 9447 f1bd
00000240: 23f8 88bd 7b7d 50bd 2bdc 3c3d 2477 863c
00000250: d06b 40bd a022 9dbc 8333 2ebc 6ad7 6d3b
00000260: 6c87 813c 358a ee3c a87c 15bd cc6e 87bd
00000270: 700f 5bbc 323b e8bc ebd1 69bd 4032 9ebd
00000280: a392 32be d40a d03d 7038 9b3e 19f2 d6bd
00000290: b034 a13c f6bc 90bb 7448 123e c80f 9dbd
000002a0: e8dc 7b3c f951 e5bc 3ef5 093e e415 29bd
000002b0: 051a f5bd 03a0 b1bd aec5 223e 59b1 1e3d
000002c0: 247d 283d 965f 173d 1b91 173c 80fb a6bd
000002d0: 7529 87bd 07ac 61bd 56a0 2fba 74c6 973d
000002e0: df14 47bd b9a1 d8bd d4be b23d e961 adbd
000002f0: b6af 6bbd 3afc e63d c783 163d d1cf c33c
00000300: 1086 9bbc 06ea 63bd fe6b 7b3e d36d 26be
00000310: 53da e03d 8305 2f3e ba2c 4dbd ff73 f1bd
00000320: 4cc0 ddbc c0ec 843d 1ed4 b8bd c534 f83c
00000330: b83f 1ebe f0f8 b2bd aeb8 4a3e e168 f2bd
00000340: 7cb5 073e bc44 37bd b3c1 8f3d b677 273c
00000350: d8ed e8ba c124 a23d 7a4b aebd 1211 9bbc
00000360: f09d b0bd 5873 9dbd 4b56 193e 7445 4f3c
00000370: bee3 27bc f79f ffbc 2100 67bd 2651 d3bd
00000380: 3a42 423d 3c4c ccbd 14a6 45bc d063 da3a
00000390: b4ef 3f3c bde6 6bbd 2e0c b93d 9343 92bd
000003a0: 6cb3 593d 4665 8e3d f442 ccbc 2db6 d3bd
000003b0: 0978 89bd 6265 383e 531e eabc be29 7abd
000003c0: b359 b8ba 04e0 f3bc 01e5 b93d 3797 0dbd
000003d0: 6cf8 763d 6c72 f4bd 34a1 973d e4a0 c1bd
000003e0: f1b0 d83d 2f18 933c 25a1 87bd 7e27 6ebc
000003f0: 4435 e7bd dd48 083e fc7b 0c3e e28c d3bd

cnn_apt.0.bias f4 [120]
-0.06636124 -0.0556842 -0.024738824 -0.02234857 -0.043013543 -0.05598819 -0.033972632 -0.055187322
-0.08500837 -0.049300335 -0.035722442 -0.006634118 -0.04275003 0.009568965 -0.0059254165 -0.09449765
-0.052512918 -0.06520612 -0.028945185 -0.028182283 -0.007571432 -0.052100364 -0.03689983 -0.041680306
-0.0032014234 -0.114714526 -0.04519999 -0.001975621 0.01972133 -0.029117374 -0.032858096 -0.03253853
-0.05912195 0.0014433046 -0.060746238 -0.12929635 -0.006913799 -0.005536191 -0.017645668 0.024112534
-0.044368345 -0.0033758937 -0.045745533 0.007953273 -0.043911215 -0.10865772 -0.06838765 -0.043780655
-0.04187296 0.0019696213 -0.0569505 -0.06786565 0.032178614 -0.07408224 -0.06257508 -0.048724983
-0.047215454 -0.0792496 0.015145275 -0.010864521 -0.057239704 -0.02314586 -0.041889004 0.004571804
-0.068370864 -0.06252636 -0.027473163 -0.030984575 0.02521774 -0.032103036 -0.054562025 -0.041381355
-0.004540228 -0.010545574 -0.051526204 -0.049865894 -0.05947802 -0.050919425 -0.052379455 -0.05600744
-0.075589426 -0.027320206 -0.02183833 0.0057217185 -0.046211943 -0.058793277 -0.042753622 -0.00486668
-0.03441367 -0.0338463 -0.00079547917 0.011818654 -0.011885665 0.0018235703 -0.043552056 -0.054204423
-0.06569744 -0.011748806 -0.03387432 -0.031095264 -0.04371443 -0.09385367 -0.116949424 -0.030869415
-0.06736947 -0.016565412 -0.06453162 -0.05309237 -0.012574429 -0.043399926 -0.03618218 -0.035341363
0.056008816 -0.033029698 0.0061127045 -0.03143662 -0.049209394 -0.011370147 -0.057664517 -0.010920962
00000000: 67e8 87bd 1e15 64bd 13a9 cabc 5914 b7bc
00000010: f82e 30bd df53 65bd e326 0bbd 1a0c 62bd
00000020: de18 aebd 26ef 49bd b251 12bd 0463 d9bb
00000030: a81a 2fbd 26c7 1c3c ff29 c2bb fc87 c1bd
00000040: c917 57bd c98a 85bd 741e edbc 88de e6bc
00000050: c619 f8bb 3167 55bd 4724 17bd f8b8 2abd
00000060: f9ce 51bb 73ef eabd a023 39bd 6c79 01bb
00000070: a08e a13c 8f87 eebc 3696 06bd 1f47 05bd
00000080: dc29 72bd 442d bd3a 0cd1 78bd 4366 04be
00000090: 268d e2bb f068 b5bb a68d 90bc a687 c53c
000000a0: 95bb 35bd 193e 5dbb ab5f 3bbd 724e 023c
000000b0: 3fdc 33bd f087 debd d30e 8cbd 5853 33bd
000000c0: fb82 2bbd c314 013b ed44 69bd 25fd 8abd
000000d0: b9cd 033d 6eb8 97bd 5d27 80bd d993 47bd
000000e0: fe64 41bd 9d4d a2bd e323 783c 1b01 32bc
000000f0: 2e74 6abd 639c bdbc ce93 2bbd 12cf 953b
00000100: 0606 8cbd d20d 80bd 660f e1bc 5dd3 fdbc
00000110: 6f95 ce3c 797e 03bd 6e7c 5fbd 7f7f 29bd
00000120: 31c6 94bb 58c7 2cbc 240d 53bd 2e40 4cbd
00000130: 399f 73bd e390 50bd d78b 56bd 0f68 65bd
00000140: a1ce 9abd a0ce dfbc 4ce6 b2bc 417d bb3b
00000150: bc48 3dbd 38d1 70bd 6c1e 2fbd ac78 9fbb
00000160: 59f5 0cbd 6ba2 0abd b487 50ba 07a3 413c
00000170: 18bc 42bc de04 ef3a a463 32bd 7505 5ebd
00000180: 618c 86bd 107e 40bc cdbf 0abd 7fbb febc
00000190: e70d 33bd 5a36 c0bd 2e83 efbd dbe1 fcbc
000001a0: 01f9 89bd 30b4 87bc 2729 84bd 6377 59bd
000001b0: fa04 4ebc 1fc4 31bd c433 14bd 1bc2 10bd
000001c0: 8069 653d 264a 07bd 154d c83b afc3 00bd
000001d0: ca8f 49bd da49 3abc a131 6cbd d6ed 32bc
